models/BACE_baseModel.pth (torch, 750054 bytes, 20 tensors)

bias f4 [128]
0	0x3d858cce	0.06520997
1	0xbdc590cd	-0.09646759
2	0x3d69c7ef	0.057075437
3	0x3e6160a0	0.22009516
4	0xbe8334b3	-0.25626144
5	0x3dd1193f	0.102098934
6	0xbc6c2183	-0.014412287
7	0x3d9b8f8a	0.07595737
8	0xbdab8d38	-0.08376545
9	0x3e424b78	0.18974102
10	0x3e3816f6	0.17977509
11	0x3dfe6d11	0.124231465
12	0xbda1b3eb	-0.07895645
13	0x3d8d865d	0.069103934
14	0xbc7df51b	-0.015500332
15	0xbe38bb06	-0.18040094
16	0xbd8594ba	-0.06522508
17	0x3d807cbb	0.062737904
18	0x3e710dd2	0.23540428
19	0xbb4269fc	-0.0029665222
20	0xbd11779b	-0.035514455
21	0x3d2d3f27	0.042296555
22	0x3c556e67	0.01302681
23	0x3d51ffe6	0.051269434
24	0xbd979a1b	-0.0740244
25	0x3d98e973	0.07466402
26	0xbe2ad031	-0.16680981
27	0x3da77297	0.08176153
28	0x3d0f7b25	0.03502955
29	0xbe6a6e23	-0.22893576
30	0xbd88ad87	-0.06673723
31	0xbe35fafb	-0.17771523
32	0x3d17464a	0.036932267
33	0x3e232bba	0.15934649
34	0xbe0cfdea	-0.13768736
35	0xbcba8171	-0.0227668
36	0x3c1af66a	0.009458164
37	0xbe06f92c	-0.13180989
38	0xbd2d5aa7	-0.04232278
39	0x3d20e76e	0.03928321
40	0x3dc31098	0.095246494
41	0xbd84c000	-0.064819336
42	0xbcd29b3c	-0.025708787
43	0xbce3e1e4	-0.027817674
44	0xbd0a5aa9	-0.033777867
45	0x3d91efc1	0.071258076
46	0xbd885009	-0.066558905
47	0x3d9945c7	0.07484012
48	0x3df81351	0.12113059
49	0x3cb1e134	0.02171383
50	0xbd8a03cf	-0.06739008
51	0xbd85677c	-0.06513879
52	0xbe507e81	-0.20360757
53	0x3adaecc9	0.0016702648
54	0xbd50ccdc	-0.05097662
55	0x3b1563f7	0.002279518
56	0xbdca3177	-0.09872716
57	0xbd4413ad	-0.047870327
58	0x3e06999e	0.13144538
59	0xbced63b7	-0.028978212
60	0xbe032a27	-0.12809049
61	0x3dbb1c0e	0.091362104
62	0x3d7bebaf	0.061504062
63	0x3d5f1c72	0.054470487
64	0xbe0f617a	-0.14002028
65	0x3c6708bd	0.014101204
66	0x3cae7843	0.02129758
67	0x3cf58e90	0.029975206
68	0xbc1ced20	-0.009578019
69	0x3c1dc9d2	0.009630637
70	0xbe060ea3	-0.13091521
71	0x3cddbdb0	0.02706799
72	0xbd9f695a	-0.07783766
73	0x3ce99371	0.028512688
74	0xbbfa32c9	-0.0076354486
75	0x3d53b32a	0.051684536
76	0xbd62ab2e	-0.05533903
77	0x3d9fabef	0.077964656
78	0xbe77d537	-0.24202429
79	0xbd2c0b73	-0.042003106
80	0xbd9abd7f	-0.07555675
81	0x3d21bc62	0.039486296
82	0xbe03eb5a	-0.12882748
83	0x3d9c374d	0.07627735
84	0xbd6c3df5	-0.057676274
85	0x3e9925f8	0.2991178
86	0xbd6fb774	-0.058524564
87	0x3d76c3fe	0.060245506
88	0xbe3f2134	-0.1866501
89	0x3d67965e	0.056539886
90	0x3e074501	0.13209917
91	0xbe0283a4	-0.1274553
92	0xbd907234	-0.070530325
93	0xbdaa1baa	-0.08306058
94	0xbd20d073	-0.039261293
95	0x3e4ea9df	0.20181988
96	0xbc4d81c5	-0.0125431465
97	0x3d103b73	0.035212945
98	0xbceea6da	-0.029132295
99	0x3d8f216b	0.06988796
100	0xbd746f5c	-0.059676513
101	0x3dd72ac1	0.105062015
102	0xbd38af6f	-0.04508918
103	0x3e2667d4	0.16250545
104	0x3e795c2e	0.2435157
105	0x3d7d7005	0.06187441
106	0xbcd52fb6	-0.026023727
107	0x3ccc9643	0.024973994
108	0x3e2535f6	0.16133866
109	0xbc50b708	-0.012738951
110	0x3c845902	0.016155723
111	0x3e820679	0.25395563
112	0xbcd2bd0d	-0.025724912
113	0x3df53f70	0.1197499
114	0x3e2cf4fa	0.16890326
115	0xbd26e7cb	-0.0407484
116	0x3da6fba9	0.08153469
117	0x3e220a3a	0.15824214
118	0xbcce6958	-0.025196716
119	0x3cb8c4e8	0.02255483
120	0x3dfa4a24	0.122211725
121	0x3c1d8bd5	0.009615858
122	0x3e1f78d3	0.15573435
123	0xbb904660	-0.0044029206
124	0x3cba521f	0.022744237
125	0x3d4cf81e	0.05004131
126	0x3ad35305	0.0016122764
127	0x3da85897	0.08220022

weight f4 [128, 9]
0	0xbe696383	-0.22791867
1	0x3eaae16b	0.33375105
2	0xbd9f649b	-0.07782861
3	0x3e51affb	0.20477287
4	0xbb40ab72	-0.0029399064
5	0x3e27002d	0.16308661
6	0x3de98000	0.11401367
7	0x3d6a404e	0.057190232
8	0x3e42cdaa	0.19023767
9	0x3e26cb8e	0.16288587
10	0x3e4e8f66	0.2017189
11	0x3e380430	0.17970347
12	0xbe77a27a	-0.24183074
13	0xbdf2dd0a	-0.11858566
14	0xbb353000	-0.0027647018
15	0x3bbee1b5	0.005825246
16	0x3cbaf545	0.022822032
17	0xbe113e23	-0.1418386
18	0xbd88beca	-0.06677015
19	0x3e83983b	0.2570208
20	0xbd9d04eb	-0.07666954
21	0x3e723966	0.23654708
22	0x3e763ce0	0.2404666
23	0x3da4f68a	0.08054836
24	0xbe648a84	-0.22318465
25	0xbe0282d3	-0.12745218
26	0x3de373f1	0.111060984
27	0xbd8b98a2	-0.06816222
28	0xbe7cae40	-0.24675846
29	0xbb5cb532	-0.0033677337
30	0xbe03914f	-0.128484
31	0xbdafb21a	-0.08578892
32	0xbc10b650	-0.008832529
33	0x3e33592d	0.17514487
34	0x3d8e59c8	0.06950718
35	0xbd627567	-0.055287745
36	0x3e25244a	0.16127124
37	0xbe1c61d7	-0.15271698
38	0x3e537ed5	0.20653851
39	0xbdf6fc32	-0.12059821
40	0xbdf3ae80	-0.118985176
41	0xbdb08536	-0.08619158
42	0x3d2fbebb	0.042906504
43	0xbe253147	-0.16132079
44	0x3e254dae	0.16142914
45	0xbe2d9f2d	-0.16955252
46	0x3b3646cd	0.0027813197
47	0x3daf759b	0.08567353
48	0xbdc19406	-0.09452061
49	0xbd73a9c4	-0.059488073
50	0x3d8e2942	0.06941463
51	0x3e014237	0.12622915
52	0x3c838bd7	0.016057892
53	0x3e37caf1	0.1794851
54	0xbd720497	-0.05908641
55	0x3d90de31	0.0707363
56	0x3e57d946	0.21078977
57	0x3bb82c9d	0.0056205527
58	0x3e272895	0.16324075
59	0xbe279f77	-0.16369425
60	0xbce4866a	-0.027896125
61	0x3dec0a74	0.11525431
62	0x3d69b649	0.057058606
63	0x3e2f94ae	0.1714656
64	0x3e813979	0.2523916
65	0xbd0ca283	-0.03433467
66	0xbe580841	-0.21096899
67	0xbd8446b9	-0.06458802
68	0xbe3a6be6	-0.18205222
69	0xbd8ba71f	-0.06818985
70	0x3e335b3e	0.17515275
71	0xbda44646	-0.08021216
72	0x3e558726	0.20852336
73	0xbc955b4a	-0.018232007
74	0x3e4c74be	0.19966409
75	0xbe2fef1a	-0.17181054
76	0xbe88314f	-0.2660012
77	0xbe4a9d76	-0.19786629
78	0xbe01e75a	-0.1268591
79	0xbe796de4	-0.24358326
80	0xbe1fc27d	-0.15601535
81	0xbdb91626	-0.090374276
82	0x3dcc896a	0.09987147
83	0xbe0b12b2	-0.1358135
84	0x3e214aa6	0.15751132
85	0x39fd2806	0.0004828574
86	0xbe03b351	-0.12861373
87	0xbda49eb4	-0.08038083
88	0x3e77f250	0.24213529
89	0x3d314f3d	0.04328846
90	0xbcebfa28	-0.028805807
91	0x3e34355f	0.17598484
92	0xbe2ac823	-0.16677909
93	0xbc7ca013	-0.015419024
94	0xbd1c6a67	-0.03818741
95	0xbdce1755	-0.10063044
96	0xbd26e5be	-0.040746443
97	0xbd0e211b	-0.03469954
98	0x3e78c67f	0.2429447
99	0xbe3e4f3b	-0.18584912
100	0xbe19f448	-0.15034592
101	0x3e63bb6c	0.22239465
102	0xbd00ffb4	-0.031493858
103	0xbdf0fff6	-0.11767571
104	0xbd88301c	-0.06649801
105	0xbd748544	-0.059697405
106	0x3e1b2ecb	0.15154569
107	0xbd93854b	-0.07203158
108	0x3c810007	0.015747083
109	0x3e6fa664	0.23403317
110	0xbe0bd768	-0.1365639
111	0x3d37976a	0.044822134
112	0xbc070784	-0.008241538
113	0xbc7f55a0	-0.015584379
114	0x3da5e5c2	0.081004634
115	0x3e18e300	0.14930344
116	0x3e1b0d05	0.15141685
117	0x3d1a9019	0.03773508
118	0x3d15e52c	0.03659551
119	0xbd2f2188	-0.042756587
120	0x3d1cb9b7	0.03826305
121	0x3e2ac4e3	0.16676669
122	0xbdd88b34	-0.10573426
123	0xbe1d26c2	-0.15346816
124	0xbe3efc84	-0.18651015
125	0xbe415bd8	-0.18882692
126	0xbd4407ac	-0.04785888
127	0x3cd416d4	0.025889792
128	0xbd2059cd	-0.03914814
129	0x3deb3b24	0.114858896
130	0xbe8a0a8d	-0.26961175
131	0xbd3754bc	-0.044758543
132	0x3dd3e571	0.10346497
133	0xbe36a6b9	-0.17837037
134	0xbda62900	-0.08113289
135	0x3e12aeab	0.14324443
136	0x3ea6b2cf	0.32558295
137	0x3e252053	0.16125612
138	0xbd18660e	-0.037206702
139	0xbe41bb7b	-0.18919174
140	0x3c82ce00	0.01596737
141	0x3e07b97d	0.13254352
142	0x3e73c693	0.23806219
143	0xbe883579	-0.26603296
144	0x3daaafb1	0.08334292
145	0xbeff8f74	-0.49914134
146	0x3c980261	0.018555822
147	0x3d79fd62	0.06103266
148	0x3dadc05c	0.08483955
149	0xbe028f4a	-0.12749973
150	0xbe828557	-0.25492355
151	0x3e55b4bb	0.20869724
152	0x3d4ab5c4	0.04948975
153	0xbe268248	-0.16260636
154	0x3e41a131	0.18909146
155	0xbe1609e7	-0.14652215
156	0x3e1de138	0.15417945
157	0xbe097320	-0.13422823
158	0xbbf23ba0	-0.0073923618
159	0xbd598b4d	-0.053111363
160	0x3d63a23c	0.05557464
161	0x3e87bc6e	0.26510948
162	0x3da8b67e	0.082379326
163	0xbede83b1	-0.43459848
164	0xbb02a367	-0.0019933821
165	0xbcf42d59	-0.02980678
166	0xbdc7adfb	-0.09749981
167	0x3e4cf405	0.20014961
168	0xbe332c0b	-0.1749727
169	0xbc4bd088	-0.012439854
170	0xbe23e458	-0.16005075
171	0xbe1b076c	-0.1513955
172	0xbe29975c	-0.16561645
173	0x3e4aa2f3	0.19788723
174	0xbd83cdd2	-0.064357415
175	0x3db6d77d	0.0892782
176	0xbb692500	-0.0035575032
177	0x3d9d5620	0.07682443
178	0x3da928a5	0.082597055
179	0xbdb1cec1	-0.08682013
180	0x3d7e426d	0.062075067
181	0xbcdbec77	-0.026846154
182	0xbe12d27f	-0.1433811
183	0x3d744187	0.059632804
184	0xbe8fcf3a	-0.2808779
185	0xbd09cab0	-0.033640563
186	0x3da48c1b	0.080345355
187	0xbe8f7997	-0.28022453
188	0xbd39ee98	-0.045393556
189	0x3dcef600	0.101055145
190	0x3dfb15d0	0.1226002
191	0xbd71c958	-0.059029907
192	0x3d55b8a4	0.05217804
193	0x3e7a2d0a	0.24431244
194	0x3d03a5f0	0.032140672
195	0xbe5bf011	-0.21478297
196	0xbe6abf9a	-0.22924653
197	0xbd6a9330	-0.057269275
198	0xbd47bd98	-0.048764795
199	0x3dc2468e	0.094861135
200	0x3dfd4556	0.123667404
201	0x3cf172db	0.029473713
202	0xbda5b881	-0.08091832
203	0xbe1c297a	-0.15250197
204	0x3d57ea4f	0.05271369
205	0xbe3a285f	-0.18179463
206	0x3d6f3639	0.05840132
207	0xbdb93237	-0.09042781
208	0xbc18092e	-0.009279532
209	0xbdacf255	-0.08444659
210	0x3dab3dbc	0.08361384
211	0xbe1ee38e	-0.15516493
212	0xbdc24599	-0.09485931
213	0x3c97bf73	0.018523907
214	0x3e1fce3b	0.15606014
215	0x3d03101d	0.03199779
216	0xbe0cebdc	-0.13761848
217	0xbe83406c	-0.25635087
218	0x3d7091f3	0.058732938
219	0x3d829ff2	0.063781634
220	0x3cf6dfc5	0.030135999
221	0x3e459817	0.19296299
222	0x3e074ab1	0.13212086
223	0x3d6c10ea	0.057633318
224	0x3e359b11	0.17734934
225	0xbd3fffc1	-0.046874765
226	0xbe2af114	-0.16693527
227	0x3e1bc095	0.15210183
228	0xbdd2f949	-0.103014536
229	0x3dc7747f	0.09739017
230	0xbd5ebfa0	-0.054381967
231	0xbc4e139b	-0.0125779165
232	0xbc4da5e8	-0.012551762
233	0x3c69db0b	0.014273415
234	0xbd6851d4	-0.056718662
235	0x3e2775f9	0.16353597
236	0x3e40c4ab	0.18825023
237	0x3e28a549	0.16469301
238	0x3d92f59e	0.07175754
239	0xbdddcdcd	-0.10830269
240	0x3e04ad36	0.129567
241	0xbd53c4c8	-0.051701337
242	0xbda1ce5d	-0.07900689
243	0xbcfb1be1	-0.030652942
244	0x3ec3c3fe	0.38235468
245	0x3db3ca3a	0.08778806
246	0xbc295019	-0.010334038
247	0x3e53c36b	0.20680015
248	0x3e0bcc95	0.1365226
249	0xbd261b57	-0.040553417
250	0x3e59c67d	0.21267124
251	0xbea95e4e	-0.3307976
252	0xbd3cc91d	-0.046090234
253	0x3d962e9f	0.07333111
254	0x3dce1a08	0.10063559
255	0x3e619391	0.22028948

weight f4 [256, 128]
0	0x3e48229d	0.19544454
1	0xbcd5fbff	-0.026121138
2	0xbda638cd	-0.08116303
3	0x3e871ab2	0.26387554
4	0xbd02f68d	-0.03197341
5	0x3dff2d76	0.12459843
6	0xbdbb7893	-0.09153857
7	0x3db0bb74	0.08629504
8	0xbdf59e6c	-0.11993107
9	0x3dc3c785	0.0955954
10	0x3d95ef37	0.07321017
11	0x3e070989	0.13187231
12	0xbd99dea8	-0.075131714
13	0xbdb2814e	-0.08716069
14	0x3dad586e	0.08464132
15	0xbc3280a1	-0.010894925
16	0x3a892750	0.0010463987
17	0x3e4a83fd	0.19776912
18	0xbd1d8ff2	-0.038467355
19	0x3e07e6f1	0.13271691
20	0xbd3eb4c6	-0.046559118
21	0xbdf116ed	-0.11771951
22	0xbd0c24ab	-0.034214657
23	0x3d9f873c	0.07789466
24	0x3ce1344f	0.027490763
25	0x3d000723	0.031256806
26	0xbe0fc915	-0.1404155
27	0x3d94aeb5	0.07259885
28	0x3ccf1d12	0.025282416
29	0xbd071e65	-0.03298797
30	0x3c5e5095	0.013569017
31	0x3d90a46d	0.07062612
32	0xbda7d4d0	-0.08194888
33	0xbc53cd12	-0.012927311
34	0xbe402615	-0.18764527
35	0xbc9d5422	-0.019205157
36	0x3ad03719	0.0015885561
37	0xbe49693c	-0.1966905
38	0xbdf52c21	-0.119713075
39	0x3bfa4d75	0.007638628
40	0x3bff1f7e	0.0077857366
41	0xbd7cfbab	-0.061763447
42	0xbdc12bfb	-0.09432217
43	0x3d774b66	0.06037464
44	0x3cec5277	0.028847916
45	0x3c9f8c32	0.01947603
46	0xbd8af716	-0.06785409
47	0xbc7d8caf	-0.015475436
48	0xbd00f5ad	-0.031484295
49	0xbe45a11d	-0.19299741
50	0xbe190491	-0.14943148
51	0x3d4f2b86	0.050578617
52	0xbdff9aff	-0.12480735
53	0x3d195ff3	0.03744502
54	0xbd61e276	-0.05514761
55	0x3dafb9cf	0.08580362
56	0xbd266c69	-0.04063073
57	0xbd788214	-0.060670927
58	0x3e419c52	0.18907288
59	0xbd3fd7eb	-0.046836775
60	0xbc80cb63	-0.015721982
61	0x3d279047	0.040909078
62	0xbb5baa18	-0.0033518132
63	0xbd6cd060	-0.05781591
64	0x3d371d46	0.04470565
65	0xbd8fdc61	-0.07024456
66	0x3d86e815	0.06587235
67	0x3d907811	0.07054151
68	0x3d7ad264	0.0612358
69	0x3d66596c	0.056237623
70	0xbe87b672	-0.26506382
71	0xbd65a757	-0.05606779
72	0xbe411b9f	-0.18858193
73	0x3d523dbb	0.051328402
74	0xbce0cef4	-0.027442433
75	0x3df18bf4	0.11794272
76	0xbd841886	-0.0644999
77	0x3e85012b	0.25977454
78	0xbe2d2bd8	-0.16911256
79	0xbc2a8c06	-0.010409361
80	0xbe16773d	-0.14693923
81	0x3cbbdb80	0.022931814
82	0xbe0ce031	-0.13757397
83	0xbbfc99aa	-0.007708748
84	0xbcc4d45b	-0.02402704
85	0x3d33d8f5	0.04390808
86	0xbd76e735	-0.06027909
87	0x3e0af006	0.13568124
88	0xbde4fe54	-0.11181322
89	0xbd3dd2b3	-0.046343517
90	0x3de606ce	0.11231767
91	0xbca6257b	-0.020281544
92	0x3d229eef	0.039702352
93	0xbd9a1e67	-0.0752533
94	0x3c86eb23	0.016469544
95	0x3d6e3c41	0.05816293
96	0x3d2aafd0	0.041671574
97	0xbbfea6d5	-0.007771353
98	0xbd994f14	-0.07485786
99	0xbd22397e	-0.03960561
100	0x3c92037f	0.017823933
101	0x3d7a20b3	0.06106634
102	0xbdccc7ed	-0.0999907
103	0x3de3b583	0.11118605
104	0x3d8d8468	0.0691002
105	0x3d7a1113	0.06105144
106	0xbe0e61a9	-0.13904442
107	0xbc8fdb66	-0.017560672
108	0x3ddba8ae	0.107255325
109	0xbd9066cd	-0.07050858
110	0xbbb07e1e	-0.005386128
111	0x3dc5c283	0.09656241
112	0xbd8e3aa9	-0.06944782
113	0x3deaccc3	0.114648364
114	0x3dac75b7	0.0842089
115	0xbd9ffca1	-0.07811857
116	0x3db2d531	0.08732069
117	0x3d844ab3	0.0645956
118	0xbdaa54a5	-0.08316926
119	0x3d73eae9	0.0595502
120	0x3df1ab05	0.118001975
121	0x3e1fb920	0.15597963
122	0x3c572590	0.013131514
123	0xbdcf0965	-0.10109214
124	0x3e577afe	0.21043012
125	0xbdd9eb66	-0.10640602
126	0x3e1fa4a3	0.15590148
127	0x3dea61b9	0.1144442
128	0xbe5380b6	-0.20654568
129	0x3d81715f	0.06320452
130	0xbda6c34e	-0.0814272
131	0xbe23111f	-0.159245
132	0x3e8047af	0.2505469
133	0xbe12eb1e	-0.14347503
134	0xbd49754c	-0.04918413
135	0x3d4ef320	0.05052483
136	0x3e2a2ff9	0.16619863
137	0xbd70ae7f	-0.058760162
138	0xbe3c8d48	-0.1841327
139	0xbd50d818	-0.050987333
140	0xbd85202a	-0.065002754
141	0xbdf39240	-0.11893129
142	0x3d31a4a4	0.043369904
143	0x3dc4cf8f	0.09609901
144	0x3dcab1d1	0.09897197
145	0xbd474d19	-0.04865751
146	0xbba6dad5	-0.005092005
147	0xbd2a572d	-0.041587044
148	0xbc99dec5	-0.018782983
149	0x3d8ca1f9	0.06866831
150	0x3be41a7e	0.006961166
151	0xbd68ef1e	-0.056868665
152	0x3de7c9e5	0.11317805
153	0xbd814e5e	-0.063137755
154	0x3e197003	0.14984135
155	0xbd59819f	-0.053102132
156	0x3df9f398	0.12204665
157	0x3e08b1ad	0.13349028
158	0x3d7b1032	0.061294742
159	0x3c2e275f	0.010629504
160	0x3df43963	0.11925008
161	0xbe609262	-0.2193084
162	0x3dbb8b42	0.09157421
163	0xbd81494c	-0.063128084
164	0xbc474a52	-0.012163715
165	0x3e806668	0.2507813
166	0x3e639cc1	0.22227766
167	0xbdad445c	-0.08460304
168	0xbd0c3c8c	-0.03423743
169	0x3ddf0115	0.10888878
170	0xbcd0fe08	-0.025511757
171	0xbb9fda35	-0.004878307
172	0x3dd39f0b	0.103330694
173	0xbd6b87bd	-0.057502497
174	0x3d77f437	0.060535636
175	0xbd788b32	-0.060679622
176	0x3ca5426f	0.02017328
177	0x3cd7f719	0.026362943
178	0x3d117439	0.03551123
179	0xbdab694c	-0.08369693
180	0x3d962965	0.07332114
181	0x3d64fc4e	0.05590468
182	0x3c21be61	0.00987205
183	0xbc70c48c	-0.014695298
184	0x3e0e3fcf	0.13891529
185	0x3da76cf3	0.08175077
186	0xbe53ee25	-0.20696314
187	0x3d32bf5d	0.04363953
188	0xbda93df0	-0.08263767
189	0xbc9fd4fd	-0.01951074
190	0xbe0121e3	-0.12610583
191	0xbce8591d	-0.028362805
192	0x3e595fa8	0.21227896
193	0x3cfe4503	0.031038767
194	0xbdcdc1d8	-0.100467384
195	0xbd4bac44	-0.049724832
196	0x3d65efeb	0.056137007
197	0x3d4e1bd1	0.050319497
198	0x3e95a50f	0.29227492
199	0xbdec4a21	-0.115375765
200	0xbd524900	-0.05133915
201	0xbdc0a9db	-0.09407397
202	0xbd25c8aa	-0.04047457
203	0xbd6e3395	-0.05815466
204	0x3d7b34f4	0.061329797
205	0xbec42916	-0.38312596
206	0x3e3a4a5e	0.18192431
207	0x3d81785c	0.06321785
208	0x3db3af83	0.087737106
209	0xbc1d0289	-0.009583124
210	0xbccbbf84	-0.024871595
211	0xbdd50d81	-0.10402966
212	0x3e734d74	0.23760015
213	0xbda662e9	-0.08124334
214	0xbdd0393f	-0.10167169
215	0xbdce792e	-0.10081707
216	0xbc75b584	-0.01499689
217	0x3d090868	0.033455282
218	0xbd851763	-0.06498601
219	0x3d57e3b4	0.05270739
220	0xbc346f0b	-0.011012803
221	0xbc622eed	-0.013805133
222	0x3dfb22d7	0.122625045
223	0xbe558284	-0.20850569
224	0xbd9197f3	-0.0710906
225	0xbc4b0a35	-0.01239257
226	0x3dba0077	0.0908212
227	0x3e06ea5b	0.13175337
228	0x3c93d193	0.018044269
229	0xbc8fe0f3	-0.017563319
230	0x3dc0f63d	0.09421966
231	0xbacf9724	-0.001583789
232	0xbdcc9163	-0.09988668
233	0xbd6ae7ad	-0.05734985
234	0xbcedd5b6	-0.02903257
235	0xbe7bdc8c	-0.2459585
236	0xbdff5ea5	-0.12469224
237	0x3dc6a39c	0.09699175
238	0xbd3ba89b	-0.04581509
239	0xbe44f934	-0.19235688
240	0x3d1d6f45	0.038436193
241	0xbd3a471e	-0.04547798
242	0x3d9371cb	0.07199439
243	0x3d911ef6	0.070859835
244	0x3ddf8242	0.109135166
245	0xbd4f1cd8	-0.050564617
246	0x3d9dfc2c	0.077141136
247	0xbe22f29c	-0.1591286
248	0xbe159434	-0.14607316
249	0xbdba544c	-0.090981096
250	0xbe02dc1b	-0.12779276
251	0xbd644897	-0.05573329
252	0xbe391f53	-0.18078355
253	0x3db0cf21	0.08633257
254	0xbe2cb195	-0.16864617
255	0xbd94edcf	-0.07271921

bias f4 [256]
0	0x3cc8c4c3	0.024507886
1	0xbcfbcec2	-0.030738238
2	0x3d220e36	0.039564334
3	0xbd8e440d	-0.069465734
4	0x3d6eff62	0.05834902
5	0xbcf21b5e	-0.029554065
6	0xbb34bc10	-0.0027577914
7	0x3da7a9d6	0.081866905
8	0xbd7b0239	-0.061281417
9	0x3d6e5e7c	0.058195576
10	0xbc5c3305	-0.013439898
11	0x3cc7aadf	0.02437347
12	0xbca53b64	-0.020169921
13	0x3d7f25c3	0.06229187
14	0x3d78a7bb	0.060706835
15	0xbcbd1dfb	-0.023085585
16	0xbd35c5fa	-0.04437826
17	0x3d370cf0	0.044690073
18	0x3d509915	0.05092724
19	0xbd80361a	-0.06260319
20	0xbd8dc37c	-0.06922051
21	0x3d9a5676	0.07536022
22	0xbd1cbced	-0.03826611
23	0x3d7654a8	0.06013933
24	0x3cc90242	0.02453721
25	0xbd91a931	-0.07112349
26	0x3c4dd99a	0.012564087
27	0xbcf17623	-0.029475277
28	0x3d81f2be	0.063451275
29	0xbca95fa7	-0.020675493
30	0x3d9c0ec4	0.07620004
31	0x3d66ee75	0.056379754
32	0x3d902ce3	0.070398115
33	0x3d72fbb2	0.059322067
34	0xbd17c415	-0.037052233
35	0x3c866d83	0.016409641
36	0xbbcdfbd6	-0.0062861247
37	0xbc8daacc	-0.017293356
38	0x3d2e0256	0.042482696
39	0xbac5af6d	-0.0015082188
40	0xbc25065f	-0.01007232
41	0xbd332c9b	-0.04374371
42	0xbd574aea	-0.052561678
43	0xbb1d3ad9	-0.0023991375
44	0x3d9c96b0	0.07645929
45	0xbca82c35	-0.020528892
46	0x3d560335	0.052249152
47	0xbdad18a2	-0.08451964
48	0x3cf2a0dd	0.029617721
49	0xbd58ccad	-0.05292957
50	0x3d7c7c43	0.061641943
51	0x3c9e1b86	0.019300234
52	0x3cfa8a09	0.030583398
53	0x3c10a26c	0.008827787
54	0xbdb15166	-0.08658104
55	0xbc9dd983	-0.019268757
56	0xbd6cbde6	-0.05779829
57	0x3cefd6c7	0.029277219
58	0xbd93b900	-0.0721302
59	0x3b7656dc	0.0037588393
60	0xbd1b5cd8	-0.03793034
61	0xbda63b4b	-0.08116778
62	0x3d7916f3	0.0608129
63	0xbbf977d1	-0.00761316
64	0x3daee524	0.08539799
65	0x3da6d003	0.08145144
66	0xbd7b1d04	-0.06130697
67	0x3d21fb1e	0.039546125
68	0xbd215a03	-0.039392482
69	0x3da0b4f1	0.07847012
70	0x3c5c68ce	0.013452722
71	0x3c9d7cc2	0.019224528
72	0x3db298cc	0.0872055
73	0x3d67a033	0.056549262
74	0xbc8953c0	-0.016763568
75	0xbcbe0874	-0.02319739
76	0xbc91450a	-0.017733116
77	0x3c28a3ea	0.010292986
78	0xbd35a722	-0.044348843
79	0xbd99892e	-0.07496868
80	0x3d84709d	0.06466792
81	0xbd8e05ff	-0.069347374
82	0x3ccb9c07	0.024854673
83	0x3d2dcb1e	0.042430036
84	0xbd15dcd0	-0.036587536
85	0xbc195601	-0.009358884
86	0x3d7c4df1	0.06159777
87	0xbce27f65	-0.027648637
88	0x3d94a423	0.07257869
89	0xbd9a0f91	-0.075225
90	0xbd402338	-0.046908587
91	0x3bc4dd49	0.0060078246
92	0xbd78d425	-0.06074919
93	0x3d9db8ac	0.07701239
94	0xbda2243f	-0.0791707
95	0xbd430e41	-0.047621015
96	0x3d1a486d	0.037666727
97	0xba300647	-0.00067148026
98	0xbd6a84c4	-0.05725552
99	0xbd277af8	-0.040888757
100	0x3d170e58	0.036878914
101	0x3d84fa4b	0.06493052
102	0xbd444001	-0.0479126
103	0x3b53c391	0.0032312612
104	0x3cc2c31a	0.023774672
105	0xbd2efb20	-0.04271996
106	0x3d8aba35	0.067737974
107	0xbda9fcb0	-0.083001494
108	0xbd8752fd	-0.06607626
109	0xbda6e752	-0.081495896
110	0xbcc2b511	-0.02376798
111	0xbd2cefe3	-0.04222096
112	0x3d8630bf	0.06552266
113	0xbd83e9a0	-0.06441045
114	0xbcdbf651	-0.026850851
115	0xbd0658a2	-0.03279937
116	0x3ca4069c	0.020022683
117	0xbda1dd92	-0.07903589
118	0x3bda0736	0.0066536916
119	0x3d54f8de	0.05199515
120	0x3d627014	0.055282667
121	0x3da4a782	0.08039762
122	0x3c7f11b4	0.015568186
123	0xbd9e223d	-0.07721374
124	0xbd0ea89a	-0.03482876
125	0x3c3e0d11	0.011599795
126	0x3ce2dea0	0.027694046
127	0xbd14f185	-0.036363143
128	0xbd6b8da5	-0.05750813
129	0xbc2bac8f	-0.010478153
130	0x3d507c4b	0.050899785
131	0x3d19ff4d	0.03759699
132	0xbd02f975	-0.031976182
133	0xbd833ea5	-0.06408433
134	0x3d287917	0.041131105
135	0x3d4c167b	0.049826127
136	0xbd3c6187	-0.045991447
137	0x3d81eecc	0.06344375
138	0x3cfeb0db	0.03109019
139	0x3d8050cf	0.06265413
140	0xbd6cfa63	-0.057855975
141	0x3d084750	0.033271134
142	0xbcbd7482	-0.023126844
143	0xbd661ea5	-0.05618157
144	0x3c90e7e6	0.017688703
145	0xbd6d863f	-0.057989355
146	0xbd2da86f	-0.04239696
147	0x3cf7089e	0.030155476
148	0xbd6c8389	-0.05774263
149	0xbdb1bc53	-0.08678498
150	0x3d422b2e	0.04740446
151	0x3d8d71d8	0.069064796
152	0xbcbda1b6	-0.023148399
153	0x3d46fdb1	0.048581783
154	0x3cbe5828	0.023235396
155	0xbdabcba2	-0.08388449
156	0x3db49c01	0.08818818
157	0x3db13153	0.08651986
158	0x3d08a824	0.033363476
159	0xbbbfb847	-0.005850825
160	0xbd680391	-0.056644026
161	0x3d1ccacb	0.038279336
162	0xbd9d1b96	-0.07671277
163	0xbd7b2f1d	-0.061324228
164	0xbd74fe60	-0.059812903
165	0x3ca5213f	0.020157455
166	0xbd8aa9f6	-0.06770699
167	0xbcefad77	-0.02925752
168	0xbd8c13fe	-0.06839751
169	0xbd8213c2	-0.06351425
170	0x3ce0301d	0.027366692
171	0xbd784bed	-0.060619283
172	0xbd9b4f78	-0.07583517
173	0x3d82727d	0.06369493
174	0xbbb6b0e3	-0.0055752858
175	0xbd94ec80	-0.07271671
176	0x3c9933ef	0.018701522
177	0x3ca79de4	0.02046103
178	0x3d81bf14	0.063352734
179	0xbd961475	-0.073281206
180	0x3c4b18c3	0.01239604
181	0xbd9d3d1d	-0.07677672
182	0x3d932398	0.07184523
183	0xbd9b5e5b	-0.07586356
184	0xbda13de6	-0.07873134
185	0xbcd5cba0	-0.026098073
186	0x3c9e813d	0.019348735
187	0xbc2a50e7	-0.010395265
188	0xbd61c3b6	-0.055118285
189	0x3d074fc1	0.033035044
190	0x3d4ee9be	0.050515883
191	0x3da8dcde	0.08245252
192	0x3cd2138b	0.025644084
193	0x3b439c6b	0.002984787
194	0xbd922f41	-0.07137919
195	0xbd037be9	-0.03210059
196	0x3b2157e3	0.0024619035
197	0x3d6f0478	0.05835387
198	0x3c9860de	0.018600877
199	0x3d50ddc1	0.05099273
200	0x3b3eba76	0.0029102839
201	0xbc189b4c	-0.009314369
202	0x3d28dded	0.04122727
203	0xbbe67e05	-0.0070340657
204	0x3d0850b6	0.033280097
205	0xbd624403	-0.055240642
206	0x3cd4de6a	0.025984962
207	0x3d28a530	0.04117316
208	0xbcb40744	-0.02197612
209	0xbced7b57	-0.028989477
210	0x3c806cfa	0.015676964
211	0x3d831b8a	0.06401737
212	0xbd5413da	-0.051776744
213	0xbd2c4fa4	-0.04206814
214	0xbd459136	-0.048234187
215	0x3beb3791	0.007178255
216	0x3d1c7a29	0.03820244
217	0x3d63f96a	0.05565778
218	0xbd2b40d7	-0.041809883
219	0x3d9a9098	0.0754711
220	0x3d9c5a63	0.076344274
221	0x3db352b2	0.08756007
222	0x3b9b9afd	0.0047487007
223	0xbd6eb304	-0.05827619
224	0xbd311f64	-0.043242827
225	0x3c83fb07	0.01611091
226	0x3da757e0	0.08171058
227	0xbd89407c	-0.067017525
228	0x3cc87ef0	0.024474591
229	0x3ce7402b	0.02822884
230	0x3daaa4cd	0.083322145
231	0x3c9a7309	0.018853681
232	0xbcb4eecd	-0.022086525
233	0x3ca89098	0.02057676
234	0x3d15de08	0.0365887
235	0x3c88d768	0.016704276
236	0xbcae56e7	-0.021281673
237	0xbd339cbc	-0.043850645
238	0x3c89cadb	0.016820362
239	0x3c23ee80	0.010005593
240	0x3ccebb38	0.025235757
241	0xbd9f99bf	-0.077929966
242	0xbd2351cc	-0.03987293
243	0x3c8cf846	0.01720823
244	0x3ceef7d4	0.029170908
245	0x3d8b0f9f	0.06790089
246	0xbb7de3ac	-0.003874044
247	0x3daadd2c	0.083429664
248	0x3d7b6c3c	0.061382517
249	0xbdb02684	-0.08601096
250	0x3d90cba1	0.07070089
251	0x3da2eaab	0.079549156
252	0xbd98121e	-0.074253306
253	0x3d2c516d	0.04206984
254	0x3d00b6d5	0.031424362
255	0x3d825b26	0.063650414

weight f4 [256, 128]
0	0x3e8f954f	0.280436
1	0xbf0dbc20	-0.5536518
2	0xbf17e82b	-0.59338635
3	0x3ef2551f	0.47330567
4	0xbf0a16f7	-0.5394129
5	0x3f0be7ad	0.54650384
6	0xbee84baa	-0.45370227
7	0x3f0eae83	0.55735034
8	0xbf28ff6a	-0.6601473
9	0x3ef8cdce	0.48594517
10	0x3ed2ce68	0.411731
11	0x3f01b129	0.5066095
12	0xbe97afd1	-0.29626325
13	0x3ecf2a85	0.40462127
14	0xbe63275d	-0.22182985
15	0xbedc9776	-0.43084306
16	0xbeaf8471	-0.34280732
17	0x3f1095b0	0.56478405
18	0x3ee3784f	0.44427726
19	0x3ec2eca0	0.38071156
20	0xbd539e1d	-0.05166446
21	0xbf534935	-0.8253358
22	0xbf0c0a25	-0.5470298
23	0x3f187068	0.5954652
24	0xbf043bdb	-0.5165383
25	0x3e8be26c	0.27321184
26	0xbee61053	-0.4493433
27	0xbe8ca518	-0.27469707
28	0xbe1a3307	-0.15058528
29	0xbef12f0d	-0.4710621
30	0xbed87b47	-0.42281553
31	0xbeedd580	-0.4645195
32	0xbed54e8b	-0.41661486
33	0x3f021a88	0.50821733
34	0xbeeb938d	-0.4601101
35	0xbec401c1	-0.38282588
36	0x3dd54905	0.10414318
37	0xbef1396c	-0.47114122
38	0xbf118329	-0.5684076
39	0xbdbcc768	-0.09217721
40	0x3ead7268	0.33876348
41	0xbebec1e8	-0.37257314
42	0xbefd1747	-0.49431822
43	0x3f1423c6	0.57867086
44	0xbe8bcf4e	-0.27306598
45	0x3efdcad6	0.49568814
46	0xbf1f0a61	-0.6212521
47	0x3ed387a1	0.41314414
48	0x3f0a0d24	0.539263
49	0xbefdcba1	-0.4956942
50	0xbedc891c	-0.43073356
51	0xbf02d8b9	-0.5111194
52	0xbf0ffe33	-0.5624725
53	0x3ef9b3f5	0.4877011
54	0xbef824d6	-0.48465604
55	0xbefb3e70	-0.49071074
56	0xbecc29e2	-0.39875704
57	0xbea51094	-0.3223921
58	0x3f095927	0.5365166
59	0x3ba33bcd	0.004981494
60	0xbf044550	-0.5166826
61	0x3ed7291e	0.42023557
62	0x3e8a75e6	0.27043074
63	0xbed06599	-0.40702513
64	0xbe7af4c6	-0.24507436
65	0xbe71837e	-0.23585317
66	0x3e82720c	0.25477636
67	0x3ed51832	0.41620022
68	0xbedadc44	-0.42746174
69	0xbf01601e	-0.5053729
70	0xbf1feb11	-0.6246806
71	0x3e7a7ee4	0.24462467
72	0xbedaf7cf	-0.42767188
73	0x3e80ac0b	0.25131258
74	0xbd493044	-0.049118295
75	0x3f08a4ec	0.5337665
76	0xbefc6e04	-0.49302685
77	0x3f00d463	0.50324076
78	0xbf016530	-0.50545025
79	0xbf1b8f7b	-0.6076581
80	0xbf293312	-0.6609355
81	0xbdc319a9	-0.09526379
82	0xbee2f5a7	-0.44328043
83	0x3eee988a	0.46600753
84	0xbeefc712	-0.46831566
85	0x3ef05aab	0.46944174
86	0x3e0d613e	0.13806626
87	0x3ed15eb6	0.4089257
88	0xbecf33eb	-0.40469298
89	0x3e1b8d2e	0.15190575
90	0x3f0a480c	0.54016185
91	0xbef462a5	-0.4773151
92	0xbec5c396	-0.38625783
93	0xbedec240	-0.43507576
94	0x3eaf8421	0.34280494
95	0x3ec036c4	0.37541783
96	0x3ef22bf0	0.47299147
97	0x3ee89706	0.45427722
98	0x3e82c711	0.255425
99	0x3ed64b7c	0.41854465
100	0xbe58a216	-0.21155581
101	0x3e07fe1e	0.13280532
102	0xbf032c0a	-0.51239073
103	0x3f080c84	0.531441
104	0x3ec004f6	0.37503785
105	0x3e9d24cc	0.30692136
106	0xbed281af	-0.41114566
107	0x3ecd0b8c	0.40047872
108	0x3ec469fa	0.38362104
109	0xbe962a9b	-0.2932938
110	0xbdeb57a6	-0.11491327
111	0x3ef574c5	0.4794065
112	0x3ece0972	0.4024158
113	0x3f0b2dd9	0.5436683
114	0x3eca3f35	0.39501348
115	0xbefdaa1a	-0.4954384
116	0x3f0a46f5	0.5401452
117	0x3ede52b5	0.43422475
118	0x3dc33168	0.09530908
119	0x3eba2500	0.36356354
120	0x3ec8a54e	0.39188617
121	0x3f1244fa	0.571365
122	0x3f036267	0.51322025
123	0x3e7f54ff	0.24934767
124	0x3f122eb8	0.5710254
125	0xbec03cd6	-0.37546414
126	0x3f12d832	0.5736114
127	0x3ede5029	0.43420532
128	0xbe3d7c4e	-0.1850445
129	0x3c580ea9	0.013187089
130	0xbd80e358	-0.062933624
131	0xbe0ba735	-0.13638003
132	0x3c2d9c88	0.010596402
133	0xbe30115b	-0.1719412
134	0xbccdb69b	-0.025111487
135	0xbb2329c8	-0.002489673
136	0x3e31b498	0.17354047
137	0x3b51c75d	0.00320097
138	0xbdbb1377	-0.09134572
139	0xbdb7cf1b	-0.08975049
140	0x3e127ea4	0.14306122
141	0xbdf304cf	-0.118661515
142	0x3e3cef08	0.18450558
143	0x3dc76a68	0.09737092
144	0x3e149f01	0.1451378
145	0xbdd6b07e	-0.10482882
146	0x3daa37e8	0.083114445
147	0xbe8c139d	-0.27358714
148	0x3eabb023	0.3353282
149	0xbd260415	-0.040531237
150	0x3df20ae2	0.11818482
151	0x3ce2a481	0.027666332
152	0x3d27cdff	0.040967938
153	0xbe47cae3	-0.19510989
154	0x3d92eb71	0.07173813
155	0xbd874d08	-0.066064894
156	0x3f133a88	0.57511187
157	0x3d9f6079	0.077820726
158	0x3de2c5b4	0.11072865
159	0x3d21d5ea	0.039510645
160	0x3df71ef9	0.120664544
161	0x3d556364	0.05209674
162	0x3de40810	0.1113435
163	0xbc56de56	-0.013114532
164	0xbe0f020e	-0.13965628
165	0x3e028745	0.12746914
166	0x3d941b21	0.07231737
167	0x3e027cd1	0.12742926
168	0xbe61ca0c	-0.22049731
169	0x3e80710d	0.2508625
170	0xbcbab692	-0.022792134
171	0xbe7631d7	-0.2404245
172	0xbd318a7a	-0.043344952
173	0xbb60904b	-0.0034265693
174	0x3e97cb9e	0.29647535
175	0xbcefaf77	-0.029258473
176	0x3b038d40	0.0020073205
177	0x3ddf423c	0.10901305
178	0x3dfff5cb	0.12498053
179	0x3db6e498	0.089303195
180	0x3e1c61dd	0.15271707
181	0xbe4276a4	-0.1899057
182	0xbd1a980b	-0.037742656
183	0x3ce0cdca	0.027441878
184	0xbdad405f	-0.084595434
185	0x3e616958	0.22012842
186	0xbcdf28dc	-0.027241163
187	0x3e8dd132	0.27698666
188	0xbe0ae694	-0.13564521
189	0xbdf7b986	-0.12095933
190	0xbe9b1c53	-0.30295047
191	0xbe3cdf35	-0.18444522
192	0x3c974438	0.018465146
193	0x3e9d34e5	0.30704418
194	0xbeb64be8	-0.35604787
195	0xbe35fac6	-0.17771444
196	0x3de111ae	0.109897
197	0xbd4b6e37	-0.049665656
198	0x3d03cae9	0.032175932
199	0xbdee970a	-0.11649902
200	0x3e18d01a	0.14923134
201	0xbe9d2da6	-0.3069889
202	0xbe25b750	-0.1618321
203	0xbdd34aa0	-0.10316968
204	0x3dd8ddf9	0.10589213
205	0xbe42f330	-0.19038081
206	0x3dfce544	0.123484164
207	0x3ead2542	0.33817488
208	0x3bc5fd35	0.0060421475
209	0xbed59fa7	-0.41723368
210	0xbd03c8cb	-0.032173913
211	0x3d00ceb9	0.031447146
212	0x3e0284e6	0.12746009
213	0xbcf6723a	-0.030083764
214	0xbb997f7e	-0.0046843877
215	0xbe47a241	-0.19495489
216	0x3e2e251a	0.1700634
217	0x3e71739b	0.23579256
218	0x3d27aba8	0.04093519
219	0xba176d7f	-0.0005776509
220	0x3def426e	0.11682592
221	0x3e40cbe1	0.18827774
222	0x3db48d66	0.08816032
223	0xbdec3e51	-0.115353234
224	0xbe744ddf	-0.2385783
225	0xbdbcc158	-0.09216565
226	0xbe49ccc2	-0.19707015
227	0xbda4c016	-0.0804445
228	0x3e88e315	0.2673575
229	0x3ed08fde	0.40734762
230	0xbe85377d	-0.26018897
231	0xbda01e5c	-0.078182906
232	0xbdab1173	-0.083529375
233	0xbdfaa3af	-0.122382514
234	0x3c553c0f	0.013014807
235	0xbd9980e4	-0.07495287
236	0xbd8e5b41	-0.06950999
237	0x3de2311a	0.11044522
238	0x3eba2717	0.36357948
239	0xbe008112	-0.12549236
240	0xbe60bfb5	-0.2194813
241	0xbdc5ffd7	-0.09667938
242	0xbd15c849	-0.03656796
243	0x3d9a5fe2	0.075378194
244	0x3d733588	0.059377223
245	0x3c5d754a	0.013516733
246	0x3cdf6561	0.02727002
247	0xbecf951e	-0.40543455
248	0xbe9bab0b	-0.30403933
249	0xba606b86	-0.0008560944
250	0xbd8cf601	-0.06882859
251	0xbe461ade	-0.19346187
252	0xbe4537f4	-0.19259626
253	0x3eb085b2	0.34477
254	0xbedb55f3	-0.42839012
255	0xbd23693e	-0.03989529

bias f4 [256]
0	0xbf011d6d	-0.50435525
1	0x3daabdfe	0.083370194
2	0x3e8507e6	0.2598259
3	0x3efa9cb0	0.48947668
4	0x3e01b852	0.12667969
5	0x3ea15933	0.31513366
6	0xbe46850c	-0.19386691
7	0xbe58ac45	-0.21159466
8	0x3dc6def3	0.09710493
9	0x3a438ff9	0.0007460113
10	0xbe98a17e	-0.2981071
11	0xbe315f26	-0.17321452
12	0x3e1ae4d2	0.1512635
13	0xbe820cb9	-0.25400332
14	0x3cfb6a75	0.030690411
15	0xbe4ec990	-0.20194077
16	0xbe891238	-0.26771712
17	0xbe579006	-0.21051034
18	0xbf30c632	-0.6905242
19	0xbea3821d	-0.31935206
20	0xbe2f8ab3	-0.17142753
21	0xbe319f1e	-0.17345855
22	0xbd5cd3f7	-0.053913083
23	0x3de342d3	0.1109673
24	0xbe0acf1e	-0.13555571
25	0x3e4ab4ee	0.19795582
26	0xbdeb4846	-0.114883944
27	0x3e8f7bd7	0.2802417
28	0xbe80572c	-0.25066507
29	0x3e4889cf	0.1958382
30	0xbddda236	-0.10821955
31	0xbe375d08	-0.17906582
32	0x3da33876	0.079697534
33	0xbe43128a	-0.19050041
34	0x3e0e1c86	0.13878068
35	0xbf0ac941	-0.5421334
36	0x3e8fa82e	0.28057998
37	0xbe01ddab	-0.12682216
38	0x3e90979c	0.2824067
39	0x3e003a7b	0.12522309
40	0xbe7748a3	-0.24148802
41	0x3e43676e	0.19082424
42	0x3e86ef8e	0.2635464
43	0x3d9628ce	0.073320016
44	0x3cca538f	0.024698047
45	0xbf03b5bb	-0.51449174
46	0x3d921858	0.071335495
47	0x3ec7c72f	0.39019153
48	0x3dbe2890	0.092850804
49	0xbe60ae6c	-0.21941537
50	0x3e8408b4	0.2578789
51	0xbee382d6	-0.44435757
52	0x3e84e7e7	0.25958177
53	0x3e7adba9	0.24497856
54	0x3af7944c	0.00188888
55	0x3db0cb30	0.08632505
56	0xbe896702	-0.268364
57	0x3e74275f	0.23843144
58	0xbd2cfb27	-0.042231705
59	0x3e9fd363	0.31215963
60	0xbde41a5e	-0.11137842
61	0xbe916291	-0.28395513
62	0xbd59ecb8	-0.05320427
63	0xbe49cc4c	-0.1970684
64	0x3d1afc88	0.03783849
65	0xbe9664b0	-0.29373693
66	0xbcbf43e4	-0.023347802
67	0x3dabb3a5	0.08383874
68	0x3e0c86b2	0.13723257
69	0xbf24bf6b	-0.6435458
70	0x3e980cb4	0.29697192
71	0xbe7d9345	-0.2476321
72	0x3ea86919	0.32892683
73	0xbde3cc47	-0.11122947
74	0x3e3dc11e	0.185307
75	0xbe6615f5	-0.22469313
76	0x3d8c306b	0.068451725
77	0x3ecb48c2	0.39703947
78	0x3e3545db	0.17702429
79	0xbe21f58c	-0.15816325
80	0xbd734086	-0.059387706
81	0x3e85bab1	0.26118997
82	0x3e2e5bbc	0.17027181
83	0x3ee9fe3a	0.45701772
84	0x3ea53ec3	0.32274446
85	0x3e7a57e0	0.24447584
86	0x3e2b70cc	0.16742247
87	0xbdbf5c61	-0.09343792
88	0x3d97db34	0.074148566
89	0x3e09d884	0.134615
90	0xbefa2df8	-0.48863196
91	0x3eae8db8	0.34092498
92	0x3e886af3	0.26644096
93	0x3ea43bf5	0.32076994
94	0xbe768a9e	-0.24076316
95	0xbdd19a83	-0.10234549
96	0xbe1ea73b	-0.15493481
97	0xbe24762b	-0.16060703
98	0xbddb407e	-0.1070566
99	0xbeab8ae8	-0.33504415
100	0x3dc69155	0.09695689
101	0x3e8dab9e	0.27669996
102	0x3df354ad	0.11881385
103	0xbe1f8397	-0.15577541
104	0x3f0f2642	0.5591775
105	0xbc4e071b	-0.012574936
106	0x3d9814e8	0.074258626
107	0xbe87eca0	-0.26547718
108	0xbe87b25f	-0.26503274
109	0xbe1764e2	-0.14784577
110	0x3db218dd	0.086961485
111	0x3eabbc94	0.3354231
112	0xbda2551c	-0.079263896
113	0x3e8788a7	0.26471445
114	0xbdb94098	-0.090455234
115	0x3ea1e531	0.31620172
116	0x3e574984	0.21024138
117	0x3e8116b7	0.25212643
118	0x3e0ebff8	0.13940418
119	0x3d999ca4	0.0750058
120	0xbaa8d640	-0.0012881234
121	0x3d05ad55	0.032636005
122	0x3e852185	0.26002136
123	0x3e9bf5f5	0.30461088
124	0x3c501e68	0.012702562
125	0xbc80e905	-0.015736112
126	0xbed34c2f	-0.4126906
127	0xbdbfdfd6	-0.09368865
128	0xbcec86aa	-0.028872807
129	0x3ef98824	0.4873668
130	0xbe1110c1	-0.14166547
131	0x3e2c50a0	0.16827631
132	0xbcdee20b	-0.027207395
133	0xbea89f0e	-0.3293385
134	0xbde6f66a	-0.112774685
135	0xbdc1e4fe	-0.09467505
136	0xbe078373	-0.13233738
137	0xbd6bf36f	-0.057605203
138	0x3e4200b6	0.18945584
139	0x3cc01ec3	0.023452168
140	0x3e076cde	0.13225123
141	0xbca33a5b	-0.019925287
142	0x3c385629	0.011251011
143	0xbdaaf98f	-0.08348381
144	0x3e0c112c	0.13678426
145	0xbd9a48c6	-0.07533412
146	0xbe09605c	-0.13415664
147	0x3cc46d10	0.023977786
148	0x3c72ce93	0.014819759
149	0xbe739bc0	-0.23789883
150	0xbd9e59d1	-0.07731975
151	0xbe27f8bc	-0.16403478
152	0x3eb4dd86	0.3532526
153	0x3c843fd1	0.016143711
154	0x3d9e94c4	0.077432185
155	0x3dcb55d2	0.09928478
156	0x3c3ccc67	0.011523343
157	0xbf042b94	-0.51628995
158	0x3ddd9d7c	0.108210534
159	0xbac5ddf4	-0.0015096054
160	0x3d2d62af	0.04233044
161	0xbd20cd82	-0.039258488
162	0xbe8e4e74	-0.2779423
163	0x3cc06ae1	0.023488464
164	0xbd23ede4	-0.040021792
165	0x3de8338b	0.11337956
166	0x3dca4dc8	0.09878117
167	0x3ddc2190	0.10748589
168	0xbd9b0990	-0.07570183
169	0xbb77ea0c	-0.0037828712
170	0x3ddbe222	0.10736491
171	0xbe6ad25c	-0.22931808
172	0xbe79fa68	-0.24411929
173	0x3d8270a3	0.0636914
174	0x3dccf4d0	0.10007632
175	0xbd8d201b	-0.06890889
176	0x3dcde0b5	0.10052625
177	0x3c01827b	0.007904644
178	0xbe1abd48	-0.15111268
179	0x3cf70383	0.030153042
180	0x3e041d03	0.12901692
181	0xbde2a6f4	-0.11067
182	0x3d206f65	0.039168734
183	0x3cd85279	0.026406514
184	0xbcf3d0e9	-0.029762702
185	0xbe84d1ee	-0.25941414
186	0x3e352260	0.17688894
187	0xbe02d5ad	-0.12776823
188	0xbe7365f7	-0.23769365
189	0xbd7dcc6e	-0.061962537
190	0xbe2dd431	-0.16975476
191	0xbe95f447	-0.2928793
192	0x3df51130	0.11966169
193	0x3a09db2b	0.0005258794
194	0x3cddebec	0.027090035
195	0x3ec3becc	0.38231504
196	0xbe335d02	-0.17515948
197	0x3e1ae599	0.15126647
198	0xbd8bf341	-0.068335064
199	0x3d1b7774	0.037955716
200	0x3ec2a34d	0.38015214
201	0x3c9cdfbf	0.01914966
202	0xbe0ac5c2	-0.13552001
203	0x3e6e8e82	0.2329655
204	0x3d21bb66	0.039485358
205	0xbc0d62f2	-0.008629547
206	0x3e267808	0.16256726
207	0x3dc83fc2	0.09777786
208	0x3caa40f8	0.020782933
209	0xbe7cc3ab	-0.24684016
210	0xbe53cdda	-0.20683995
211	0x3cdb057f	0.02673602
212	0xbe0898e8	-0.13339579
213	0xbe146843	-0.14492898
214	0xbc0ebeef	-0.008712514
215	0x3e3f5cc4	0.18687731
216	0xbdfcb79d	-0.12339709
217	0xbe858de9	-0.2608483
218	0xbe0916d3	-0.13387613
219	0x3c2c00ce	0.010498239
220	0x3c914887	0.017734779
221	0x3d392774	0.04520364
222	0xbd391a8f	-0.045191344
223	0x3cdddf9d	0.027084166
224	0xbe1b8e2d	-0.15190955
225	0xbdac753b	-0.084207974
226	0x3e1b984d	0.15194817
227	0xbe54ad91	-0.20769335
228	0xbe54445b	-0.207292
229	0x3c6bae5d	0.014384833
230	0xbdaa7833	-0.083237074
231	0xbd3c58d6	-0.045983158
232	0x3c00728b	0.007839809
233	0x3c48a345	0.012245958
234	0xbecd7d68	-0.4013474
235	0x3e2f20fe	0.1710243
236	0x3c08ac2d	0.008341831
237	0xbe295832	-0.1653755
238	0xbdcaa5c7	-0.09894901
239	0xbd7cdf22	-0.061736234
240	0xbe960dc8	-0.2930739
241	0x3d7f718f	0.062364157
242	0xbd326954	-0.04355748
243	0x3e20d8e9	0.15707745
244	0x3d126d15	0.03574856
245	0x3dbbbea9	0.09167225
246	0x3e56a9e1	0.20963241
247	0xbe2ec32d	-0.17066641
248	0xbdbc8fdb	-0.09207126
249	0x3dca89bd	0.09889553
250	0x3e74cdde	0.23906657
251	0x3e8adf4e	0.27123493
252	0x3d1970bc	0.037461028
253	0xbd347fe5	-0.044067282
254	0x3eaf0c94	0.34189284
255	0x3d0f53fc	0.034992203

weight f4 [256, 128]
0	0xbdd3ae12	-0.10335936
1	0xbd1cf0d4	-0.03831561
2	0x3c9c67a6	0.019092392
3	0x3cecdb38	0.028913125
4	0x3cc8fb5f	0.024533926
5	0xbd6ac308	-0.057314903
6	0x3d802d2b	0.06258615
7	0xbd02b48e	-0.03191047
8	0x3c9a242c	0.018816076
9	0xbd8aa72e	-0.06770168
10	0x3c07d1a9	0.008289733
11	0x3daf1cb8	0.085503995
12	0xbd3b6a47	-0.04575565
13	0x3c96af9e	0.018394288
14	0xbd8a0afe	-0.06740378
15	0xbd542bc8	-0.051799566
16	0x3dd0a930	0.1018852
17	0x3d28d18c	0.041215464
18	0x3bae3f39	0.0053175953
19	0x3daa6c7b	0.08321472
20	0x3cd6a7cf	0.026203064
21	0xbd9f17de	-0.07768224
22	0xbd95ab52	-0.073080674
23	0xbdb1f503	-0.086893104
24	0x3d7064bc	0.058689818
25	0xbd3eaf64	-0.046553984
26	0x3c3d53a0	0.011555582
27	0xbd39dc0e	-0.045375876
28	0xbded6473	-0.11591425
29	0x3d01e23d	0.0317099
30	0xbcbbc73e	-0.022922155
31	0xbc912130	-0.01771602
32	0x3db6ce33	0.08926048
33	0xbe10a39f	-0.14124916
34	0xbd16a014	-0.036773756
35	0xbd7b04cc	-0.06128387
36	0x3e09cf12	0.13457897
37	0x3ceced5c	0.028921776
38	0x3d80d1e2	0.06290032
39	0xbc8f2213	-0.017472303
40	0x3ca105e9	0.019656138
41	0x3c232437	0.009957365
42	0xbd3bd9a8	-0.04586187
43	0x3de642bb	0.112431966
44	0xbcc67476	-0.024225455
45	0xbdc2197b	-0.09477516
46	0x3d9c9139	0.076448865
47	0x3d81e39e	0.06342243
48	0x3dc59dbd	0.09649227
49	0x3ce4ddc1	0.027937772
50	0x3cd83f86	0.026397478
51	0x3d675e4d	0.056486417
52	0x3cb30598	0.021853253
53	0xbc1499a0	-0.00906983
54	0xbbc92cc8	-0.0061393715
55	0x3cb02689	0.02150275
56	0xbdb7dcdc	-0.089776725
57	0x3cccf5bb	0.025019517
58	0xbd55e752	-0.052222557
59	0x3d66025e	0.0561546
60	0x3dd9fea1	0.1064427
61	0xbd96b013	-0.07357802
62	0xbd672e9a	-0.056440927
63	0xbd911926	-0.07084875
64	0x3df5923b	0.11990782
65	0x3cb2c3fb	0.021821966
66	0x3c2d8802	0.010591509
67	0x3b3854b2	0.0028126654
68	0xbdbbc7bb	-0.09168955
69	0xbd3e7af4	-0.046503976
70	0x3dcc759b	0.09983369
71	0x3cc1cdc4	0.023657687
72	0x3d08e19c	0.033418283
73	0xbdadaa95	-0.084798016
74	0xbd966d89	-0.07345111
75	0xbc2933a7	-0.010327256
76	0xbd3d695e	-0.046243064
77	0xbd24204d	-0.040069867
78	0x3d878079	0.06616301
79	0x3ddf880d	0.109146215
80	0x38f503c2	0.0001168321
81	0x3ce058e6	0.02738614
82	0x3d9bbc69	0.07604296
83	0x3bbe01e3	0.0057985648
84	0x3d3d5800	0.0462265
85	0x3da52648	0.08063942
86	0x3b391a2e	0.0028244364
87	0xbd7daabf	-0.061930414
88	0x3da29037	0.07937663
89	0xbd32b3d5	-0.043628532
90	0xbd77f72c	-0.060538456
91	0xbd82ef46	-0.06393294
92	0xbd918d80	-0.07107067
93	0x3d48503d	0.048904646
94	0xbca11cf2	-0.019667123
95	0xbd2d2c73	-0.04227872
96	0xbcbffd35	-0.023436168
97	0xbd812f00	-0.06307793
98	0xbda54d23	-0.08071353
99	0xbcf2c421	-0.029634537
100	0x3db2bcd9	0.08727426
101	0x3da5d49e	0.08097194
102	0x3d8634d1	0.06553043
103	0xbc848735	-0.016177753
104	0xbdaca37d	-0.084296204
105	0xbb9b63e7	-0.004742134
106	0x3cf27959	0.029598879
107	0xbde92132	-0.11383285
108	0x3c978c51	0.018499525
109	0xbd993eab	-0.07482656
110	0x3d37537a	0.044757344
111	0xbca74512	-0.020418677
112	0x3c4c26a8	0.012460388
113	0x3cec18ec	0.028820477
114	0xbd1a9a40	-0.03774476
115	0xbde02e22	-0.10946299
116	0x3d06c1cd	0.032899667
117	0xbd49994a	-0.049218453
118	0xbdcc216e	-0.09967314
119	0xbd59aaa7	-0.053141262
120	0xbdc2a2c0	-0.09503698
121	0xbda720c9	-0.0816055
122	0xbce33da2	-0.02773935
123	0xbd589eda	-0.052885868
124	0x3d0756fc	0.03304194
125	0xbca34574	-0.019930579
126	0x3dba0075	0.090821184
127	0x3cb75682	0.022380117
128	0x3b167efb	0.002296387
129	0xbd805b0a	-0.06267364
130	0xbd969998	-0.073535144
131	0xbd69ccef	-0.057080206
132	0xbd1ab40f	-0.037769374
133	0xbdb186c4	-0.08668283
134	0xbd51512f	-0.051102813
135	0xbd729bc4	-0.05923058
136	0x3e07bae9	0.13254894
137	0x3d503418	0.05083093
138	0x3d8b3eb3	0.06799068
139	0xbd9e0885	-0.07716469
140	0x3d4a8ade	0.04944884
141	0xbdcc47f4	-0.099746615
142	0x3e0be1a6	0.13660297
143	0xbca3f473	-0.020014023
144	0x3dd5705e	0.10421823
145	0xbd961157	-0.07327526
146	0x3d0e3914	0.034722403
147	0x3ca87d1a	0.020567466
148	0x3dd9f628	0.10642654
149	0xbd682487	-0.05667546
150	0xbd92d185	-0.07168869
151	0x3d20c2d8	0.039248317
152	0x3da6706d	0.08126912
153	0x3ba33661	0.0049808477
154	0x3d596dab	0.053083103
155	0xbd520273	-0.051271867
156	0x3d691eee	0.056914262
157	0xbd24a221	-0.04019368
158	0xbd50713e	-0.050889246
159	0x3d480f4d	0.048842717
160	0x3d960f05	0.073270835
161	0xbdc104fd	-0.094247796
162	0xbc9f145d	-0.01941889
163	0xbdf8c437	-0.121468
164	0x3c360c3b	0.011111314
165	0x3dcf68e9	0.10127432
166	0x3ab681ab	0.0013924142
167	0xbd3dae59	-0.04630885
168	0xbdc5e645	-0.09663061
169	0x3c48e2fc	0.012261149
170	0xbd053e4a	-0.032530107
171	0x3d018f58	0.031630844
172	0x3ce13f99	0.027496146
173	0x3cddb4e8	0.027063802
174	0x3d30f054	0.043197945
175	0xbd612e08	-0.05497554
176	0x3d07e7ac	0.033179924
177	0xbd74b9bb	-0.05974744
178	0xbd8e8a73	-0.06960001
179	0x3d6f6c3c	0.05845283
180	0x3cfbf29f	0.03075534
181	0x3dd76108	0.10516554
182	0xbca1f8d4	-0.01977197
183	0xbd16cebd	-0.036818255
184	0x3d481cf4	0.048855737
185	0x3d8a2f6e	0.06747328
186	0xbc22d82f	-0.0099392375
187	0x3d39a486	0.045322917
188	0xbd93c1bb	-0.072146855
189	0xbd9472fe	-0.072484955
190	0xbbaec3e2	-0.0053334096
191	0xbdc08337	-0.09400027
192	0x3dcfc21d	0.10144446
193	0x3d853938	0.06505054
194	0xbdd8d4d1	-0.105874665
195	0xbd8ac531	-0.067758925
196	0x3cf6f468	0.030145839
197	0xbd3997c4	-0.04531075
198	0x3d6bd0ff	0.05757236
199	0x3d570cda	0.05250249
200	0xbc4f7e06	-0.012664324
201	0xbd55db9d	-0.052211393
202	0x3c23cceb	0.009997587
203	0xbdc3f601	-0.09568406
204	0xbcdd21fd	-0.026993746
205	0x3d620780	0.055182934
206	0xbcb70aa5	-0.022343943
207	0x3de48d2d	0.1115974
208	0xbb75b9af	-0.003749471
209	0x3c194473	0.0093546985
210	0x3c371ed2	0.011176782
211	0xbdbecbf7	-0.09316247
212	0x3d334efd	0.0437765
213	0x3d0262ad	0.031832386
214	0x3b771a87	0.003770502
215	0x3d58fc82	0.052975185
216	0xbbe31e96	-0.0069311364
217	0x3d1e84d1	0.038700882
218	0x3c3776c7	0.011197752
219	0xbd201a90	-0.039087832
220	0xbd83c3d9	-0.06433839
221	0x3d0d6d4f	0.034528073
222	0x3d4f5447	0.050617483
223	0xbdc60803	-0.09669497
224	0xbd3faed1	-0.046797577
225	0xbcd0f1c6	-0.025505912
226	0x3ce16253	0.027512705
227	0x3c03fb8a	0.008055577
228	0x3dece45c	0.115669936
229	0x3dee4924	0.11635044
230	0x3d96c021	0.073608644
231	0x3d0ff309	0.035143886
232	0xbd14ec61	-0.03635824
233	0x3da0f198	0.0785858
234	0xbda0b61e	-0.07847236
235	0xbe2f5418	-0.17121923
236	0xbdc3a5cf	-0.0955311
237	0xbd714389	-0.058902297
238	0x3cc8701d	0.024467522
239	0xbd56b921	-0.052422646
240	0xbabf6114	-0.0014601075
241	0xbcb2d4aa	-0.021829922
242	0x3db151f5	0.0865821
243	0x3da1d5a2	0.07902075
244	0x3ddbd88d	0.10734663
245	0xbd81ab7f	-0.063315384
246	0x3de1106d	0.10989461
247	0xbd3d3f1b	-0.04620276
248	0xbce960b1	-0.028488489
249	0xbd72e0d4	-0.059296444
250	0x3d61349d	0.054981817
251	0xbdc23320	-0.094824076
252	0x3c81a9be	0.01582801
253	0xbd142abf	-0.03617358
254	0xbe038d84	-0.12846953
255	0x3d60e310	0.054904044
