models/ESOL_baseModel.pth (torch, 61127 bytes, 9 tensors)

bias f4 [64]
0	0x3d7ff680	0.06249094
1	0xbda71df7	-0.08160012
2	0xbba91c14	-0.005160818
3	0xbd26cd21	-0.04072297
4	0x3d03f5a2	0.032216676
5	0xbc7a6a3e	-0.015284119
6	0x3df03f99	0.1173088
7	0xbdc679ca	-0.09691198
8	0x3c66484f	0.014055326
9	0x3e197ae8	0.14988291
10	0xbdc2201e	-0.09478782
11	0x3e46db59	0.19419612
12	0x3d6c9fce	0.05776959
13	0x3e271eb3	0.16320305
14	0xbded7ad8	-0.11595696
15	0x3c448de4	0.01199672
16	0x3df60280	0.120121956
17	0xbc8ff596	-0.01757316
18	0xba921fbe	-0.0011148376
19	0xbe0f6ec1	-0.14007093
20	0xbda2af1b	-0.07943555
21	0x3d883a57	0.066517524
22	0x3c92d3ae	0.017923202
23	0xbe594576	-0.21217903
24	0x3e1bb175	0.15204413
25	0x3cab922a	0.02094372
26	0x3cfeb3fa	0.031091679
27	0x3caa190a	0.020763893
28	0x3d1ce30d	0.03830247
29	0xbda2e6c1	-0.07954169
30	0xbe610a07	-0.21976481
31	0x3d8133a1	0.063086756
32	0x3de1c70e	0.11024295
33	0x3c3717e2	0.011175128
34	0xbd6d2fba	-0.057906844
35	0x3cafebb4	0.021474697
36	0x3e08bb2d	0.13352652
37	0xbd861b37	-0.065481596
38	0x3d8c2d7e	0.068446144
39	0x3e0b5e3d	0.13610168
40	0x3d09cda3	0.033643376
41	0xbcda4c0a	-0.026647586
42	0xbd6cba05	-0.05779459
43	0xbc602d75	-0.013682713
44	0xbcd48ae6	-0.025945138
45	0xb9416f2f	-0.00018447333
46	0x3cdd3631	0.02700338
47	0xbe0921df	-0.13391827
48	0x3d744c5f	0.059643146
49	0xbdf445a5	-0.11927346
50	0x3e08e2be	0.13367745
51	0x3d06593c	0.032799944
52	0x3d4b14be	0.04958033
53	0x3cc559af	0.024090616
54	0x3e20dcaa	0.15709177
55	0x3cde4860	0.02713412
56	0xbec4d1ce	-0.38441318
57	0x3d2201ed	0.039552618
58	0x3df93a72	0.12169351
59	0xbc97ee9d	-0.018546397
60	0x3d90f386	0.070776984
61	0x3de0c6c1	0.10975409
62	0x3bb35f41	0.0054740016
63	0xbb9f6da7	-0.0048653665

weight f4 [64, 9]
0	0xbe3d7e2a	-0.18505159
1	0x3e3cf214	0.1845172
2	0x3cf3408c	0.029693864
3	0x3e8e8be6	0.2784111
4	0xbec889e6	-0.39167708
5	0xbdabf48e	-0.083962545
6	0xbe2a851b	-0.16652338
7	0x3e4d31ba	0.200385
8	0x3e906989	0.28205517
9	0xbbf53594	-0.0074831937
10	0x3e907a4f	0.28218314
11	0x3e3e0bd4	0.185592
12	0xbd0213d0	-0.031757176
13	0xbed50c0b	-0.4161075
14	0xbdff4ec4	-0.12466195
15	0x3dae9dd6	0.085261986
16	0xbdff9a0e	-0.124805555
17	0xbe95b281	-0.2923775
18	0x3e331a51	0.17490508
19	0x3e6e9076	0.23297295
20	0xbe8a871d	-0.27056208
21	0x3be5a091	0.0070076664
22	0xbe82be3b	-0.2553576
23	0xbae0f800	-0.0017163754
24	0xbdab5632	-0.0836605
25	0xbcf3e6f1	-0.029773207
26	0x3e9bde08	0.30442834
27	0x3d735ee3	0.059416663
28	0x3d841628	0.064495385
29	0xbea228b2	-0.31671673
30	0x3e61eb4e	0.22062418
31	0x3e3e781b	0.18600504
32	0xbe29647a	-0.16542235
33	0xbe742f1d	-0.23846097
34	0x3e44d547	0.19221984
35	0x3e0b0875	0.13577445
36	0xbdbaa5f0	-0.09113681
37	0x3db8d608	0.09025198
38	0xbe7303c9	-0.23731913
39	0x3e0e3cf9	0.13890447
40	0xbf41d020	-0.757082
41	0x3e7b105a	0.24517956
42	0x3e13af13	0.14422254
43	0x3e6638cf	0.22482608
44	0x3e7357b9	0.23763932
45	0xbe6b4630	-0.22975993
46	0x3e1b5ccc	0.15172118
47	0x3e9f3975	0.31098524
48	0x3e43f13e	0.19134995
49	0xbded2645	-0.11579565
50	0x3e7b891a	0.24564019
51	0xbe7fa740	-0.24966145
52	0x3e3f7c51	0.18699767
53	0x3e30c9d4	0.17264491
54	0xbd54bb9b	-0.051936727
55	0x3bd464c0	0.006481737
56	0xbd6f0547	-0.058354642
57	0xbe2d79c9	-0.16940989
58	0xbe16375f	-0.1466956
59	0x3e5dbf9e	0.21655127
60	0x3ee5fff3	0.44921836
61	0x3efedbe6	0.49777144
62	0xbf0bb9d5	-0.5458043
63	0x3e907375	0.28213087
64	0xbc97fe90	-0.018554002
65	0xbe4ff5c0	-0.2030859
66	0x3cec98b8	0.028881416
67	0xbcc9adfb	-0.024619093
68	0x3e6451ce	0.22296831
69	0xbe5fdc36	-0.21861348
70	0xbe9c7f02	-0.3056565
71	0x3c52b9ef	0.012861713
72	0xbcd48325	-0.02594144
73	0x3c2b0ea0	0.010440499
74	0xbe97aff3	-0.29626426
75	0x3e8e37ec	0.2777704
76	0x3ebe04ce	0.3711304
77	0x3e3d9b00	0.18516159
78	0xbe29b036	-0.16571125
79	0xbe8dd634	-0.27702487
80	0xbe2f0917	-0.17093311
81	0xbe75e11f	-0.24011658
82	0xbe3211e9	-0.17389645
83	0x3e28220e	0.16419241
84	0x3e1ff4df	0.15620755
85	0x3eadcbee	0.33944649
86	0xbd353b80	-0.044246197
87	0x3e3805c8	0.17970955
88	0x3db28575	0.08716861
89	0x3e2fff7a	0.171873
90	0x3de99e15	0.11407105
91	0x3dc38944	0.09547666
92	0x3e910d0b	0.28330263
93	0xbe93ae7a	-0.28844053
94	0xbde69d93	-0.11260524
95	0xbde47dec	-0.1115683
96	0x3e0746e4	0.13210636
97	0xbe8e4e32	-0.27794033
98	0x3e442c04	0.19157416
99	0xbd36247e	-0.044468395
100	0xbe8589ce	-0.260817
101	0x3dbf3fba	0.09338327
102	0xbd64d11c	-0.055863485
103	0xbee74827	-0.45172235
104	0x3c04d540	0.008107483
105	0xbddddcc4	-0.10833123
106	0x3bd9aeb7	0.006643142
107	0x3e93c4c0	0.28861046
108	0xbda9d3e3	-0.08292367
109	0xbd9de28a	-0.077092245
110	0xbe543d97	-0.2072662
111	0xbc8381b5	-0.01605306
112	0x3e8a5c51	0.27023557
113	0x3cb1a480	0.021684885
114	0x3e8efd63	0.27927694
115	0xbe8da77d	-0.27666846
116	0x3db49bab	0.08818754
117	0xbde259e1	-0.11052299
118	0xbe407490	-0.18794465
119	0xbe6d4045	-0.23169048
120	0x3dde7523	0.10862186
121	0xbeda1526	-0.4259426
122	0xbe287abe	-0.16453072
123	0xbbfc2475	-0.0076947757
124	0x3e89eae3	0.26937017
125	0xbd939df6	-0.07207863
126	0x3d9ef8f8	0.07762331
127	0xbb093e80	-0.0020941794
128	0x3d827b7d	0.0637121
129	0x3d8ad544	0.067789584
130	0xbc2093d8	-0.009800874
131	0xbe47facc	-0.19529265
132	0x3d19f7ae	0.03758972
133	0xbddfda85	-0.10930351
134	0xbd2ad84e	-0.04171019
135	0xbdfd88f9	-0.12379641
136	0xbd18ff84	-0.037353054
137	0xbdf1753f	-0.11789941
138	0x3c678221	0.014130146
139	0x3ee1237f	0.43972394
140	0x3e904c15	0.28183046
141	0x3e5e6971	0.2171991
142	0x3dc191cd	0.094516374
143	0xbe8bd5aa	-0.2731145
144	0xbdc3ad37	-0.095545225
145	0xbe313d99	-0.17308654
146	0xbe18fcf4	-0.14940244
147	0xbcbf1ab6	-0.023328166
148	0x3ce39856	0.0277826
149	0x3cfc1460	0.030771434
150	0x3d02d08a	0.03193716
151	0x3ce50530	0.027956575
152	0x3e980cd2	0.2969728
153	0xbddfde36	-0.10931055
154	0x3e1d71d4	0.15375453
155	0x3e7b3eb9	0.24535646
156	0x3e5a5053	0.21319704
157	0x3ecdc5f0	0.40190077
158	0xbe8ffbab	-0.28121695
159	0xbe5ea609	-0.21743025
160	0xbe5eff68	-0.21777117
161	0xbe9b011f	-0.30274293
162	0xbdfd0d63	-0.12356069
163	0x3e023384	0.12714964
164	0x3e6c72cf	0.23090671
165	0x3be7e0bf	0.0070763524
166	0x3e1eac6c	0.15495461
167	0xbe2ff72a	-0.1718413
168	0x3ded4216	0.115848705
169	0xbdd703a6	-0.10498743
170	0xbeb6c505	-0.3569719
171	0x3caea28b	0.02131774
172	0xbe337d3a	-0.17528239
173	0xbde84ce4	-0.11342791
174	0x3e2349a5	0.15946062
175	0x3d4e7dea	0.05041305
176	0x3de25a70	0.11052406
177	0xbddcf3a0	-0.10788655
178	0xbdc80aed	-0.09767709
179	0xbd85cf49	-0.06533677
180	0x3d511a9b	0.051050764
181	0x3d3de2d0	0.046358883
182	0x3e02d2e3	0.1277576
183	0xbdad99ac	-0.08476576
184	0x3e86b1a6	0.2630741
185	0x3e165704	0.14681631
186	0x3da62074	0.08111659
187	0x3d28cf6d	0.04121344
188	0xbde26469	-0.11054308
189	0xbe910a5f	-0.28328225
190	0x3e426744	0.18984705
191	0x3d5c1cf7	0.05373856
192	0x3e27cf11	0.16387583
193	0x3e1c78f2	0.15280512
194	0x3e0f8e0c	0.1401903
195	0xbcb175f3	-0.021662688
196	0x3eb4aa32	0.352861
197	0x3ea006ad	0.31255093
198	0xbdbfe418	-0.09369677
199	0xbe2b9b23	-0.16758399
200	0x3da66913	0.0812551
201	0xbe5fef7f	-0.21868704
202	0x3efcb362	0.49355608
203	0xbe721f2c	-0.23644704
204	0x3e279283	0.16364484
205	0x3e89eb4a	0.26937324
206	0x3d880871	0.06642235
207	0x3e1483d5	0.14503415
208	0xbe5b2460	-0.21400595
209	0x3e440538	0.19142616
210	0xbe2ff9ea	-0.17185178
211	0x3ee2ce3d	0.44297972
212	0x3e43f40e	0.19136068
213	0xbd946f59	-0.072478004
214	0xbe036643	-0.12831978
215	0x3cb07d57	0.021544142
216	0xbe293cba	-0.16527072
217	0x3e8eb5c1	0.27873042
218	0x3dd7f4a4	0.10544708
219	0xbe91dabc	-0.28487194
220	0xbe8bae16	-0.27281255
221	0xbe84fa7e	-0.2597236
222	0x3e7a24cd	0.24428101
223	0xbe5f4ad3	-0.21805887
224	0xbea57495	-0.32315508
225	0x3c1a162e	0.009404702
226	0xbd512814	-0.051063612
227	0xbdd47cc0	-0.10375357
228	0xbe4db50d	-0.20088597
229	0x3e89acec	0.2688974
230	0x3e73ca96	0.23807749
231	0x3e9a0e90	0.30089235
232	0xbde188c8	-0.11012417
233	0xbe1fa0a3	-0.15588622
234	0xbcc93eb5	-0.024566034
235	0x3e01fc82	0.1269398
236	0x3eac1328	0.33608365
237	0xbdb1f547	-0.08689361
238	0xbe9c28f6	-0.305
239	0x3e83302f	0.256227
240	0xbd8c7879	-0.06858916
241	0x3cea5958	0.028607056
242	0xbc1970ff	-0.009365319
243	0x3d00908c	0.03138785
244	0xbe925bb6	-0.28585595
245	0x3d926baa	0.071494415
246	0xbe082bf4	-0.13298017
247	0x3f1a6e63	0.60324687
248	0x3d2b5690	0.0418306
249	0xbe6a24ed	-0.22865649
250	0x3e950264	0.29103386
251	0x3e10b402	0.14131168
252	0x3e06589b	0.13119738
253	0xbe620dec	-0.22075623
254	0xbc7384cd	-0.014863205
255	0xbe1863a1	-0.14881755

bias f4 [64]
0	0x3c7c7cab	0.015410583
1	0x3d2e031f	0.042483445
2	0xbca1a903	-0.019733911
3	0xbd41c094	-0.047302797
4	0xbd923f6e	-0.071410045
5	0xbd033ae8	-0.0320386
6	0xbd23a077	-0.039947953
7	0xbd4d38ed	-0.050103117
8	0xbc013f9a	-0.007888699
9	0x3d9a0880	0.075211525
10	0xbc68be7b	-0.01420557
11	0x3c5893a4	0.013218794
12	0x3cb7dbd9	0.022443699
13	0xbd51d9c1	-0.051233057
14	0x3cb6640a	0.0222645
15	0x3d68b350	0.05681163
16	0x3d51a653	0.05118401
17	0xbd1d1dac	-0.038358375
18	0x3d0bbac0	0.034113646
19	0xbc913286	-0.017724287
20	0xbd09a6f7	-0.033606496
21	0xbbe3dbe8	-0.006953705
22	0xbdd8e904	-0.10591319
23	0xbdb87821	-0.09007288
24	0xbb49d130	-0.0030794851
25	0x3cff626b	0.031174859
26	0x3c8cca3b	0.017186275
27	0x3d5382d8	0.051638454
28	0x3d7613a8	0.06007734
29	0xbc82abdc	-0.01595109
30	0xbd8f3276	-0.069920465
31	0xbd5b1787	-0.053489234
32	0xbd86b1f8	-0.065769136
33	0xbe007b6b	-0.1254708
34	0x3cd6e869	0.026233869
35	0x3d17a546	0.03702285
36	0xbd03b59b	-0.032155614
37	0x3c83f108	0.016106144
38	0xbded5625	-0.115886964
39	0xbd4c55c0	-0.049886465
40	0x3dd62167	0.1045559
41	0xbd7c46a5	-0.06159081
42	0xbd9503b7	-0.07276099
43	0xbb319dd6	-0.0027102134
44	0xbca5a7a8	-0.020221546
45	0xbce7ca46	-0.028294694
46	0x3d234854	0.0398639
47	0xb97bd23a	-0.00024015541
48	0x3d597e22	0.053098805
49	0x3c4e7dd5	0.012603243
50	0xbce5b716	-0.028041404
51	0x3a0c307d	0.00053478015
52	0xbdaa8f14	-0.08328071
53	0x3d03b813	0.03215797
54	0xbba54381	-0.0050434475
55	0xbcf1dd2f	-0.029524414
56	0x3d410763	0.047126185
57	0xbc7f1727	-0.015569485
58	0x3da1e11b	0.079042636
59	0x3d165d81	0.036710266
60	0xbd9731c4	-0.07382539
61	0xbd5cf3cb	-0.053943437
62	0xbd81d135	-0.06338731
63	0xbdd36648	-0.10322243

weight f4 [64, 64]
0	0x3e4f237b	0.20228378
1	0x3ea33515	0.31876436
2	0xbe83ed41	-0.25766948
3	0xbe8a1513	-0.26969203
4	0xbc8d17cb	-0.01722326
5	0x3e9e0fc9	0.30871418
6	0x3d20076d	0.03906958
7	0xbd4275c8	-0.047475606
8	0xbe97e3b2	-0.29665905
9	0xbdce4d90	-0.100733876
10	0xbdc3293b	-0.095293485
11	0x3e239263	0.15973811
12	0xbe70ae22	-0.23503926
13	0xbe456673	-0.19277363
14	0xbe1e294b	-0.1544544
15	0xbca934a9	-0.020654993
16	0xbdebcbfe	-0.11513518
17	0x3e829c12	0.25509697
18	0x3e4ee279	0.2020358
19	0x3e4a584e	0.19760248
20	0xbcb61ff0	-0.022232026
21	0xbdf67399	-0.12033767
22	0xbe423c43	-0.189683
23	0xbe3a35ff	-0.1818466
24	0xbd925407	-0.07144933
25	0x3e1c53cb	0.1526634
26	0x3f04faae	0.51945007
27	0xbe649d69	-0.22325672
28	0xbe45a66b	-0.19301765
29	0xbd85b047	-0.06527763
30	0x3d7d594a	0.06185273
31	0x3dafdc8d	0.085869886
32	0xbd9d0464	-0.07666853
33	0xbe0ebc0b	-0.1393892
34	0x3e347ae5	0.17625006
35	0xbd353f8f	-0.044250067
36	0xbe3cbb1f	-0.18430756
37	0x3d410727	0.04712596
38	0xbdd1673f	-0.10224771
39	0xbd714868	-0.058906943
40	0x3e2389f4	0.15970594
41	0x3ebad9b7	0.36494228
42	0x3d8c2ea0	0.068448305
43	0x3e0a2462	0.13490441
44	0xbbb1935e	-0.005419179
45	0x3ddff702	0.10935785
46	0xbe073b59	-0.13206233
47	0x3d1cca6a	0.038278975
48	0x3d82c6d3	0.06385579
49	0xbe86e340	-0.26345253
50	0x3d694b33	0.05695648
51	0x3ebf29ee	0.37336677
52	0x3e545f5c	0.20739502
53	0x3c0612c8	0.008183189
54	0xbe0a4230	-0.13501811
55	0xbe182c26	-0.14860591
56	0x399bfa7f	0.00029750538
57	0xbb46a10e	-0.0030308398
58	0x3ded66a2	0.11591841
59	0x3ead46b4	0.33843005
60	0x3e232465	0.15931852
61	0xbde8221c	-0.11334631
62	0xbe02945b	-0.12751906
63	0x3e1a2887	0.15054522
64	0xbd91b167	-0.07113915
65	0x3eb0be9d	0.34520426
66	0x3eeeff19	0.46679
67	0xbe4ffdd2	-0.20311669
68	0x3d758b36	0.059947215
69	0xbe6c4272	-0.23072222
70	0x3ef10f6c	0.47082078
71	0x3edc98fa	0.43085462
72	0xbef6851a	-0.48148423
73	0xbe2d69dc	-0.16934913
74	0x3da9e145	0.0829492
75	0x3e0d8827	0.13821469
76	0xbeb8d4b2	-0.36099774
77	0xbdbe988a	-0.09306438
78	0xbc30a9aa	-0.010782639
79	0xbe9e712c	-0.30945718
80	0xbe3454be	-0.17610452
81	0xbe0d79d7	-0.1381601
82	0x3d205114	0.039139822
83	0x3c99a6dd	0.018756324
84	0x3de207c8	0.110366404
85	0xbec024a7	-0.37527964
86	0xbedd03ba	-0.43166906
87	0xbddef2d7	-0.10886162
88	0x3e0111ce	0.12604448
89	0xbd8f35c8	-0.0699268
90	0x3e6fa341	0.2340212
91	0xbe8532a7	-0.26015207
92	0xbe941e48	-0.28929353
93	0x3d3a2f9d	0.045455564
94	0x3cc7bdfd	0.024382586
95	0xbb28bb57	-0.002574643
96	0xbe1dff63	-0.15429454
97	0xbc9cc62c	-0.019137464
98	0x3e873842	0.2641011
99	0x3e149254	0.14508945
100	0xbe0ef523	-0.139607
101	0x3eb71593	0.35758647
102	0x3e07ac9e	0.13249442
103	0xbed4d0fe	-0.41565698
104	0xbf8143de	-1.0098836
105	0x3e6bd5d7	0.23030792
106	0xbe09cf87	-0.13458072
107	0xbdf29b89	-0.11846072
108	0x3e2f677e	0.17129323
109	0xbe59c849	-0.21267809
110	0x3ee47a56	0.44624585
111	0x3e5f12da	0.21784535
112	0xbde3ebbb	-0.111289464
113	0x3e2c88d4	0.16849071
114	0xbe9345c2	-0.28764158
115	0x3e285ea3	0.16442351
116	0x3dc60d9b	0.09670564
117	0xbf4a6b11	-0.7906962
118	0x3d953f68	0.072874844
119	0xbee3a066	-0.44458312
120	0xbc04febf	-0.008117377
121	0x3a5dbb2a	0.00084583706
122	0xbead5746	-0.33855647
123	0xbf201bf9	-0.6254268
124	0xbcc3818e	-0.023865487
125	0x3e1d2772	0.15347078
126	0x3dd7574d	0.10514698
127	0xbcd19ced	-0.025587523
128	0xbd64e124	-0.055878773
129	0xbe982fce	-0.29723972
130	0xbdbd6e3f	-0.092495434
131	0x3ed43a37	0.41450664
132	0xbcceb64a	-0.025233407
133	0x3ea9823d	0.33107176
134	0xbf03dc71	-0.5150824
135	0xbc497d5b	-0.0122979535
136	0x3f32a3dd	0.69781286
137	0xbd70e4dc	-0.058812007
138	0x3dbb28b0	0.0913862
139	0xbe2699ba	-0.1626958
140	0xbebb5e57	-0.36595413
141	0xbd35fd24	-0.044430867
142	0xbe46c359	-0.19410457
143	0xbccde3ea	-0.025133092
144	0x3e1a3b8e	0.15061781
145	0xbdd0257e	-0.10163401
146	0x3d1c7afa	0.038203217
147	0x3e7a6c18	0.24455297
148	0x3e08a54b	0.13344304
149	0x3d66e5b6	0.056371413
150	0xbe4afa72	-0.198221
151	0x3e1cfe86	0.15331468
152	0x3d8905e0	0.06690574
153	0xbe91d809	-0.28485134
154	0x3d8b78fe	0.06810187
155	0x3e003ff5	0.12524398
156	0xbced7107	-0.02898456
157	0xbe01cb1c	-0.12675136
158	0xbe0d4e80	-0.13799477
159	0x3d1cde42	0.0382979
160	0xbe2677e7	-0.16256677
161	0x3d55f95d	0.052239764
162	0x3e626d91	0.22112109
163	0xbb4aabde	-0.0030925195
164	0x3e9c59e4	0.3053733
165	0x3d9e5c0b	0.077323996
166	0xbe38e512	-0.18056133
167	0x3e88929d	0.26674357
168	0xbe8c10ba	-0.2735651
169	0xbdc5f88c	-0.09666547
170	0xbe597f78	-0.21240032
171	0x3e19c6b6	0.15017208
172	0xbe7782de	-0.24171016
173	0x3daae53c	0.08344504
174	0xbdaa3e1e	-0.08312629
175	0x3d84af2c	0.06478724
176	0x3dca2503	0.09870341
177	0xbdf52b18	-0.1197111
178	0xbcfdda67	-0.030987931
179	0x3d9ac872	0.07557763
180	0xbce1071e	-0.027469214
181	0x3ea52992	0.32258278
182	0x3e1ab492	0.15107945
183	0x3e2ee993	0.17081289
184	0x3e009f6f	0.12560819
185	0xbddbd6da	-0.10734339
186	0x3dd36b0c	0.10323152
187	0x3e2a6b9f	0.16642617
188	0xbe9470b8	-0.28992248
189	0x3d9bdbe0	0.07610297
190	0x3e5fb998	0.21848142
191	0xbd13c2b4	-0.036074355
192	0xbe88a0ef	-0.26685283
193	0xbe0a9924	-0.13534981
194	0xbe42a47e	-0.19008061
195	0x3e03b7c8	0.12863076
196	0xbf4ce893	-0.8004238
197	0xbcf355e1	-0.029704036
198	0xbf10d90e	-0.565812
199	0xbd172147	-0.03689697
200	0x3db9437b	0.09046074
201	0x3e941d68	0.28928685
202	0xbd01fe0e	-0.031736426
203	0xbd64b542	-0.055836923
204	0x3ec82f1e	0.39098448
205	0xbe42d3c0	-0.19026089
206	0x3d724edb	0.059157234
207	0x3db6e514	0.08930412
208	0xbd828b40	-0.06374216
209	0x3e433ee4	0.1906696
210	0x3e7657df	0.24056958
211	0x3d8783d8	0.06616944
212	0xbe50029d	-0.20313497
213	0x3b7e3384	0.003878803
214	0x3e899e93	0.26878795
215	0xbd77efe3	-0.06053151
216	0x3daed1ad	0.08536086
217	0x3e9e6ef2	0.3094402
218	0xbf29706b	-0.6618716
219	0x3eaa11e4	0.33216774
220	0x3e2010ad	0.15631361
221	0xbed5d783	-0.41765985
222	0x3c905567	0.017618848
223	0xbd9a9873	-0.07548609
224	0xbda9114e	-0.08255254
225	0x3ddc8b7f	0.10768794
226	0x3d9f51ad	0.0777925
227	0x3efa82a2	0.4892779
228	0xbdfacf6c	-0.12246594
229	0xbd92162a	-0.07133134
230	0xbd80ec80	-0.06295109
231	0xb884071a	-6.295573e-05
232	0x3d8db09d	0.06918452
233	0xbf13d59d	-0.57747823
234	0x3e7d3459	0.24727
235	0xbe0c8965	-0.13724287
236	0x3ec37348	0.3817389
237	0xbd825bf1	-0.06365193
238	0x3e82f514	0.25577605
239	0xbe21b4d4	-0.15791637
240	0xbdfd0f1e	-0.12356399
241	0x3bf28f5e	0.0074023446
242	0xbe15180e	-0.14559957
243	0xbf0d7287	-0.5525288
244	0xbf070bb0	-0.5275221
245	0x3d2d2c44	0.042278543
246	0x3e5314e5	0.2061344
247	0x3e39a54c	0.18129462
248	0xbe2dbec1	-0.16967298
249	0xbc38d05f	-0.011280148
250	0xbe00271e	-0.12514922
251	0x3e2cda15	0.16880067
252	0xbe97a9a7	-0.29621622
253	0xbd9acc29	-0.07558472
254	0x3e45b8b8	0.19308746
255	0xbc85ef8d	-0.016349578

bias f4 [64]
0	0xbe2aa314	-0.16663772
1	0x3e0d79ea	0.13816038
2	0xbcaf2656	-0.021380585
3	0xbda5f39e	-0.08103107
4	0x3ca1971c	0.019725375
5	0x3bd61970	0.006533794
6	0x3db5829c	0.088628024
7	0x3e358533	0.17726593
8	0xbc022e27	-0.007945574
9	0xbd23e3af	-0.040012058
10	0x3cf35684	0.02970434
11	0xbe05faf4	-0.13084012
12	0xbd903f2b	-0.07043298
13	0xbd299a33	-0.04140682
14	0x3d7ca547	0.06168106
15	0x3d3bdba4	0.045863762
16	0x3d4820b1	0.048859302
17	0x3c7b859e	0.015351681
18	0x3da7d2d5	0.0819451
19	0xbd36fadc	-0.044672832
20	0x3c292c24	0.010325465
21	0x3d4c70e4	0.04991235
22	0x3d3781d3	0.044801544
23	0xbadbf6ce	-0.0016781928
24	0xbc923e63	-0.017852014
25	0xbd0341e9	-0.03204528
26	0x3c664630	0.01405482
27	0xbec5b574	-0.38615
28	0xbd2ab3eb	-0.04167549
29	0x3e7472da	0.23871937
30	0xbd50ee7b	-0.051008683
31	0x3d1f3651	0.03887016
32	0xbcec7f16	-0.028869193
33	0x3d6be1bf	0.057588335
34	0xbb0b8d52	-0.002129395
35	0x3d3c0106	0.045899414
36	0xbdcbbd49	-0.09948213
37	0x3d90f8db	0.070787154
38	0x3dba6c6f	0.09102713
39	0xbca25868	-0.019817546
40	0x3d6caf97	0.057784643
41	0x3d870b82	0.06593992
42	0x3da55711	0.08073247
43	0x3bfb1d8f	0.007663436
44	0x3e3cd4cc	0.1844055
45	0xbd016a25	-0.031595368
46	0xbd8cc2ef	-0.06873118
47	0x3d2428b6	0.040077887
48	0xbacbd9e5	-0.0015552609
49	0xbd8f3a96	-0.06993596
50	0x3da079e7	0.07835751
51	0xbd3161e6	-0.043306254
52	0x3c868a8a	0.016423482
53	0xbdc04ec4	-0.09390023
54	0xbc697621	-0.0142493555
55	0x3d2e5fd8	0.042571872
56	0x3ca375ff	0.019953726
57	0xbe012939	-0.12613381
58	0xbde44edc	-0.11147854
59	0x3d98f942	0.07469417
60	0x3bf8b7ef	0.007590286
61	0x3e18a4cf	0.1490662
62	0xbdb41fb1	-0.08795107
63	0x3c9701d2	0.018433485

weight f4 [64, 64]
0	0x3e7f8c32	0.24955824
1	0xbe1eb360	-0.15498114
2	0x3e3f6160	0.1868949
3	0xbf14251d	-0.5786913
4	0x3e9e3fb6	0.30907983
5	0x3ebcb260	0.3685484
6	0xbdda3ffd	-0.10656736
7	0xbe8b9671	-0.27263215
8	0xbdff4a78	-0.12465376
9	0xbe31e63a	-0.1737298
10	0xbf3be671	-0.733985
11	0xbdf47bb8	-0.1193766
12	0x3e39b45b	0.18135206
13	0xbe9eded3	-0.31029376
14	0x3d6b66b1	0.05747098
15	0x3d0cf856	0.03441652
16	0x3e15ec21	0.14640857
17	0x3e038a79	0.12845792
18	0x3d63cfc2	0.055618055
19	0xbeb26cae	-0.3484854
20	0x3edfd576	0.43717545
21	0x3e394a02	0.18094638
22	0x3f0dfcb2	0.5546371
23	0xbd7d2ec9	-0.061812196
24	0xbe8ab3b6	-0.27090234
25	0x3e107ff4	0.1411131
26	0xbe073871	-0.13205124
27	0x3dd683b6	0.104743406
28	0x3e3c5e3d	0.18395324
29	0x3da3d2ae	0.07999168
30	0xbe091a44	-0.13388926
31	0xbefe83a9	-0.49709824
32	0x3dccdabb	0.10002657
33	0xbd3173f2	-0.043323465
34	0x3ed2cabb	0.41170296
35	0xbe49136f	-0.1963632
36	0xbf479b9d	-0.7797182
37	0xbd8d6d89	-0.06905658
38	0x3daa2e8a	0.08309658
39	0x3ead5084	0.3385049
40	0x3e2b9ee0	0.16759825
41	0xbb9b9116	-0.00474752
42	0xbed3d5d3	-0.41374072
43	0x3e2712d9	0.16315784
44	0xbd9eb9cc	-0.07750282
45	0x3d5fcfbf	0.05464148
46	0xbe0de5a1	-0.13857128
47	0xbe771cfb	-0.24132149
48	0x3e6a8201	0.22901155
49	0xbe3981a2	-0.18115857
50	0xbeec0812	-0.46099907
51	0xbd961f6e	-0.073302135
52	0x3eee6583	0.46561822
53	0xbe5ddc38	-0.21666038
54	0xbd2149f5	-0.03937717
55	0xbf327ba4	-0.6971991
56	0x3e5a2bec	0.21305817
57	0x3f48635a	0.782766
58	0xbef2de3b	-0.47435173
59	0xbe2a4bea	-0.16630521
60	0xbd43a7ed	-0.04776757
61	0xbe15f65f	-0.14644764
62	0xbe2d3903	-0.1691628
63	0x3d469a3c	0.048486933
64	0xbea6445e	-0.32474035
65	0xbdcd1482	-0.10013677
66	0x3df0fd3c	0.117670506
67	0x3d052b1d	0.03251182
68	0xbe7f9e7b	-0.24962799
69	0x3da26514	0.07929435
70	0x3b16a1fc	0.0022984734
71	0x3f17ed9a	0.59346926
72	0x3e0891ef	0.13336919
73	0x3da8ba53	0.082386635
74	0x3e1ca590	0.15297532
75	0x3d8d29ad	0.06892715
76	0xbd699d80	-0.05703497
77	0x3c8b526e	0.017007079
78	0x3c9198c3	0.017773038
79	0xbed8c371	-0.4233661
80	0x3d0e2d8e	0.034711413
81	0x3a8aaf7d	0.0010580864
82	0x3ddb07da	0.10694857
83	0x3e6b01df	0.22949933
84	0xbeaba869	-0.33526924
85	0xbea323d4	-0.31863272
86	0x3e05cffa	0.13067618
87	0x3e9363d5	0.28787103
88	0x3d9d7c01	0.076896675
89	0xbf31439f	-0.69243807
90	0xbecc2cd4	-0.3987795
91	0xbde33191	-0.110934384
92	0xbe4e81f7	-0.20166765
93	0x3cbe245a	0.023210693
94	0x3e0d7e2a	0.13817659
95	0x3eca2284	0.39479458
96	0x3e6ddcd2	0.23228768
97	0x3d7125f5	0.05887409
98	0xbef6a7de	-0.48174948
99	0xbeb89e44	-0.36058247
100	0xbe6ea834	-0.23306352
101	0x3ec08ac6	0.37605876
102	0x3d65c395	0.056094725
103	0xbda9d02b	-0.08291658
104	0xbd21204f	-0.039337453
105	0x3dd4ffe2	0.10400368
106	0xbdda2353	-0.10651269
107	0x3d23809c	0.039917573
108	0x3e23a77a	0.15981856
109	0xbe1a5e4a	-0.15075031
110	0x3d1162fa	0.035494782
111	0x3eb357c9	0.35027912
112	0xbe680762	-0.22659066
113	0x3da449aa	0.08021863
114	0x3f1717d3	0.5902073
115	0xbe29c3ae	-0.16578552
116	0x3e2f8605	0.17140968
117	0x3e1e01f4	0.15430433
118	0xbe03463d	-0.12819763
119	0xbe8f983c	-0.28045833
120	0xbe555cdb	-0.20836203
121	0xbd858394	-0.06519237
122	0xbddf688e	-0.10908614
123	0xbe2b873d	-0.16750808
124	0x3e87740a	0.26455718
125	0xbdf04c82	-0.11733343
126	0x3e61a3a9	0.22035088
127	0x3e42758a	0.1899015
128	0xbcf2b96d	-0.029629434
129	0x3e79a070	0.24377608
130	0x3e200158	0.15625513
131	0xbda1dd75	-0.07903568
132	0xbd848a2f	-0.06471669
133	0x3dae6f2e	0.085172996
134	0x3d8396ba	0.06425233
135	0xbf0cd575	-0.5501321
136	0xbd5b243e	-0.05350136
137	0x3c981e9f	0.018569289
138	0x3d816343	0.06317761
139	0x3d996708	0.07490355
140	0xbc809ae6	-0.015698861
141	0xbeb84fa6	-0.35998267
142	0xbeab738f	-0.33486602
143	0x3da7cdc6	0.08193545
144	0xbe5572c1	-0.20844556
145	0x3ee96766	0.455867
146	0xbe78d049	-0.24298204
147	0x3ce07fec	0.027404748
148	0x3ea20716	0.3164603
149	0x3e3305ab	0.17482631
150	0x3eec76c6	0.46184367
151	0x3dc9d613	0.098552845
152	0x3df5e7b6	0.12007086
153	0x3e8df5d0	0.27726603
154	0x3e206920	0.15665102
155	0x3cb2ae39	0.021811591
156	0xbc9efea0	-0.019408524
157	0xbd5edc82	-0.05440951
158	0x3de7aca7	0.11312228
159	0x3e23afc2	0.15985015
160	0x3dcd4cc5	0.10024408
161	0x3dc01bb9	0.09380288
162	0x3e928bd4	0.28622305
163	0x3e570ade	0.21000239
164	0xbeb4f921	-0.3534632
165	0xbe58320b	-0.2111284
166	0x3e646083	0.22302441
167	0xbd59f7e8	-0.053214937
168	0x3b6f9183	0.0036555238
169	0xbcad835b	-0.0211808
170	0xbc96da57	-0.01841466
171	0x3e83473c	0.25640285
172	0x3e64de87	0.22350512
173	0x3d964745	0.07337812
174	0xbda3d9ba	-0.080005124
175	0xbea849b5	-0.32868734
176	0xbec9ecb4	-0.39438403
177	0x3e4599ed	0.19297
178	0x3cb4f6b2	0.02209029
179	0xbdf0ae4a	-0.11751993
180	0x3f09ee1d	0.5387896
181	0xbe234612	-0.15944698
182	0x3e8265b8	0.2546823
183	0x3d9c6868	0.076371014
184	0x3de642fc	0.11243245
185	0x3e676b9c	0.22599643
186	0xbe71d318	-0.23615682
187	0x3e0d53ba	0.1380147
188	0x3db22222	0.086979166
189	0x3e95581b	0.29168782
190	0xbd9f4230	-0.07776296
191	0xbc00ba4d	-0.007856918
192	0x3b1042ff	0.002201259
193	0x3eb4a9ae	0.35285705
194	0x3e950d22	0.29111582
195	0xbd64b821	-0.05583966
196	0xbd263e6d	-0.040586878
197	0xbe3fe76f	-0.18740629
198	0x3e5dbe45	0.21654613
199	0x3d7bdc6b	0.061489504
200	0xbe16b73c	-0.14718336
201	0x3eb0f3c6	0.34560984
202	0xbe817a60	-0.25288677
203	0xbca4cc36	-0.020116907
204	0xbe4d520d	-0.20050831
205	0xbe4a507f	-0.1975727
206	0xbc608ca5	-0.013705407
207	0xbf16abf3	-0.58856124
208	0xbe30deb3	-0.17272453
209	0x3f1b840c	0.6074836
210	0x3cda64a3	0.026659315
211	0x3e296ca4	0.1654535
212	0x3e4313c4	0.19050509
213	0x3e8c2220	0.27369785
214	0xbd9982d6	-0.07495658
215	0x3ec6f912	0.388619
216	0xbd9ef619	-0.07761783
217	0x3ddf5761	0.10905338
218	0xbed45f81	-0.41479114
219	0xbc1c1058	-0.009525381
220	0x3e0efed3	0.13964395
221	0xbc9eece0	-0.01940006
222	0x3ed10390	0.4082303
223	0xbc0ed8c1	-0.00871867
224	0xbdaa0f1d	-0.08303664
225	0x3e9b271d	0.3030328
226	0x3ecf0647	0.40434477
227	0xbe15a102	-0.14612201
228	0xbd01a5ce	-0.031652264
229	0xbe801988	-0.2501948
230	0xbc270713	-0.010194558
231	0x3d9ee42e	0.077583656
232	0x3e7984aa	0.24367014
233	0xbd7a2fd4	-0.06108077
234	0x3e68dfec	0.2274167
235	0xbcc623f0	-0.024187058
236	0xba9cedfe	-0.0011972783
237	0x3e7284c2	0.23683456
238	0xbe211775	-0.15731604
239	0xbde2e38b	-0.110785566
240	0xbe43e0c7	-0.19128715
241	0xbe05b7f4	-0.13058454
242	0xbe8ddcfb	-0.27707657
243	0xbd428ebb	-0.0474994
244	0x3e6150a4	0.22003418
245	0xba64fe0d	-0.0008735366
246	0x3b86e914	0.0041171405
247	0x3d801199	0.062533565
248	0xbe8d2667	-0.2756836
249	0x3da522f4	0.080633074
250	0x3db12bc9	0.086509295
251	0xbce305f9	-0.027712809
252	0xbe55e3f6	-0.20887741
253	0xbe9e0775	-0.30865064
254	0x3e0ea3fb	0.13929741
255	0x3e116801	0.1419983

bias f4 [64]
0	0xbeaa45c3	-0.3325635
1	0xbe701441	-0.23445226
2	0x3e3c0ffe	0.18365476
3	0x3d185123	0.037186753
4	0x3dec2a7d	0.115315415
5	0xbd477b05	-0.048701305
6	0xbed64533	-0.4184967
7	0x3cebcc38	0.028783903
8	0x3c4eb9dc	0.0126175545
9	0x3d35111b	0.044205766
10	0x3df34180	0.118777275
11	0xbc07a344	-0.008278672
12	0xbed5da1b	-0.41767964
13	0xbd25eabd	-0.040507067
14	0x3d1a2090	0.03762871
15	0x3de9f2a0	0.1142323
16	0xbbd4eba9	-0.0064978194
17	0x3cb894ff	0.022531984
18	0x3c7de394	0.015496153
19	0xbe72e3c3	-0.23719697
20	0xbe5e8ecb	-0.21734159
21	0x3d9bf790	0.07615578
22	0x3db621af	0.088931434
23	0x3db36b50	0.087607026
24	0xbdd0c204	-0.101932555
25	0x3bb30dc4	0.0054642875
26	0xbf3b1ac4	-0.73087716
27	0x3c9b78f5	0.018978575
28	0xbdeab270	-0.114598155
29	0x3b243123	0.0025053702
30	0xbe6b1964	-0.22958905
31	0xbd98e5f0	-0.07465732
32	0x3d8d8743	0.06910565
33	0x3dd1c2ac	0.10242209
34	0x3dd052ce	0.10172044
35	0x3cf61d77	0.030043347
36	0x3dde4f64	0.10854986
37	0xbe6914b2	-0.22761801
38	0xbdb150ba	-0.086579755
39	0xbbfe5fe7	-0.0077628973
40	0x3e2337dc	0.15939277
41	0x3d469a2b	0.04848687
42	0x3b59905d	0.003319762
43	0xbdfd2f60	-0.12362552
44	0x3e50638f	0.20350479
45	0xbc60cde6	-0.013720965
46	0x3da8c749	0.082411356
47	0xbc15c230	-0.009140536
48	0xbd78f414	-0.060779646
49	0x3db23bec	0.087028354
50	0xbe57cb9b	-0.21073763
51	0x3d1c04bd	0.038090456
52	0xbe24ec3c	-0.16105741
53	0xbe62010c	-0.22070712
54	0xbe574f78	-0.21026409
55	0x3d98ec40	0.07466936
56	0xbd26a2b3	-0.040682506
57	0xbdbee7b6	-0.09321539
58	0xbd6ac96b	-0.057320993
59	0xbcd23287	-0.025658859
60	0x3d3e119e	0.04640352
61	0x3b8f57a9	0.0043744636
62	0x3dcc70a3	0.09982421
63	0xbdcb3870	-0.09922874

weight f4 [64, 64]
0	0x3d042a1d	0.032266725
1	0xbf4589fc	-0.7716367
2	0x3eced875	0.4039952
3	0xbe509f4d	-0.20373268
4	0x3e0bb938	0.13644874
5	0x3dbf0a3d	0.09328125
6	0xbf48a20b	-0.7837226
7	0xbe9cf0e0	-0.30652523
8	0xbdae5b5f	-0.085135214
9	0x3d9a2ee0	0.07528472
10	0x3de2806e	0.11059652
11	0x3f00abff	0.50262445
12	0xbef96589	-0.48710278
13	0x3ea03c92	0.3129621
14	0xbee900f5	-0.45508543
15	0x3e65e290	0.22449708
16	0x3dddb079	0.10824675
17	0xbf9a3f4b	-1.2050565
18	0xbe5cd8dc	-0.215671
19	0xbed0e05b	-0.4079617
20	0xbdad4d06	-0.08461957
21	0x3bdefebd	0.0068052695
22	0xbde20eda	-0.11037989
23	0xbe17aa00	-0.14810944
24	0x3c38c1f2	0.011276709
25	0xbe00b350	-0.12568402
26	0x3a8a857e	0.0010568348
27	0x3f7d72d1	0.9900332
28	0x3eab68d1	0.33478406
29	0xbec7264f	-0.38896415
30	0xbd338cec	-0.043835565
31	0xbe83b60f	-0.25724837
32	0xbedb6665	-0.42851558
33	0xbe3c042c	-0.18360966
34	0xbf424c14	-0.75897336
35	0xbcc40afe	-0.023931023
36	0x3ed7a888	0.42120767
37	0xbf6303d1	-0.886777
38	0xbeb6abf6	-0.3567807
39	0xbdd5f71d	-0.10447524
40	0xbea5459e	-0.32279676
41	0xbf7191f6	-0.94363344
42	0xbd385460	-0.04500234
43	0xbeac1f23	-0.33617505
44	0xbe5e840e	-0.21730062
45	0xbd300fff	-0.042984005
46	0x3f16ba5a	0.588781
47	0xbe015c35	-0.1263283
48	0x3c75a296	0.014992377
49	0x3d393bdd	0.045223106
50	0xbe6f07f7	-0.23342882
51	0xbdfec6aa	-0.12440236
52	0xbebe2e73	-0.37144813
53	0x3c90a714	0.017657794
54	0xbeda5639	-0.42643908
55	0x3f123ad7	0.5712103
56	0xbedb5cd6	-0.42844266
57	0x3eacaa1d	0.33723536
58	0x3e253d67	0.16136704
59	0x3dc73a79	0.0972795
60	0xbca403b6	-0.0200213
61	0xbc7d4d6d	-0.015460354
62	0x3e019665	0.12655027
63	0xbe812e49	-0.25230625
64	0x3e4e2185	0.20129974
65	0xbef2af7b	-0.47399506
66	0x3dc4f353	0.09616723
67	0x3e8a9f73	0.27074775
68	0xbe3d97be	-0.18514916
69	0xbe43260d	-0.19057484
70	0xbeedf0c4	-0.46472752
71	0x3e9840c7	0.2973692
72	0xbe8ce82c	-0.27520883
73	0xbca7dae3	-0.020490116
74	0x3e6a9975	0.22910102
75	0x3e427e53	0.18993501
76	0xbe855d2f	-0.26047656
77	0xbd36e5e8	-0.04465285
78	0xbe0dc28d	-0.13843746
79	0x3e43ac7f	0.19108771
80	0xbe88765b	-0.26652798
81	0xbed0a26e	-0.40748924
82	0xbd2aad77	-0.041669335
83	0xbf0fa2ac	-0.5610759
84	0xbe8d4cca	-0.27597648
85	0xbe22bebe	-0.15893075
86	0x3e6051b2	0.21906164
87	0xbe391050	-0.18072629
88	0xbdcef8b7	-0.10106032
89	0xbd37342a	-0.044727482
90	0xbcaaa94f	-0.020832686
91	0x3d42c4d3	0.047550987
92	0x3eb13ad5	0.34615198
93	0x3e6e3f02	0.23266223
94	0x3c8d72ad	0.017266596
95	0xbca97f55	-0.0206906
96	0xbeb12804	-0.34600842
97	0xbe6fe0b4	-0.23425561
98	0xbe6bde4a	-0.23034015
99	0x3e754fe7	0.23956262
100	0x3ecc375e	0.39885992
101	0xbebc4e54	-0.3677851
102	0xbe9839b4	-0.29731524
103	0xbde19fe4	-0.11016825
104	0xbf19c111	-0.6006022
105	0xbf1bb0ca	-0.60816634
106	0xbce3f7ea	-0.027828176
107	0xbda5934e	-0.08084737
108	0xbd5ad705	-0.053427715
109	0xbda63d6d	-0.08117185
110	0xbd54eb9c	-0.051982507
111	0x3ecb3b0e	0.39693493
112	0x3e09d96e	0.13461849
113	0xbe23f210	-0.16010308
114	0x3e966b06	0.29378527
115	0xbec587f4	-0.38580287
116	0xbe55e836	-0.20889363
117	0x3d0db951	0.03460056
118	0xbee4c336	-0.44680184
119	0xbd828224	-0.063724786
120	0xbdb0fd3c	-0.086420506
121	0x3e15a5ea	0.14614072
122	0xbd214457	-0.039371815
123	0xbe5edc7b	-0.21763794
124	0x3e11acd2	0.14226082
125	0x3c1662a9	0.009178796
126	0x3d47e62e	0.0488035
127	0xbe92bad2	-0.28658158
128	0xbe240215	-0.16016419
129	0xbd8bf1d5	-0.06833235
130	0x3e89624f	0.26832816
131	0x3f118c41	0.56854635
132	0x3ea6af5b	0.3255566
133	0xbeadb843	-0.33929643
134	0xbc0dfc5e	-0.008666126
135	0xbe99e9c7	-0.3006117
136	0xbe8e7c1c	-0.27829063
137	0x3e495ae9	0.19663586
138	0xbd4a1b58	-0.049342483
139	0x3ec4b53d	0.38419524
140	0xbed5d6ac	-0.41765344
141	0x3d4e89ea	0.050424494
142	0xbe3ad990	-0.18247056
143	0x3ca45249	0.020058768
144	0x3ae5ba49	0.0017526831
145	0xbebc077b	-0.36724457
146	0x3e8669dc	0.2625264
147	0xbe66642f	-0.22499155
148	0xbe7e8589	-0.24855627
149	0x3c8a79a1	0.0169037
150	0x3e5632c1	0.20917799
151	0xbe505d3f	-0.2034807
152	0xbe66ae00	-0.22527313
153	0x3b038c24	0.0020072544
154	0x3e7f7a4c	0.24948996
155	0x3e4c654a	0.19960514
156	0x3e58b234	0.21161729
157	0xbd70bc8d	-0.058773566
158	0x3e605210	0.21906304
159	0xbe107925	-0.14108713
160	0xbd35bdfc	-0.044370636
161	0x3e260716	0.1621364
162	0xbea04a95	-0.31306902
163	0xbb782f34	-0.0037869932
164	0x3ec78c38	0.38974166
165	0xbe176a5c	-0.14786667
166	0xbe2fe609	-0.17177595
167	0x3e1a2125	0.15051706
168	0x3e87eec2	0.26549345
169	0xbe69cde5	-0.22832449
170	0xbda60f54	-0.08108392
171	0xbe250b51	-0.16117598
172	0x3dbf7b09	0.09349639
173	0x3e0b932e	0.13630363
174	0x3d983036	0.074310705
175	0x3d9b3a43	0.07579472
176	0xbe339039	-0.17535485
177	0xbd95a3f1	-0.0730666
178	0x3e94c9b2	0.2906013
179	0xbd0899ab	-0.033349674
180	0xbe03c196	-0.12866816
181	0x3efaffee	0.49023384
182	0xbf1176e1	-0.5682202
183	0x3e8fa0a5	0.2805225
184	0xbdc57338	-0.09641117
185	0x3e269d44	0.1627093
186	0x3e7c8a67	0.24662171
187	0x3df0c00f	0.11755382
188	0xbe31f213	-0.173775
189	0xbf1aa1e6	-0.6040329
190	0x3edca346	0.43093318
191	0xbe5a3c6a	-0.21312109
192	0xbd619603	-0.055074703
193	0xbea926a4	-0.33037293
194	0x3e418853	0.1889966
195	0x3da283c7	0.07935291
196	0x3ecb15eb	0.3966516
197	0xbe858fd4	-0.26086295
198	0x3b823b67	0.0039743665
199	0xbea9f8b9	-0.33197573
200	0x3da0ab22	0.07845141
201	0xbd6fda86	-0.05855801
202	0x3e6f4f43	0.2337008
203	0xbe93fe9e	-0.28905195
204	0x3e082550	0.13295484
205	0xbe3cab09	-0.1842462
206	0x3d41ca23	0.047311913
207	0x3dcf821b	0.101322375
208	0xbe9c2c74	-0.30502665
209	0xbe4b0aec	-0.19828385
210	0xbe3813db	-0.17976324
211	0xbd9c9529	-0.076456375
212	0xbde7e197	-0.11322325
213	0x3dab90ba	0.08377214
214	0x3e432ab7	0.19059263
215	0xbe1ed3aa	-0.15510431
216	0xbdf513c2	-0.11966659
217	0xbd3bd480	-0.045856953
218	0x3e3da8ca	0.18521419
219	0x3e8dbb46	0.2768194
220	0x3ce0e99e	0.027455147
221	0x3d2bff8e	0.041991763
222	0x3d0d5f0b	0.03451447
223	0x3e1e2dc3	0.15447144
224	0x3e468c04	0.19389349
225	0x3c894d96	0.016760629
226	0xbe8c99bb	-0.27461037
227	0x3c8bc6f3	0.01706264
228	0x3ea5bb8a	0.32369643
229	0x3df3c041	0.11901904
230	0xbe85a2b4	-0.26100695
231	0x3db7cac9	0.08974225
232	0xbdd50aa6	-0.10402422
233	0x3c30d88a	0.010793814
234	0xbcc5120c	-0.024056457
235	0xbe900af6	-0.28133363
236	0xbd3edab7	-0.0465953
237	0xbe4deb81	-0.20109369
238	0x3d9d9f59	0.07696409
239	0xbd39f33e	-0.04539799
240	0xbdfb5374	-0.12271777
241	0xbd304e3a	-0.043043353
242	0x3e443985	0.19162567
243	0xbe37be5d	-0.17943712
244	0x3d797c09	0.060909305
245	0x3ef6a4ca	0.481726
246	0xbe5ecc89	-0.21757711
247	0x3ec60469	0.3867524
248	0xbea03c67	-0.31296083
249	0x3e3982c2	0.18116286
250	0x3eb279a6	0.34858435
251	0xbe4151a8	-0.18878806
252	0xbe458e7d	-0.19292636
253	0xbe6d6275	-0.2318209
254	0x3ead37b9	0.33831576
255	0xbec68b48	-0.38778138

weight f4 [1, 128]
0	0xbeb846ff	-0.35991666
1	0xbedeb76d	-0.43499318
2	0x3ec90e1e	0.39268583
3	0x3e604f31	0.21905209
4	0x3eaba1f8	0.3352201
5	0x3da127a3	0.07868888
6	0xbf2b463e	-0.66904056
7	0x3f641344	0.89091897
8	0xbedf1245	-0.43568626
9	0x3f21d387	0.6321339
10	0x3eec2bbf	0.46127126
11	0x3f0c3c1f	0.5477924
12	0x3f1de996	0.6168455
13	0xbe5dcec5	-0.21660908
14	0x3f1238be	0.5711783
15	0x3f075be6	0.528746
16	0xbed76407	-0.42068502
17	0xbf1e5cc9	-0.6186033
18	0xbe4e7b15	-0.2016414
19	0xbef916e2	-0.4865027
20	0xbe05f888	-0.13083088
21	0x3ef4a274	0.47780192
22	0x3eac7922	0.33686167
23	0x3e302aa9	0.17203774
24	0xbf6965d4	-0.91171
25	0xbf25b397	-0.6472716
26	0x3f4ee021	0.80810744
27	0x3c9cc9cb	0.019139191
28	0x3f5813be	0.84405124
29	0x3eba4da1	0.3638735
30	0xbed9f48d	-0.4256939
31	0xbeee62cd	-0.46559754
32	0xbeb62c5a	-0.35580713
33	0x3edb8334	0.42873538
34	0xbecb7058	-0.3973415
35	0x3ecfd3ff	0.40591428
36	0xbe321995	-0.17392571
37	0xbe7719b4	-0.24130899
38	0xbf20ca59	-0.6280876
39	0xbe2d78d1	-0.16940619
40	0x3f56c35e	0.83891857
41	0xbecd15ba	-0.4005564
42	0xbe19f0fe	-0.15033337
43	0xbf06dcb0	-0.5268049
44	0x3eb25d42	0.34836775
45	0xbf04e324	-0.5190909
46	0x3f033c62	0.5126401
47	0xbf6cd722	-0.92515767
48	0xbed370e5	-0.4129707
49	0x3f149ea0	0.5805454
50	0xbd16460e	-0.036687903
51	0xbea6273e	-0.32451814
52	0x3e2c36dd	0.16817804
53	0xbea4e6f4	-0.32207453
54	0x3ebb3413	0.36563167
55	0x3f0299c9	0.5101591
56	0x3e8fb39d	0.28066722
57	0xbeb60bb0	-0.35555792
58	0xbf30e902	-0.6910554
59	0xbec3ed81	-0.3826714
60	0x3f57a16a	0.84230673
61	0x3f1f0054	0.62109876
62	0x3f49718e	0.78688896
63	0xbeb1f580	-0.34757614
64	0xbe50b5d1	-0.20381857
65	0xbe270260	-0.163095
66	0x3e13142f	0.14363168
67	0x3e16fb72	0.14744356
68	0x3e349841	0.17636205
69	0xbefedd1e	-0.49778074
70	0x3e7ff1aa	0.24994531
71	0xbeae67e1	-0.34063628
72	0xbe383c43	-0.17991738
73	0xbd1394cd	-0.03603058
74	0x3d05106f	0.032486375
75	0x3e0a7f56	0.13525137
76	0xbe6bed23	-0.23039679
77	0xbdd00958	-0.10158032
78	0x3d294fa8	0.04133573
79	0x3d20669b	0.039160352
80	0xbe1ea035	-0.15490802
81	0xbda5e280	-0.08099842
82	0xbe347467	-0.17622529
83	0x3edd33c9	0.4320357
84	0xbe98602a	-0.29760867
85	0x3db730c7	0.089448504
86	0x3e033bb6	0.12815747
87	0x3e8f5e25	0.28001514
88	0xbc8732d8	-0.016503736
89	0xbe344870	-0.17605758
90	0xbebdff0a	-0.37108642
91	0x3eb81620	0.3595438
92	0xbd2dc5c1	-0.04242492
93	0x3e5f9af8	0.2183646
94	0x3ebf4d8c	0.3736385
95	0x3d00e404	0.031467453
96	0xbe4c6f98	-0.19964445
97	0x3dab9b4e	0.083792314
98	0x3d7d4514	0.061833456
99	0x3dcf12ce	0.101110086
100	0xbe290780	-0.16506767
101	0xbeb821da	-0.35963327
102	0x3e0d1d39	0.13780679
103	0xbe51c1d1	-0.20484091
104	0xbd9a60b8	-0.07537979
105	0xbd2f265c	-0.04276119
106	0xbe21a9d0	-0.15787435
107	0xbdc77290	-0.09738648
108	0x3cd7c71f	0.026340066
109	0xbe253cb6	-0.1613644
110	0x3dfeaee0	0.124356985
111	0x3e125293	0.14289312
112	0xbd8e136e	-0.069373
113	0x3e9b49e8	0.30329823
114	0xbea09e38	-0.3137071
115	0xbe4692d0	-0.19391942
116	0xbeb7f45d	-0.35928622
117	0xbd5b0748	-0.05347374
118	0xbebe188c	-0.37128103
119	0x3d90b728	0.07066184
120	0x3ddaa10a	0.10675247
121	0xbb9864a2	-0.0046506682
122	0x3e95f02f	0.29284808
123	0xbe5dc686	-0.21657762
124	0x3db39cf6	0.08770172
125	0x3cc8c2d4	0.024506964
126	0x3d6e2a6a	0.058145918
127	0xbe349c64	-0.17637783
