models/ESOL_betaModel.pth (torch, 200940 bytes, 18 tensors)

bias f4 [64]
00000000: 7f8f 1f3d 2b54 a8bd bdbe 203c 276a 09bd
00000010: 0a7a d63b cfd9 c0bc a31d f73d 5354 62bc
00000020: b5fd 383c 1541 713d f8a0 8cbd 85cc cd3d
00000030: 12ff 513d 7825 2c3d e895 47be c8bd b93b
00000040: 3e9d cd3d c517 0abe d20b 9b3c 0ef6 c7bd
00000050: 15ca 9bbd 13d9 8a3d 6914 363c 0507 23bd
00000060: 075d 893d 9165 47bc 0a96 2a3c e785 913d
00000070: dd46 0d3d 1164 aabd 1311 e4bd 14e0 813c
00000080: 8f28 173d 533a 0f3d 5cfc b2bd 4b7e 1b3d
00000090: d735 373d 71a2 7cbd bc3a 47bd a659 0a3e
000000a0: 833a 7ebc a92e dfbc e6ce 49bd f9b6 a2bc
000000b0: 5faf 483b 847a 7dbc fe95 2c3d 3bba d2bd
000000c0: 4f75 85bc 7d82 c2bd aedf 103e d4ce 2e3d
000000d0: 80f7 973d df97 a63c 1dc1 cc3d 92e0 30bc
000000e0: 170a 293e bb4d 8fbc 73c1 123e 236e 5d3d
000000f0: 1ee3 113b 68f9 c83d ef82 7fbc 9332 debc
0.038955208 -0.08219179 0.009811101 -0.0335485 0.00654531 -0.02354136 0.120662 -0.01381405
0.011290957 0.058899958 -0.0686664 0.10048775 0.051268645 0.04202792 -0.19490778 0.0056683756
0.10039757 -0.1348563 0.018926535 -0.09763728 -0.076069035 0.06779685 0.011113265 -0.039801616
0.06707197 -0.012170211 0.010411749 0.07105618 0.03449141 -0.083198674 -0.11136069 0.01585392
0.036903914 0.03496773 -0.0873954 0.03796224 0.04472908 -0.061678354 -0.048639998 0.1351076
-0.01551688 -0.027243929 -0.04926958 -0.019862639 0.0030622107 -0.0154711045 0.04213523 -0.10289427
-0.016291289 -0.09497545 0.14147827 0.042677715 0.07420254 0.02033609 0.09997771 -0.010795729
0.16507755 -0.01749312 0.14331608 0.054060113 0.0022260617 0.098131955 -0.015595182 -0.027123725

weight f4 [64, 9]
00000000: d617 29be 14f2 3c3e 52f6 16be 973f 533e
00000010: 5c51 74be 8ef4 abbd f16e 87be e843 393d
00000020: 919b 063e 5ec1 303c 4f7a 903e 7aad bd3d
00000030: 567e 6dbc b4c2 02be c44e ffbd 751d df3d
00000040: d565 b9bd ad21 f9bd bf47 ad3d 7690 6e3e
00000050: 9b4d 24be bc09 5ab9 5e46 95bd 00f8 e0ba
00000060: 47f2 b1bd fe43 133d 88e5 4d3e 1553 1c3d
00000070: 2816 843d 6962 8fbe 278d 683e 8f6c 4d3e
00000080: 7a64 29be 1d63 71be 8e7f 4c3e 13d2 423d
00000090: e535 c0bd 08d6 b83d 44cc 3ebe 3906 2a3e
000000a0: 061e 92be 5a10 7b3e adb1 023e 37c0 0f3d
000000b0: 6c04 b33e f3ed 4dbe cc5c 1b3e 7fbf 893e
000000c0: e042 2c3e 6a5d 7dbe 1a89 7b3e 143c 88be
000000d0: 32f4 7b3e 9d75 9f3e 7e67 d7bd c064 d43b
000000e0: f84b 36bd b218 18be b38c 6a3a 9ebf 5d3e
000000f0: 7e13 ab3e 6a33 c53d 7bd9 33be 9f7c 9a3e
00000100: 90fe 97bc 559f d3bc 39e8 043e 29b2 a4bd
00000110: ce51 643e 90c5 03be 04fd 14be c7b1 7fbc
00000120: c32b d2bc a00e 2b3c f92a 86be 2e3d 953e
00000130: 4d11 923e 009b 3d3e 99f2 16be 8d3d 73be
00000140: ee94 48be 9cb1 46be e911 32be 4862 fa3d
00000150: ce85 f73d 88de 933e 803b 35bd 1d78 403e
00000160: 57fb b33d 845d a0bd 6ea6 0f3e 4489 c33d
00000170: fd21 733e d0c5 9dbe 2cde 90bd ec7d e4bd
00000180: 4d02 e93d 1ff3 b6be 30a3 513e f739 b8bd
00000190: ce89 85be b65c df3d 16fc 47bd 8ee8 8abe
000001a0: 40d5 043c dd00 17be f659 1abe db85 be3d
000001b0: 0143 c2bd 8ae2 9dbd 8065 56be ff59 743c
000001c0: 66ef d13d 80a4 b13c 0e33 a13e af6b 3ebe
000001d0: df3e 083e e466 68be 9074 40be f844 a5bd
000001e0: b8cb a53d c836 8abe be7a 28be 70d3 9ebd
000001f0: fdab 423e 43c6 36be 1f17 953d 803e 09bb
00000200: e7e6 413d d3f0 ae3d 4a11 d0bd ccfa 47be
00000210: 6bba 2a3d 7f88 cfbd 4555 c93d 7e69 b2bd
00000220: 84ff 18bd 725d d5bd 4862 1f3d 7da3 993e
00000230: 154c 903e c20d 803e 4daf a83d 06de bfbe
00000240: fa28 a3bd 993d 31be 768a cdbd c111 dbbb
00000250: 5009 70bb 6014 fc3c 37e5 b03d 74ee 713d
00000260: 4cd9 6c3e d986 753b d471 1d3e 2a1f 503e
00000270: 7bb7 253e 2d6e 9dbc abfb 8fbe 3406 59be
00000280: ad29 c0bd bb97 b8be 434f eabd 8433 023e
00000290: 22ec 4f3e 4072 a23c 703a d2bd 2af7 2fbe
000002a0: ed18 f63d 960d a2bd f2c7 5cbe 9fa1 afbb
000002b0: 3a7d 33be d135 b1bd 5699 603e 4f87 63be
000002c0: 705a e23d 9bf7 d0bd 12a4 383e 9cd8 5bbe
000002d0: a84b 423d d0e2 3d3d c192 89ba ab2f 20be
000002e0: e849 303e 0457 163e 7b36 a83d 4e98 223e
000002f0: db87 d33d 52b2 78be 4467 423e cde1 5ebd
00000300: 148f 023e 7b3b 8b3e 0c8e 0f3e 96a0 eabc
00000310: 1173 b23e 585f b13e cd4b 06be 239b 2bbe
00000320: 0a48 3d3e 5df6 6dbe af2b 953e 2c1f 72be
00000330: 74d5 6d3e 9b1f 3b3e 50b3 6c3c 0168 943e
00000340: 6024 5bbe 3a6c 283e 5044 babd a409 ecbd
00000350: 0ef4 433e 1b15 f03d 9bb4 32bb c51b 4f3e
00000360: 4d94 69be c1b5 8e3e 8a6f ab3e 1c4f 40be
00000370: 981a f8bd 7efa 84be 2bb5 8f3e 61d8 003e
00000380: afb6 0cbe ed45 3b3d 1428 51bd cd57 a9bd
00000390: 617b 58be a402 db3d 96ca 733e 8f4e 9a3e
000003a0: 77a6 373d 68b7 9ebe 01c8 f1bc 82fc 013e
000003b0: 295b 593e 354f c3bd 8f6a 91be 2f30 833e
000003c0: 13a9 d1bd 4500 a4bd 794d db3c d1db 5cbd
000003d0: b65b 92be 7e76 073e fe43 eabd 9e4e d73e
000003e0: 9056 2b3d 6593 47be fa35 6d3e afc5 6a3c
000003f0: 8a57 203e ec0d 62be eb89 313c 27ee 1fbe
-0.16512999 0.1845172 -0.14742401 0.20629726 -0.23859161 -0.083962545 -0.2645183 0.045230776
0.13145281 0.01078829 0.28218314 0.09261604 -0.014495453 -0.12769586 -0.12466195 0.1089429
-0.09052626 -0.12164626 0.0846095 0.23297295 -0.16045229 -0.00020793726 -0.07288812 -0.0017163754
-0.08688789 0.035953514 0.2010709 0.03816517 0.064495385 -0.28004768 0.22710095 0.20060943
-0.16542235 -0.23572965 0.19970533 0.047563624 -0.093852796 0.09025198 -0.18632609 0.16603936
-0.2853853 0.24517956 0.1276309 0.03509542 0.3496431 -0.20110302 0.15172118 0.26903912
0.16822386 -0.24742666 0.24564019 -0.26608336 0.24604872 0.3114442 -0.105177864 0.006481737
-0.044506043 -0.1485317 0.00089473574 0.21655127 0.3341331 0.09628947 -0.17563431 0.30173203
-0.018554002 -0.025832811 0.12979211 -0.08041794 0.22296831 -0.12868333 -0.14549643 -0.01560635
-0.025655633 0.010440499 -0.2620466 0.2914824 0.28528824 0.18516159 -0.14740981 -0.23753949
-0.19588062 -0.1940369 -0.17389645 0.12225777 0.12086068 0.28880715 -0.044246197 0.1879582
0.08788174 -0.07830337 0.14028332 0.09547666 0.23743434 -0.3081498 -0.07073626 -0.1115683
0.11377392 -0.35732362 0.20472407 -0.08995431 -0.260817 0.10906355 -0.048824392 -0.2713055
0.008107483 -0.14746423 -0.1507338 0.09302875 -0.09485436 -0.077092245 -0.20937157 0.014914035
0.1025074 0.021684885 0.31484264 -0.18595766 0.13305233 -0.226955 -0.18794465 -0.08069795
0.08095497 -0.2699492 -0.16453072 -0.07755172 0.19010921 -0.17849068 0.072798006 -0.0020941794
0.047339346 0.08542027 -0.101595476 -0.19529265 0.04168169 -0.101334564 0.09830717 -0.08711527
-0.037353054 -0.10418214 0.038912088 0.30007544 0.28183046 0.25010496 0.08236561 -0.37474078
-0.079668 -0.17308654 -0.10036175 -0.006685466 -0.0036626644 0.030771434 0.08637469 0.059065297
0.23129767 0.0037464409 0.15375453 0.20324388 0.16183273 -0.019217575 -0.28121695 -0.21193773
-0.09382949 -0.3605326 -0.11440899 0.12714964 0.20304921 0.01982987 -0.10265052 -0.1718413
0.12016473 -0.079127476 -0.21560648 -0.005359843 -0.17528239 -0.08652843 0.21933493 -0.22219585
0.11052406 -0.10203477 0.18031338 -0.21469349 0.047435433 0.046358883 -0.0010496007 -0.15643184
0.17215693 0.14681631 0.08213516 0.15878412 0.10328647 -0.24286774 0.18984705 -0.05441456
0.12749892 0.27193817 0.1401903 -0.028641026 0.34853414 0.34643054 -0.13114853 -0.16758399
0.18484512 -0.23238511 0.2913489 -0.23644704 0.23225957 0.18273775 0.014447048 0.289856
-0.21400595 0.16447535 -0.09095061 -0.11525276 0.19136068 0.117227755 -0.0027268294 0.20225437
-0.22810479 0.27873042 0.33483535 -0.18780178 -0.12114447 -0.2597236 0.28067908 0.12582542
-0.13741563 0.045720983 -0.051063612 -0.082687 -0.21140815 0.10693863 0.23807749 0.3013806
0.044836488 -0.30999303 -0.029514315 0.1269398 0.21226181 -0.09536592 -0.2840161 0.256227
-0.102373265 -0.08007864 0.02677034 -0.05392057 -0.28585595 0.13228795 -0.1143875 0.42052168
0.0418306 -0.1948982 0.23165122 0.014329358 0.15658394 -0.22075623 0.010836105 -0.15618192

att f4 [1, 4, 64]
00000000: 6268 89be 7297 9dbe cd94 273f 8d03 5dbd
00000010: ee2b 3dbe f81c d33e 3850 41be bdfe 183f
00000020: 33da 2bbd 122d 50be bfaf 47bc 42d0 b8be
00000030: 2dcd 9cbe 0553 36be 1f19 e5be 4184 b33e
00000040: 5131 b53e 8758 92be f465 8abe 2e9b e8be
00000050: 22b4 9cbe b1a5 213e c4f9 45be 1191 5ebe
00000060: 3bbb 61be ff50 063e 41a0 a23e 504d a1be
00000070: deae cfbe 5005 7dbe 457c d03e 47c9 f5bd
00000080: 6459 93bd 2a79 05bd 9397 cabd bb4f 57be
00000090: f0f1 d33d 13b0 8cbe 56b2 f33b 160b e13e
000000a0: 3a8c f0be 0a44 87be 4cd9 0ebf 15bb 7dbd
000000b0: fdab 30bf b7c3 62be 7aee 933e 15c4 053e
000000c0: 547c d93e c7c2 a3be 034c 503f 4cd2 b1bd
000000d0: 5a49 0abe 5502 343f f95d c0be eb03 1bbe
000000e0: 364b 71be a1d3 113e d11b b0be be15 94be
000000f0: 3b8a 313f 92f7 2fbd 7eb2 aebd 4873 36bc
00000100: 2503 f2be 49cb c63e deb6 c63e 78e8 25bf
00000110: 3ddb 60bc 0886 e63e 5568 0b3e e711 943f
00000120: 7252 8d3b 0b95 cc3d f55b 0abe a390 03bf
00000130: 8ecb 9ebe 8bf4 d73e 4fd7 39be 6757 36be
00000140: a24a c6bd f205 0cbf 28e4 0b3f 8ea2 92be
00000150: 9f41 efbd d348 c7bd ead3 9a3d 69d4 a23e
00000160: 12d9 d1bd d38d 723e f2d3 3f3f 5938 143f
00000170: 01d8 92be 5cd9 59be 003b 303f 78d5 87be
00000180: e97c e5bd d56a 073f 038c e2be 93f4 b63e
00000190: fc1d 3e3e 5c8b 8cbd 80ed 64be 3324 d1be
000001a0: 4ed0 82be 7c29 97be bbd7 d6be a92f 2d3f
000001b0: 11d4 45be f128 d8be f868 693e e833 a13d
000001c0: e27e 6abe d148 3cbf 1f33 6338 7f28 593f
000001d0: 650d 39be 111b 83bd 34d0 aebd 9627 25be
000001e0: f5b3 c7bd 5b75 90bc 8c93 6c3e 017e 333e
000001f0: 0533 abbd 9f70 0dbe e5cf 243f 577c 1d3f
00000200: e636 893d 8b15 813e 6e40 d93c 3301 943e
00000210: 4590 d8be 4777 ae3e 94e7 4bbe 4378 d43e
00000220: c3b6 053f b09b ccbe ba19 793f dd17 d53e
00000230: 0de3 0cbf ae06 e0be e678 47be af2f 03bd
00000240: b414 e0be 6630 dcbe 46c9 38bf d6cb 803e
00000250: ef8a cc3e 172b bf3e 87f9 5cbf cf52 afbe
00000260: 7193 43be 1472 1c3f 790b ac3e eb44 3f3e
00000270: 3c38 7bbf 34da 033f b74b e73e 297c 15bf
00000280: c695 e9bd 91fc 4d3e 8837 b53e 0ad1 1ebe
00000290: 54f7 f3be be85 5dbf 3d59 05be b499 84be
000002a0: c9a8 d83e c681 1f3f 07b0 80be 946d 3ebe
000002b0: f528 503f 948e 103f fed2 fb3d 9ac7 01be
000002c0: 11b0 493e b0c9 12bf 7108 35bf 4bbd 27be
000002d0: ac78 06bf 766b ec3d ab95 1abf 6f11 b63d
000002e0: dab8 abbe 9be6 913e 4668 adbe 96f1 f73e
000002f0: c1d7 d7be 7c9c cb3e b381 4bbf c95f c0bd
00000300: f80c 12be fbc5 ae3e 001d a5be e5ab d7bd
00000310: 3f59 29bf 492a 833e 87bf 9d3e 48f2 f13e
00000320: 7474 5d3d d894 e2be 6fff 29bf 4b2b 873e
00000330: 9c73 81bd 3d1c a53e 5f07 3cbd e6a1 b8bd
00000340: 7f5c a5be 7ef4 22bf 4f38 403d 8c6b 773e
00000350: 3c71 cdbe fdf4 94be a04d b0be 148f 883e
00000360: ada1 5abe 8171 0cbf ea0e c2be 954d e8be
00000370: cd58 02bf 62f8 f7be a13e 49be 8ee9 30bf
00000380: 479d 403e 935b 8bbe 0be7 64bf b34d fdbe
00000390: 84f8 833e 7619 35bf 7225 ea3d fd24 c1bc
000003a0: 6003 ab3e e973 8fbe 7dab 05bf b512 9fbe
000003b0: f32d e23e da3e 1ebf 4072 3c3f 1f14 ddbd
000003c0: 05ef a2be 37ea 193f 18dc c4bd 5510 993e
000003d0: a6ec 00be e561 67bf a9be 163d c27c 543e
000003e0: 6f51 a13e abcf bb3e bb50 6fbe c307 eebd
000003f0: 55bd 713e a2d9 cbbe 1ae7 4dbe e06d 6cbe
-0.2683745 -0.30779606 0.65461427 -0.053958464 -0.18473789 0.4123304 -0.18878257 0.597637
-0.041956138 -0.20329693 -0.012187897 -0.36096388 -0.30625287 -0.17805107 -0.44745728 0.3506184
0.35389188 -0.28583166 -0.2703091 -0.45430893 -0.3060618 0.15785863 -0.1933356 -0.21735026
-0.22044079 0.13116835 0.3176289 -0.31504297 -0.405631 -0.24709058 0.4071981 -0.12001281
-0.07194784 -0.032586254 -0.09892192 -0.21026509 0.1034888 -0.27478084 0.007437031 0.4395377
-0.46981984 -0.26419097 -0.5580032 -0.061945993 -0.69012433 -0.22144972 0.2889288 0.1306308
0.42477667 -0.3198454 0.81365985 -0.08682689 -0.13504544 0.7031606 -0.37571695 -0.15138213
-0.23563847 0.14240886 -0.34396222 -0.28922838 0.6935155 -0.04296071 -0.085301384 -0.011135884
-0.47268024 0.3882697 0.38811392 -0.64807844 -0.0137241455 0.45024133 0.13614018 1.1567963
0.0043128068 0.09989365 -0.13511641 -0.51392573 -0.31014675 0.4217876 -0.1814854 -0.17806779
-0.09682204 -0.5469657 0.54645014 -0.28639644 -0.11682438 -0.09730687 0.07559951 0.3180268
-0.10246481 0.23686914 0.7493278 0.5789848 -0.28680423 -0.21274322 0.68840027 -0.2653005
-0.11205465 0.5289739 -0.44247445 0.3573347 0.18566126 -0.06862518 -0.22356224 -0.4084793
-0.2554955 -0.29523838 -0.41961464 0.6765085 -0.19319178 -0.42218736 0.22793949 0.078712285
-0.22899964 -0.7354861 5.4168628e-05 0.8482742 -0.18071516 -0.06401647 -0.08535805 -0.16128382
-0.09751121 -0.017634084 0.2310316 0.17528535 -0.083593406 -0.13812493 0.6437972 0.6151785
0.06699924 0.25211748 0.02651998 0.28907165 -0.4229757 0.34075376 -0.19912559 0.41498002
0.52232 -0.3996253 0.9730488 0.4161977 -0.5503395 -0.43755096 -0.19479713 -0.032027896
-0.43765795 -0.43005675 -0.7218212 0.25155514 0.39949748 0.37337562 -0.8631825 -0.34242865
-0.19099213 0.6111157 0.33602503 0.18678634 -0.9813268 0.51504827 0.45174953 -0.5839258
-0.1140552 0.20115878 0.3539393 -0.1550943 -0.47649634 -0.865322 -0.13022323 -0.25898516
0.42316273 0.62307394 -0.25134298 -0.18596488 0.81312495 0.56467557 0.12296103 -0.12673798
0.1969607 -0.57339 -0.70716006 -0.16380803 -0.5252788 0.11543934 -0.60384625 0.08890044
-0.33539468 0.2849625 -0.33868617 0.48426503 -0.42156795 0.39767826 -0.7949478 -0.093932696
-0.1426276 0.34135422 -0.32248688 -0.10530833 -0.66151804 0.256182 0.30810186 0.47255158
0.054066136 -0.44254184 -0.66405386 0.26400217 -0.06320879 0.32248107 -0.045905467 -0.09015255
-0.3229713 -0.63654315 0.0469287 0.2416212 -0.40125453 -0.2909316 -0.34434223 0.2667166
-0.21350737 -0.54860693 -0.37902004 -0.4537169 -0.5091675 -0.4843169 -0.19652797 -0.69106376
0.18809997 -0.27218303 -0.89415044 -0.49473342 0.2577554 -0.70741975 0.114329234 -0.023577208
0.33401012 -0.2801812 -0.52214795 -0.3106896 0.4417568 -0.61814654 0.7361183 -0.107948534
-0.31822982 0.6012301 -0.09612292 0.29895273 -0.12590274 -0.9038375 0.03680292 0.20750716
0.3150744 0.36681876 -0.2337064 -0.11622574 0.2360738 -0.39814478 -0.2010769 -0.23088789

bias f4 [64]
00000000: 0700 a23c 55a2 e6bc 0027 003e 0fcb 5fbc
00000010: 220e 863d 1044 db3c a625 7ebd 29c7 033e
00000020: 5e16 833d 5184 43be 9901 903d d856 b8bd
00000030: 2f47 2dbe 4f31 8b3d c4e2 0dbe ea5a c23d
00000040: 9f8a 893d e5b1 663d 63d3 a8bd dccf 90bd
00000050: ac27 1f3e 27d3 29be ceaf dd3d 509e 00be
00000060: 2293 93bd c82e 0d3e 54a4 58be 7260 c13d
00000070: e669 c4bd 8cb7 c0bd b6b1 10bd 6476 87bc
00000080: d15a b5bb aa64 83bd 3058 a53d 4995 2a3c
00000090: d9d6 bebd cc87 a5bd cfd4 c7bd 355a 703d
000000a0: 247f cdbc b452 fb3d 62ac 12be 7daf bfbc
000000b0: 09c7 d93d 594f 123e 84e9 b13c 2d46 29be
000000c0: f3c6 ff3c 4094 3d3d e8fe 053d 4f52 323d
000000d0: f9fd d8bc 7430 36be 14db 483d 8ad1 4f3c
000000e0: cdae 263e b644 a7bd 0c08 cebd 5684 cfbe
000000f0: 32c3 a23d 6c8d cf3c ab13 f1bd 6c57 363d
0.019775404 -0.028153578 0.12514877 -0.013659253 0.06545664 0.026765853 -0.062047623 0.12868942
0.064007506 -0.19093443 0.07031555 -0.09000939 -0.16921686 0.06796514 -0.13856035 0.09489997
0.06715893 0.056321997 -0.08243444 -0.07070896 0.15542477 -0.16584454 0.10824548 -0.12560391
-0.07205798 0.13787377 -0.21156436 0.094422236 -0.09590511 -0.09410009 -0.03532573 -0.016535945
-0.005534508 -0.064156845 0.08073461 0.010411569 -0.09318323 -0.08082542 -0.09757387 0.058679778
-0.02508504 0.12271634 -0.14323571 -0.023399109 0.10633666 0.14288081 0.021717794 -0.16530676
0.031222796 0.04628396 0.0327138 0.043535527 -0.026488291 -0.17791921 0.049037054 0.012684235
0.16277619 -0.081674024 -0.100601286 -0.40530652 0.07947387 0.02533599 -0.117713295 0.044516966

weight f4 [256, 64]
00000000: 924c 123c fcfd ae3d f592 b13d b644 903d
00000010: d095 16bd 3539 833c 2d1e 0b3e cf67 1a3e
00000020: 802f 80be dc92 05bd cb81 123c 32fc 493b
00000030: fed3 4cbe 2526 58bd a8cf eebd 681f aabd
00000040: c8ed 173e eac4 debd e8e8 2e3d b89d 3ebd
00000050: ccb8 fd3d 3f90 7e3c 02b1 9ebd 07d6 1f3e
00000060: 7401 52bd 49e0 c53d b9b3 173e 1991 183e
00000070: 2872 e6bd c24c 2dbe 68b4 acbc 2e4f cbbd
00000080: 59fa 7fbd c613 f8bd c2e2 273b f74d 0fbc
00000090: 2819 5fbe bb18 82bd e67b 0a3e f31f 963c
000000a0: 737e 16ba 5253 8b3d 4b57 afbc fe02 22be
000000b0: 8456 aa3c 6dd8 aabc 3f75 0abd 53d3 38bd
000000c0: 0ab0 1dbd e2b3 133e 3fdb c63c 244c 8dbc
000000d0: 52fa d3bd 4659 023d da28 08be 441a debd
000000e0: 78fa 813d cd47 b5bc bb7f 2b3d 5280 6b3d
000000f0: 10dd 8c3d 7ffb 663c 9c5a e2bd 6987 9e3d
00000100: 7a4e 5cbd b5f0 3f3d ddf4 683c a33c 02bd
00000110: 1a52 21bd f42e d5bd 6258 c6bd d277 733c
00000120: 15eb b1bd ea0e 33bc 1902 87bc 6e10 6d3d
00000130: 3669 26bd b48a da3b 4e97 46bd cd0f 583d
00000140: 3656 993c 3515 c0bc 0d0c a4bd 4826 a83c
00000150: 9515 233e 24e7 5d3c 6bcc d9bc b803 ccbd
00000160: 369a f33d 6e39 7cbd 7dc0 9e3b 3483 7d3c
00000170: cc13 bbbd 1293 923d cea6 c13d 982a c7bd
00000180: 3cb7 10bd 1594 003e d955 d43d 8cd9 8b3d
00000190: d16d 19be 50cf 40bd c48b b9bd e7df 903d
000001a0: f72e c9b9 1475 aabd c852 ce3d 67ef 57bd
000001b0: e154 4a3d f7fe c1be 1b3c 3a3d 9d3b 0a3e
000001c0: 23f9 b03d 96c1 9d3c 297c bb3d 0b84 77bd
000001d0: 4ecd 1abc 7332 49be c188 91bc 13ef 5c3e
000001e0: 27f1 f2bb c792 ddbe 4621 0d3c 6420 80bd
000001f0: c358 03be 8d6a b73c 44a1 053d 792f 933d
00000200: 3a40 6f3c 5945 49bc b675 eb3d 998f 803e
00000210: e183 cabc a458 46be 4efb 663c d161 923d
00000220: 9de3 333e 1566 3f3d c5c7 92bc ed72 fabd
00000230: 02d7 1b3e a528 19bd c7ba 00be af1b 3ebd
00000240: 3363 5fbd 881c 06be a3ec 01bd 121a 06bd
00000250: 70d3 323e 36f9 68bd 3d7f 8dbc 5f6b c2bb
00000260: 0b19 f63c 5bdb 00be c78f d5bd e1fa fb3d
00000270: b7f4 883e 3bbe 4ebd 027c 70bd 7bd0 173e
00000280: 6c3b 4d3d f384 603e 8f2c ecbd b402 e43d
00000290: 1a4e c3bd 8074 283e a03a b2bc 9e62 9abd
000002a0: 3788 113e 801d a6bd d821 61bd b7f3 98bd
000002b0: 91e9 4d3d 2d54 b4bd 2d74 463e 44ec 8d3d
000002c0: 457d 253d e273 3cbd 90ce 33bd e126 96be
000002d0: 9989 06be 8ede 873b 4631 debd b756 e43d
000002e0: 45e1 483d 984d 26be 668d f9bd 2de5 c53d
000002f0: cc8e 143c ee42 943b 3e2d 9abc 88f5 b9bd
00000300: 3faf c53d e2bf 68bd c5a2 123d fbc3 b93c
00000310: 7efa 50be 64b4 293e 9be8 af3d ddb9 8b3c
00000320: 8f67 03be 818a 053e 6105 d33d 83e4 8ebd
00000330: 8074 bbbd 3524 b9bd 1dcb 84bd b2a7 05bd
00000340: 5211 7f3d 2d06 233d 61e5 c83d 46b3 89bd
00000350: e038 9abd be01 8abd 2052 c43c a2a5 44bc
00000360: d165 d53d 1289 a13d ef5c 67bd 495e 4abe
00000370: 3c40 92bd a80e 82bd 3cdd 13be 468c 2bbc
00000380: ba70 01be 5ae9 98bd b789 29bd 831c fd3d
00000390: 1a73 9dbb 85ad 18be 2681 cc3d 5cea f4bd
000003a0: 83c0 49be 5673 363d ed66 49bd cae4 203e
000003b0: cc5c a03b bd92 9ebc 3cd6 ef3d ac01 d6bc
000003c0: d1ae b3bd 1a2b ea3b 3ecc 92bd 1351 8a3b
000003d0: 58ea b3bb 6ff0 eebd 32ce e7bc 9920 cbbd
000003e0: 42aa 89bd b8be e9bb fcbd 97bc e1b2 8b3d
000003f0: d428 ba3d e3f6 f33c 799c 2b3d e7c9 ff3c
0.008929389 0.085445374 0.08670608 0.070443556 -0.036763966 0.01601849 0.1358573 0.15078662
-0.2503624 -0.03261076 0.008942078 0.0030820486 -0.20002744 -0.052770752 -0.11660701 -0.083067715
0.148368 -0.10877402 0.042702585 -0.04653713 0.12388763 0.015537321 -0.07748605 0.15608989
-0.051270917 0.096619196 0.14814653 0.148991 -0.11252242 -0.16923812 -0.021082118 -0.09927212
-0.06249461 -0.121131465 0.0025617336 -0.008746616 -0.2178694 -0.06352373 0.13523826 0.018325781
-0.00057408883 0.068030015 -0.02140393 -0.15821454 0.020793207 -0.020855153 -0.03380322 -0.04512341
-0.038497962 0.14424089 0.024274467 -0.01724822 -0.10350479 0.03182342 -0.13296834 -0.108448535
0.06346601 -0.022128964 0.04186986 0.057495423 0.06878102 0.014098047 -0.110524386 0.07740671
-0.05378578 0.046860415 0.014218536 -0.03179611 -0.03938494 -0.10409346 -0.096848264 0.01486011
-0.086874165 -0.010928849 -0.016480492 0.057876997 -0.04062768 0.0066693667 -0.04848414 0.052749444
0.018717866 -0.023447612 -0.08010111 0.020526066 0.15926202 0.013543878 -0.026586732 -0.09961647
0.11894648 -0.061578207 0.0048447237 0.015473176 -0.09134635 0.07156958 0.094556436 -0.09724921
-0.035330996 0.12556489 0.10367937 0.06828603 -0.14983298 -0.04707271 -0.09059861 0.07073956
-0.000383727 -0.08323112 0.10074383 -0.052718546 0.049397353 -0.37889835 0.045467477 0.13499303
0.08641269 0.019257348 0.09154541 -0.06042866 -0.0094483625 -0.19648151 -0.017765405 0.21575575
-0.0074140015 -0.43276045 0.00861389 -0.06256178 -0.12826829 0.022389675 0.032624498 0.07186789
0.014602715 -0.0122846 0.11497061 0.25109556 -0.024721088 -0.19369751 0.014098002 0.07147563
0.17567296 0.046728212 -0.017917523 -0.122289516 0.15218738 -0.037392277 -0.1257125 -0.04641312
-0.054537963 -0.13096821 -0.031719815 -0.032739706 0.1746347 -0.05687829 -0.017272586 -0.00593321
0.030041238 -0.12583677 -0.10427814 0.12303711 0.26749203 -0.050474387 -0.058712013 0.14825623
0.050105497 0.21925716 -0.115319364 0.11133328 -0.09536381 0.16450691 -0.02175647 -0.07538341
0.14212118 -0.081110954 -0.054963917 -0.0746836 0.050271574 -0.08805118 0.19380255 0.0692983
0.04040267 -0.046008952 -0.043898165 -0.29326537 -0.13138427 0.0041464036 -0.10849242 0.11149352
0.04904296 -0.16240537 -0.12185173 0.096628524 0.009067249 0.00452458 -0.018820401 -0.090800345
0.09652566 -0.05682362 0.03579976 0.022676459 -0.20408055 0.1657272 0.08589288 0.0170564
-0.12832473 0.13041116 0.1030376 -0.06977179 -0.0915308 -0.09040109 -0.06484053 -0.03263063
0.062272377 0.03980081 0.098093756 -0.06723647 -0.07530379 -0.067386135 0.023964942 -0.012002381
0.104198106 0.07887472 -0.056485113 -0.1976253 -0.07141158 -0.06350452 -0.14439863 -0.0104704555
-0.12640658 -0.07466383 -0.0413911 0.12358954 -0.004804981 -0.14909942 0.099855706 -0.11958763
-0.19702344 0.044543587 -0.049170423 0.15712276 0.0048938747 -0.01935708 0.11710784 -0.026123844
-0.08773578 0.0071462514 -0.07167862 0.0042210906 -0.0054905824 -0.11666953 -0.028296564 -0.09918327
-0.06721927 -0.007133331 -0.018523209 0.06821228 0.090898186 0.02978081 0.04189727 0.031224204

bias f4 [256]
00000000: 2cf4 133d 6b2a 583d d494 fe3d d5da c5bd
00000010: ff9e e1bc 854a 263d df4a 12be 35fb 373d
00000020: b9f2 203d d245 08bd d727 afbc 399e 1fbd
00000030: 9947 71bd ef43 eebc a45c d63d a7a6 8abd
00000040: d1b9 84bc 0961 ecbd a8da 4ebd 5483 ccbd
00000050: cd2d 893c e3b0 a63d 8d75 41bd a3c4 47bd
00000060: 0aa5 49bc 25ec 9dbd 94d2 d7bd a490 d73d
00000070: 1e21 18be 612b 7abd 1fb4 72bd f45b ef3d
00000080: d7ce 14bc 6e3f ad3d 156a 5abc bc65 32bb
00000090: b468 fd3c 860b 21bb d608 33bd e5c6 85bd
000000a0: ad13 bc3d 4028 123e 9be4 433d 6c37 f53b
000000b0: eb0c 1c3c 42d1 783d 140c 7c3d 76ae b23c
000000c0: 1880 5e3c 6177 793c 76d7 0fbe 7ca2 243e
000000d0: d5a3 50bd 34c3 093e 458c a8bd 9169 3c3d
000000e0: 3916 de3c 6a30 ff3b b406 ce3d ce95 10be
000000f0: d016 413c 1199 e83d b731 2a3d 987b b1bd
00000100: 5615 1cbd 99ee 93bd 8c69 40bd 9232 d93c
00000110: 566c 503d bc69 eabd b137 81b9 640c f0bd
00000120: 2817 003d 0b77 193d e8c0 ae3d a65d 0c3d
00000130: 24aa bd3c 4b34 8f3c 8601 dfbd 3398 1a3d
00000140: 9bc2 983c 23e6 2cbd 7c2b 6fbd 7909 abbb
00000150: 4c81 c23d 73eb 153d 62b4 d8b9 8830 983d
00000160: 02ff 8f3d 39f7 a83c d01d a03d 7ba2 c03d
00000170: ea21 a6bc a9cd 8ebd 6185 b53d 6e04 9a3d
00000180: f20a f2bc 33e7 a6bd 39bc e63c d7f4 ce3d
00000190: baf7 f2bd 76d0 c1bd 6aae ba3d 4cb7 c1bd
000001a0: ae5a a4bc d58d b8bd 8c5c 1aba ef68 cebd
000001b0: c7b5 2fbd 61d8 ba3d 01d6 2dbc 9bc1 703d
000001c0: 5f2c 04bd 87aa cb3c 5114 8dbd e755 66bd
000001d0: a532 e3bd 2dd6 d8bd 7315 7abd 526e 723d
000001e0: 0414 8bbd 43fe da3d 1777 b4bd 4179 70bd
000001f0: f05b de3c 0f20 103b 800d 82bc d24d 1abe
00000200: 2d68 1a3c 762a eebc a101 36bd f55b 9d3c
00000210: 3e12 b63d 618c 9dbd 7b78 29be 672f e0bd
00000220: 3076 eabd ec43 42bd 64c3 b7bd 5244 09bd
00000230: b1c5 653b 9966 933d 2d30 823d 397f b73d
00000240: fef8 b8bd 7bcb bdbd 70ba 7a3c de6a d5bd
00000250: becb 913d 6b89 56bd a4c3 173e 2dfe 4f3d
00000260: 7ec3 1ebe f8d2 37bd 18dd c2bd 89e2 cf3c
00000270: 9829 d7bd 8f6b c23d 18d1 c03c 1ade 813d
00000280: cd25 023e eaa7 54bd 7afe bdbb 7538 bc3d
00000290: 82f8 dfbd 9547 83bd 7e2f e4bd 33dd acbd
000002a0: c0c6 12be ebaf 2cbd 7107 0d3e df12 633d
000002b0: 31e9 b63d 9699 d6bc c5af febc db2c a4bd
000002c0: 7350 6fbd 5821 c8bc 8019 eb3d 7189 c0bd
000002d0: 05aa f2bd 034f f5bd 8643 1cbd e7bf b43c
000002e0: 58fe abbd 6af0 a23d 9e44 373d b85c 95be
000002f0: 2621 943d d24f 9abd 1fb4 d33c fe2a 04be
00000300: 7343 fa3d 04ed 473d 4adf 353d c571 723d
00000310: a61f 5bbd 05e3 9fbc 4905 cabd 4ada bfbd
00000320: 25a6 c43c 8edf 2fbd bc5e b73d 5446 8f3d
00000330: 4da7 6d3d b713 2ebb 1efe bdbc 0f37 973d
00000340: bde2 dabd 9340 91bd 0abc 4d3d 1c4e ccbd
00000350: 380c 773c b06b 083e 0bf9 033e c3cd e0bc
00000360: 2c4e 9cbd 78fe 0f3d 2444 343d 4a1e 1fbc
00000370: b0f5 f4bd 2361 c5bc 7184 28bd 9469 343c
00000380: 806c 693d f837 bb3a 6e5b ddbd 941b 5c3d
00000390: a94d bd3d de59 763d 1f7d c1bd 4d52 6ebc
000003a0: 65e1 8dbd 9697 df3c d9b8 19bd 7a38 ea3c
000003b0: 13fa a13d 8c66 d13d 8a51 503d fad6 9a3d
000003c0: 117d c73d 6aa9 823c 8705 9cbd 0b93 5fbc
000003d0: 0401 873d 425b 373d 2a61 50bd df4a bebd
000003e0: ce09 c9bd 3377 073d e91b 953d d119 20bd
000003f0: afd2 a5bc aac9 033e 6c8c 153e cf4f a3bd
0.036121532 0.052774828 0.124307305 -0.096608795 -0.027541636 0.04059841 -0.14286374 0.044917304
0.03929398 -0.03326971 -0.021381302 -0.038969252 -0.05890617 -0.029085128 0.104668885 -0.06770068
-0.016201885 -0.115419455 -0.050501496 -0.09985986 0.016745472 0.08139207 -0.047231246 -0.04877151
-0.012307415 -0.077110566 -0.105382115 0.10525635 -0.14856383 -0.061076526 -0.059253808 0.116874605
-0.009082518 0.08459364 -0.013330956 -0.0027221283 0.030933715 -0.002457352 -0.0437096 -0.06532077
0.0918344 0.14273167 0.047825437 0.0074834134 0.009524564 0.06074644 0.061534956 0.021811705
0.013580345 0.015226216 -0.14047036 0.16077608 -0.050937492 0.1345337 -0.08229879 0.045999113
0.027110206 0.007787754 0.10059872 -0.14119646 0.011785224 0.1135732 0.041551318 -0.08666152
-0.038106285 -0.07223243 -0.046975657 0.026513372 0.050884567 -0.114459485 -0.0002464629 -0.11721113
0.031272084 0.037467044 0.08532888 0.034268998 0.023152418 0.01748099 -0.108889624 0.037742805
0.018647483 -0.042211663 -0.05839108 -0.005219635 0.09497318 0.036601495 -0.00041333126 0.074311316
0.07031061 0.020625697 0.07818186 0.09405991 -0.020279843 -0.0697282 0.08863331 0.07520376
-0.029546235 -0.081495665 0.028165923 0.10105293 -0.11863656 -0.09463589 0.09115298 -0.09458789
-0.02006277 -0.09011427 -0.00058884243 -0.10078608 -0.042897966 0.09123302 -0.010610105 0.058778387
-0.032268878 0.024861587 -0.06888641 -0.056234267 -0.11093644 -0.10587726 -0.06105561 0.05918724
-0.06790927 0.10693028 -0.08811777 -0.058709387 0.027143449 0.0021991765 -0.015875578 -0.15068749
0.0094242515 -0.029072981 -0.044435147 0.019208888 0.08890198 -0.07692791 -0.16549866 -0.10946541
-0.11448324 -0.047428057 -0.08972815 -0.03351242 0.003506046 0.07197303 0.06356845 0.08959813
-0.090318665 -0.092673264 0.015303239 -0.10420774 0.07118939 -0.052377146 0.14820725 0.05077951
-0.15504262 -0.04487893 -0.095148265 0.025376575 -0.1050598 0.094931714 0.023537204 0.06341191
0.12709732 -0.051917948 -0.0057981582 0.09190456 -0.10936071 -0.064101376 -0.11141871 -0.08440628
-0.1433363 -0.042159956 0.1377237 0.05543792 0.089311965 -0.026196282 -0.031089673 -0.08016368
-0.05842633 -0.024429962 0.11479473 -0.09401215 -0.11848835 -0.11977961 -0.038150333 0.022064162
-0.083981216 0.079560116 0.044743173 -0.291723 0.07232885 -0.07534756 0.025842724 -0.12907025
0.12219896 0.04881002 0.0444024 0.05919053 -0.05349698 -0.019517431 -0.09864289 -0.09367807
0.024005005 -0.042937808 0.08953616 0.06995836 0.05802088 -0.0026562044 -0.023192462 0.073835485
-0.10687778 -0.07092395 0.050228156 -0.09975836 0.015078597 0.1332233 0.12887971 -0.027441865
-0.076320976 0.03515479 0.044010296 -0.009711811 -0.11960924 -0.02409417 -0.04114193 0.0110115
0.05698824 0.0014283648 -0.108084545 0.053737238 0.09243328 0.060144298 -0.09447693 -0.014545989
-0.06927756 0.027293961 -0.0375298 0.028591383 0.07909026 0.102246374 0.05085901 0.07560535
0.097406514 0.015949924 -0.07618242 -0.013645898 0.065919906 0.044764765 -0.050873913 -0.09291624
-0.09816323 0.03307266 0.07280714 -0.03908712 -0.020242063 0.12869897 0.14604348 -0.07974207

weight f4 [256, 64]
00000000: 4b79 a3bc 5eb9 23be e026 9b3d 6d2c adbd
00000010: 7c5b 2dbd 82e7 00be 4fc7 ff3d b937 ca3d
00000020: 0a35 f53c f74b 283d c075 d3bd 2829 413d
00000030: 361e 173e 1272 ad3d 70e1 19be f473 f03d
00000040: e7bb a63d 5b6f 64bc 0fcd 783d d13c 723c
00000050: ef30 35be e371 0d3e 7c86 86bc 1657 6dbd
00000060: 6768 38bd 9fce e73d a911 233e 7058 493d
00000070: 1b65 1cbe c2d5 debd e6ad 19be 6c27 a2bd
00000080: 2a4d 0f3d cbf9 913b 80d9 e6bd 0739 873d
00000090: 64a0 c03d 6571 d43d eb09 b0bd 616b e73d
000000a0: f0db b63c 2433 03be 41c3 06be fe13 a63d
000000b0: 3a10 fdbd d1d4 95bb b197 bdbd 4a3c dabc
000000c0: 3568 333e 2b9e fcbd 1c5a dd3a 927f f3bb
000000d0: 80cf c53d 11db 223e 34da 4e3d 918a 113e
000000e0: c1b0 85bc 9997 9d3d a811 0b3e bf5a 3dbe
000000f0: a2f9 ad3d 2751 4d3d 4b60 80bd eaa1 7cbc
00000100: ed8b 023e 0dcb 6b3c 37e9 18be 0e51 a7bd
00000110: c659 203e d035 183d 7fe2 d1bd fbb6 aabd
00000120: 4492 163d 811e 41bd 0760 ae3d 9c43 0f3e
00000130: b116 39bc da8a 3dbd 2f2c 843b c1a5 3c3d
00000140: cfa5 b7bd b44e 0a3e 9c47 d53c 0fb2 a53a
00000150: 3599 3dbe 5bf1 c6bb 823a 8ebb f5ae 24bd
00000160: 4c69 7c3d 1b31 193d cde6 7ebd c842 6b3d
00000170: 26e6 bcbc 6c57 0c3e 2895 73bd ba49 083e
00000180: ecfd b1bd d40b 0dbe d9f5 f9bd 8b9b e63c
00000190: 2c67 e33a 4485 423d 52b5 eb3d a070 093e
000001a0: 1510 733d 362e 4b3e e84c 1abe 7841 e0bd
000001b0: 2461 12be 3242 1e3e 1882 62bd 45dd 3bbd
000001c0: fa82 acbd feed c33c c233 873c 0a01 923e
000001d0: 47a8 503d c60a 57bd f3a3 ff39 12d9 fb3c
000001e0: cb5c 603d 53d0 983d 56b7 cf3b 5f0a ff3c
000001f0: 556f 673c 7454 5dbb 5ae2 1d3d ce3b a5bd
00000200: bff4 06be 9397 30bd cd44 003e b104 933d
00000210: b83d 11bd f0f9 043e d2d1 c1bd 3cae aabd
00000220: 084a a73d 5e0a 2a3e b7e7 d6bd a177 7fbc
00000230: eb2c 2e3e b4d1 a6bd 48aa 123d 7904 9fbd
00000240: 89b6 d63d b3eb 1fbe 7944 18be d1bb 68be
00000250: 4f51 bb3e 4cd9 893e 5afc 453e 1de1 b4bb
00000260: e6b5 1fbe 1087 2f3e 5a37 05be 8e50 d2bc
00000270: fbba 593e 04ff 1cbe af31 163d 0142 a53e
00000280: bc6c c8bd c675 123f 6590 c8bd 9213 febb
00000290: b613 c23c ec90 d23d 8e1d a33c 3cc1 e93d
000002a0: bd12 0a3e 53a9 ddbe 359b 02be 6844 cfbd
000002b0: 14a5 513e d517 e33d 5d60 9c3e ea3d cfbd
000002c0: 62f9 003e bb6a aabd 8387 bbbb a1e9 87be
000002d0: 018f 0ebd b616 56be 700f f8bd ddd4 183d
000002e0: 7eac 3d3d ec25 1e3e bc0a b83d 8b95 263e
000002f0: f2ca 05bd a827 adbd 87b1 b5bd 32cc 163d
00000300: b339 eebd fe93 f53d 5f6b f2bd 5fef 143e
00000310: b400 423d 5f58 bebc 6f69 dabc c019 b5bd
00000320: 5356 18bd cf2d d63d 8852 29bd fc56 69bd
00000330: e80c 07be dcae e1bd 2d63 063d da19 5e3c
00000340: f84e 493c c399 8fbc 4cec 073e a879 f83d
00000350: 3a9c b1bd 581c 7abd 81bb b9b9 957e 68bd
00000360: 4c3c 1c3d 3aa6 493d 5b47 873d a945 63bd
00000370: 8172 253d da72 9c3d 0c83 0c3c 4f50 1938
00000380: 2b0e c7bc 2c74 f4bd 4ed6 123e b3d2 0e3d
00000390: 3676 2dbd ca76 90bd 6aff f53d c51f 043c
000003a0: edbb 473d ff9e eebd 1eac a8bd 557d 053e
000003b0: 3077 cc3d 9828 1ebe 74f1 a93d 9d85 debd
000003c0: 1820 b7bd 1165 7f3d 3296 f9bd 6141 8b3d
000003d0: 7364 a0bd 6d01 15be 814f d63d 217d 9f3d
000003e0: f231 c63d 7401 13be c75e fcbc 45e9 90bd
000003f0: bb88 a7bd 1039 59bd 2858 7e3d c65d 49bd
-0.019955298 -0.1598868 0.07575774 -0.08455739 -0.042323574 -0.12588313 0.12489187 0.098739095
0.029932518 0.04108807 -0.103251934 0.04715839 0.14757618 0.08469023 -0.15027404 0.11740866
0.08141308 -0.013942565 0.060742434 0.014785008 -0.17694448 0.13812976 -0.016421549 -0.05794438
-0.04502144 0.11318707 0.15924706 0.049156606 -0.15272944 -0.10880615 -0.15007743 -0.079176754
0.0349857 0.0044548265 -0.112719536 0.06602674 0.09405592 0.10373191 -0.08595642 0.11299778
0.022321671 -0.12812477 -0.13160421 0.08109282 -0.123566106 -0.004572489 -0.092574485 -0.026640076
0.1752022 -0.12334856 0.0016887817 -0.007430979 0.09658718 0.1590388 0.050501063 0.14213015
-0.016319634 0.076949306 0.13580954 -0.18491648 0.08494879 0.05012622 -0.062683664 -0.015419463
0.1274869 0.014391673 -0.14932714 -0.08169757 0.15659246 0.037160695 -0.10248279 -0.08335682
0.036760584 -0.04714823 0.085144095 0.13990635 -0.011296914 -0.046274997 0.0040335874 0.046056513
-0.08967172 0.13506585 0.026035123 0.0012641567 -0.18515475 -0.0060712523 -0.004340471 -0.040205915
0.061623856 0.037400346 -0.062231828 0.057436734 -0.023058962 0.13705224 -0.05946842 0.13309374
-0.0869101 -0.13774043 -0.12205095 0.02815034 0.0017349473 0.047490373 0.115091935 0.1342187
0.05934151 0.19841847 -0.150684 -0.10949987 -0.14294869 0.15454939 -0.05529985 -0.045865316
-0.08423419 0.023917194 0.016504172 0.28516418 0.05094173 -0.05250051 0.00048759542 0.030743156
0.054775994 0.0746161 0.006338994 0.031132875 0.014125665 -0.0033772262 0.038545944 -0.080680475
-0.131793 -0.043113302 0.12526245 0.07178629 -0.03545925 0.12985969 -0.09463848 -0.08334014
0.08168417 0.16605517 -0.10493415 -0.015592487 0.17009322 -0.081454664 0.035806924 -0.07764525
0.104840346 -0.15617256 -0.1486987 -0.22727896 0.3658547 0.26923597 0.19334546 -0.0055199997
-0.15596732 0.17141366 -0.13009396 -0.025673177 0.21262734 -0.15331656 0.036668476 0.3227692
-0.097863644 0.5721096 -0.09793166 -0.007753798 0.02369104 0.10281548 0.019911554 0.1141381
0.1348371 -0.43293247 -0.1275452 -0.10120469 0.20473129 0.1108853 0.3054227 -0.10119231
0.12595132 -0.083211385 -0.0057229414 -0.26545432 -0.034804348 -0.20907101 -0.121123195 0.037312377
0.04630708 0.15444154 0.089864224 0.16267984 -0.032664247 -0.084548295 -0.08871751 0.03681583
-0.11632099 0.11991118 -0.11836886 0.14544438 0.04736395 -0.023235498 -0.026661603 -0.08842802
-0.0371917 0.10457956 -0.041338474 -0.05696772 -0.13188517 -0.1101968 0.032809425 0.013555968
0.012286894 -0.017529374 0.13273734 0.12132579 -0.08672376 -0.061062187 -0.0003542565 -0.056761343
0.03814344 0.04923079 0.06605407 -0.055486355 0.040392403 0.07639094 0.008576166 3.6552836e-05
-0.024298748 -0.119362205 0.14339563 0.034868907 -0.042349063 -0.07053907 0.12011607 0.008064215
0.048763204 -0.1165142 -0.08235954 0.13036092 0.09983671 -0.15445173 0.08298007 -0.108653285
-0.08941668 0.062352244 -0.121868506 0.067995794 -0.07831659 -0.14551325 0.10464383 0.07787538
0.09677495 -0.14356023 -0.030806912 -0.07075743 -0.08180376 -0.053032935 0.06209579 -0.049161695

bias f4 [256]
00000000: c0ea bf3d 7d8f d33d 67f2 003e 2649 d3bc
00000010: d641 14be 8482 0d3e 8804 223e 9345 2abd
00000020: 1c1c fd3c 7160 f8bc 5413 d73c a939 9b3d
00000030: 3d3c a0bd aecc 27ba 1567 cc3d d378 d83d
00000040: 97e3 833d 5212 d33d ee1f 46be 78dd 0f3c
00000050: 6c51 e1ba 130c 87bd 3535 bc3d 8ad5 b3bc
00000060: 950c b5bd a3fb 08be ac5f 54bd df38 763d
00000070: 07e7 87bd 561c 15be d897 92bd 7812 45bd
00000080: 38c9 9c3c f202 04be e9b5 53bd c932 2cbc
00000090: c6ae 333d 76d5 40bd fee1 de3d 702e 173d
000000a0: e922 aa3d d57e 1a3c f5a2 fe3d b556 f7bd
000000b0: abda ddbd 6da6 923d 7bdd f13d 5320 ac3d
000000c0: 903c 1ebd 48c4 393d 2ec7 debd 7d18 66bd
000000d0: 7375 893d c126 2b3d 4074 d53d fc62 53bd
000000e0: d542 0ebe c5e3 38bd 6c52 ab3c 94a9 0dbe
000000f0: d9b0 afbd 8353 483d 5c93 543d 222c 8f3d
00000100: 077b 70bd c812 20be c6b6 a7bc 73b4 38bc
00000110: 023b b3bd 1d99 413d 215a 68bd b2f5 b53d
00000120: c8ba 893d 48b4 e8bd a5ec 123d 868c 643d
00000130: ca11 bfbd b9ad 99bd d25a 1d3c 1fbd d5bd
00000140: 0e1a 0c3e 1aa8 c5bd df19 21bd cd9f 9e3d
00000150: 62d7 91bd ce80 78bc 29b9 b5bd 10cc 60bc
00000160: a371 29bc 0db9 873d 15e8 90bc e01d a5bd
00000170: da5a 0abd 6e0a 193d 1d66 1fbd 5eb4 c93d
00000180: 4096 8ebc b68e 5d3e bdfd 5ebd 4ed5 26bd
00000190: a469 c3bd 85f1 883d a10f 2abc c51b 29be
000001a0: e269 743d da15 c7bc 66cb 0f3e dec1 b6bd
000001b0: a3b4 a9bd b785 da3d 16e6 8fbc 7b12 25be
000001c0: a77d 4ebd 6823 673d 18de 53bd 409d 58be
000001d0: 8189 73bc 5040 e5bd 69fc acbb f778 e53d
000001e0: 8853 143e a4a3 9dbd 4ed0 123a dc2c ca3d
000001f0: 2d41 f63c 6f7d b6bc f1f4 523d 35e9 76bd
00000200: 3435 1fbd e228 073d 7008 4e3d 16e3 353d
00000210: 9de5 413b 0ee9 843d 69c2 71bd 5da1 15bd
00000220: e762 e63c f126 d2bb e208 833d acaf 793d
00000230: 860c 403d 5b38 b1bd 7368 c4ba 3213 f73d
00000240: bf7e 893c 4907 753d ce3c f03d 6b30 ed3c
00000250: b3af 5b3d cb74 353e ee27 473d 91a6 b43c
00000260: 163a a4bd 920d d7bc c113 1b3c 7ae1 593c
00000270: 8e89 0b3e 0ec7 bebd af47 b9bd 1b2a dbbd
00000280: 5825 ed3d 036d 103d cee8 df3d c36e debd
00000290: b705 cd3c 8d57 2e3d 3e3f e33d 462d 35bd
000002a0: 4503 153e 25ee 733d d2dd 04be 618c b03d
000002b0: 731e 1fbb c14b e03d 9229 85bc 12d1 d7bd
000002c0: dce4 a53d 4979 8dbd 4f59 703d 5f37 b23c
000002d0: d453 fcbc 8552 e53d a0e3 3b3e f4dc b3bd
000002e0: 8969 343d 4f09 0cbe 584e a53d c82c 3b3e
000002f0: e16a 04bd d385 99bd 03ba bb3c 84fe fcbd
00000300: 44e1 09bd fa78 763c 4513 02bc ec89 83bc
00000310: 76fb b8bc 286b 0fbd 4785 15bd 4186 6e3d
00000320: 4a13 39bc d870 a43d fdac c03d 7ad5 2cbd
00000330: 266c ef3c f39a 7a3d 0630 61bb ba3b 81bc
00000340: dc81 e9bc b42d b3bb c0ed d13d 03ac 863d
00000350: 9513 0f3e 3d64 223d 41c7 87bd 88a6 623d
00000360: 6614 b3bd 2b80 263c 38e0 9abb 8ee9 c8bc
00000370: 323b c93d 6e11 99bd 14db 0cbe 9c56 ae3d
00000380: d48a ffbd fbc1 2c3d 8bf4 003e b135 bf3d
00000390: 8c74 993d ed65 bb3d 7567 17bc ff8d 853d
000003a0: 066b 583e 6c96 f5bc 0462 a8bc cb3c e7bc
000003b0: 93c5 c2bd df47 eebc 7677 e1bc e2c3 feb9
000003c0: 48c0 63bd c8bf 4a3c 664b a8bc 7246 e8bd
000003d0: e0ed 6c3d 72d3 aebd 5a28 85bc df21 6d3c
000003e0: e7aa ff3d fed0 f6bd 3cac db3d f9b2 87bd
000003f0: 738b 313e 318a 063e 4e0c 9b3c dc79 a7bd
0.09370947 0.103301026 0.12592469 -0.025791716 -0.1447824 0.13819319 0.15822041 -0.041570257
0.030897193 -0.030319424 0.026254334 0.07579357 -0.078239895 -0.0006401044 0.09980599 0.105699204
0.06439894 0.10306229 -0.19348118 0.00878083 -0.0017190403 -0.065941 0.09189836 -0.02195241
-0.088402905 -0.13377242 -0.051849052 0.06011283 -0.06635862 -0.1456159 -0.07157868 -0.048113316
0.019138917 -0.12891749 -0.051687155 -0.010510155 0.04386785 -0.047078572 0.10882948 0.03690952
0.0830744 0.009429653 0.12433425 -0.12077085 -0.10832723 0.071606494 0.11809822 0.08404603
-0.038631976 0.045353204 -0.10877834 -0.056175698 0.06711855 0.041785005 0.104225636 -0.05160807
-0.13892682 -0.045139093 0.020913325 -0.1383422 -0.08578653 0.048907768 0.051898345 0.069908395
-0.058711078 -0.15632164 -0.020472895 -0.011273491 -0.08751489 0.04726516 -0.05672658 0.08884753
0.06725079 -0.11362511 0.035870213 0.055798076 -0.09329565 -0.07503838 0.009604173 -0.104364626
0.13681814 -0.096512035 -0.039331313 0.07745323 -0.07121159 -0.015167428 -0.08873207 -0.013720527
-0.0103420345 0.066270925 -0.01768879 -0.08062339 -0.03377805 0.037363462 -0.038915742 0.098488554
-0.01740563 0.21636471 -0.054441202 -0.040730767 -0.09541634 0.06686691 -0.010379703 -0.165145
0.05967129 -0.024302412 0.14042434 -0.08923696 -0.08286407 0.10670035 -0.017565768 -0.16120331
-0.0504128 0.05643025 -0.051725477 -0.21153736 -0.014864326 -0.11193907 -0.005279113 0.11204713
0.1448499 -0.076972276 0.0005600498 0.098718375 0.030060375 -0.022276608 0.051503126 -0.060280997
-0.038869098 0.032997973 0.050301015 0.04440602 0.0029586323 0.06489764 -0.059023295 -0.03653084
0.028123332 -0.0064133336 0.06398179 0.06095855 0.046886943 -0.08653327 -0.0014984742 0.12064208
0.01678407 0.0598214 0.117303476 0.028953752 0.053634357 0.17720334 0.048622064 0.022052081
-0.080188915 -0.026251588 0.009465159 0.013298387 0.13626692 -0.093153104 -0.09046876 -0.1070139
0.115793884 0.03526021 0.10933076 -0.1086097 0.02502714 0.042563964 0.11096047 -0.04423263
0.14552028 0.059553284 -0.12975243 0.08620525 -0.0024279624 0.10951949 -0.016255174 -0.10537924
0.08100292 -0.06907899 0.05867892 0.021754919 -0.030801691 0.1119738 0.18348551 -0.08782378
0.04404596 -0.13675426 0.080715835 0.18278801 -0.03232849 -0.07496228 0.022915846 -0.123532325
-0.033662096 0.0150434915 -0.0079391645 -0.016056977 -0.022580843 -0.0350143 -0.036504056 0.058233503
-0.011296103 0.08029336 0.09407995 -0.042195775 0.029226374 0.061182927 -0.00343609 -0.01577555
-0.028504305 -0.0054680947 0.10250425 0.065757774 0.13972314 0.039646376 -0.066298015 0.055334598
-0.08744125 0.010162394 -0.004726436 -0.02452543 0.09825744 -0.074740276 -0.13755447 0.08512613
-0.12477651 0.04217718 0.12593286 0.09336413 0.07492933 0.091503 -0.009240975 0.06521224
0.21134576 -0.029978953 -0.02055455 -0.02822723 -0.095103405 -0.029087005 -0.027522784 -0.000485926
-0.055603296 0.012374826 -0.020543765 -0.113415614 0.057844043 -0.08536424 -0.016254593 0.0144734075
0.12483769 -0.12051581 0.107262105 -0.06625933 0.17338352 0.13138653 0.018926766 -0.0817754

weight f4 [64]
00000000: 9e8a 833f 04c9 9f3f af13 943f c367 963f
00000010: a164 8a3f e052 783f 08cb 8f3f 1d37 8b3f
00000020: 99e0 8f3f fd49 963f e772 993f 6819 8f3f
00000030: f47f 853f 9f84 903f 949b 7e3f 99ac 653f
00000040: 90c2 ab3f 8508 9d3f 00b6 9a3f ad2c 683f
00000050: 13a3 973f 438f 953f 8767 833f 795d 853f
00000060: f21a 893f fca4 873f 178b 913f 3542 913f
00000070: 5708 673f 441c 6e3f 8cde 933f e9d8 933f
00000080: b2fa 9f3f 71d6 853f 1818 983f a9b2 903f
00000090: e205 9d3f 3137 9f3f 35c3 693f b83f 893f
000000a0: 4373 883f f12e 983f efe3 933f ff78 843f
000000b0: d798 9b3f 7e33 833f 7c16 8a3f 3eb7 943f
000000c0: 08a9 a03f 00e0 873f 5b4b ab3f bf38 993f
000000d0: b01f 503f c3a0 7f3f ac7f c33f fa68 983f
000000e0: 3c2e a93f 54dd ae3f 7724 9c3f 45a8 913f
000000f0: fae1 993f d196 843f 785a 903f a189 913f
1.0276678 1.248322 1.1568507 1.1750416 1.081196 0.9700146 1.1233835 1.0876194
1.1240417 1.174133 1.198819 1.1179628 1.0429673 1.1290473 0.99456143 0.8971649
1.3418751 1.2268225 1.2086792 0.9069317 1.1846641 1.1684345 1.0265969 1.041915
1.0711348 1.0597224 1.1370572 1.134833 0.902471 0.9301188 1.1552291 1.1550571
1.2498381 1.0456067 1.1882353 1.1304523 1.226742 1.2438718 0.9131349 1.072257
1.0660175 1.1889325 1.1553935 1.0349425 1.2156018 1.0250089 1.0788112 1.1618421
1.2551584 1.0615234 1.3382372 1.1970443 0.8129835 0.9985468 1.5273337 1.1907036
1.3217235 1.3661294 1.2198628 1.1379477 1.2022088 1.0358526 1.1277609 1.1370126

bias f4 [64]
00000000: 0be0 df3b 7a0e f3bc 8f8f 32bd acfa 0d3d
00000010: 964e 84bc e95d 433d f82d 853d c970 b13d
00000020: 946e ef3d 228e bb3c 30fa e83d 1b0b f8bc
00000030: a505 57bc cb86 c1bb 9265 f8bc 784d 813d
00000040: 13bf be3a 6e7b a83b b40a 49bc d0a2 c03c
00000050: 7820 953d 38c8 a13d 5c68 403c 353f 983d
00000060: 3cfd f03b d524 5b3d af7c 533b e32f 3d3d
00000070: 8f9c 1fbd 2361 453c fae1 5f3d e5bf b33c
00000080: 9d44 dd3d 1fb2 22bd a763 863c 5aff 1dbd
00000090: 03da 603d f151 14bd 0074 d3bc c092 773d
000000a0: 880c e53c 5a8e efbc 41d4 9abd 549c e53c
000000b0: 28eb 91bd b338 463d dfa8 8abc 3f31 273d
000000c0: de34 1ebc c687 343d dcae f5bc d23e 49bc
000000d0: 715c 50bd 6191 cf3d 507e aa3d 21d7 1ebd
000000e0: 4e45 53bc 9fa3 8e3d f49a 1e3b c9ed 183e
000000f0: 7a3d 00be e409 fc3d 1fd7 34bd 92cf a2bc
0.006832128 -0.029669989 -0.04359394 0.034662887 -0.016150754 0.04769698 0.065029085 0.0866409
0.11691013 0.022894923 0.113758445 -0.030278733 -0.013123904 -0.005905961 -0.03032187 0.06313604
0.0014552794 0.005141667 -0.012270618 0.023515135 0.072815835 0.07899517 0.011743631 0.07433931
0.0073544066 0.053501923 0.0032270362 0.046188246 -0.038967665 0.012047085 0.054658867 0.021942088
0.108041026 -0.03972065 0.01640494 -0.0385736 0.054895412 -0.036210958 -0.025812149 0.060442686
0.027960077 -0.029242683 -0.075600155 0.028028645 -0.071249306 0.048393916 -0.016926227 0.04081845
-0.009656159 0.044074796 -0.029990606 -0.012283044 -0.05086941 0.10135151 0.083248734 -0.03877938
-0.0128949415 0.06964802 0.0024201246 0.14934458 -0.12523451 0.12306574 -0.044150468 -0.019874368

mean_scale f4 [64]
00000000: e4a9 813f 622c a63f 4588 923f 0f0d 4b3f
00000010: a183 963f b5bb 603f d776 893f 5b31 623f
00000020: 4744 7a3f 764c 843f 5328 a93f d50f 7d3f
00000030: 5040 6a3f 5287 8b3f 7635 6e3f 3ae0 813f
00000040: 520d 7a3f 38ec a33f 2123 3f3f 2eab 8a3f
00000050: 0c20 6d3f 93ec 8f3f 7c2d 673f bb60 893f
00000060: e75a 8d3f a756 593f 00da 7f3f 94fd 573f
00000070: 55a4 893f 9ec5 8a3f da32 4d3f f074 583f
00000080: ca86 963f c14d 6c3f 8121 963f d76d 4b3f
00000090: 2f7f 613f 595e 6b3f 233b 5e3f 2216 8f3f
000000a0: 6042 8f3f f361 963f 0b45 683f 293e 963f
000000b0: 8da6 8d3f 6282 663f 394b 523f 5e8c 903f
000000c0: a1a6 823f a9cc 623f 2ae8 613f 830a 943f
000000d0: df79 793f c961 953f a862 783f c26f 933f
000000e0: 3a67 883f aeba 623f d838 983f 8188 a93f
000000f0: 0be0 983f 5114 513f 05fa 803f 620f 863f
1.0129972 1.2982295 1.1447836 0.793168 1.175892 0.8778642 1.0739392 0.8835656
0.9776043 1.0335834 1.3215431 0.9885228 0.91504383 1.0900671 0.93050325 1.0146554
0.97676575 1.2806463 0.7466298 1.083349 0.92627025 1.1244072 0.9030378 1.0732645
1.1043366 0.84897846 0.99942017 0.84371305 1.0753275 1.0841558 0.8015572 0.8455343
1.1759884 0.92306143 1.1728975 0.7946448 0.8808469 0.9194084 0.86808985 1.1178629
1.1192131 1.1748642 0.9073035 1.173772 1.1066452 0.900427 0.8214603 1.1292837
1.0207101 0.88593537 0.8824488 1.1565708 0.97451586 1.1670467 0.9702554 1.1518481
1.0656502 0.885661 1.1892347 1.3244783 1.1943372 0.81671625 1.00763 1.0473444

bias f4 [64]
00000000: efbe 2dbd 1105 a2bc 5bdd 48bd 1cdd 403c
00000010: 6517 73bd 05d7 e03c 3c77 09be f190 92bb
00000020: 8396 91bc 1a24 e9bc fdff af3d 2742 75bd
00000030: 1e01 f93b 1c52 14bd 7a15 3abd 2ed9 5e3c
00000040: 66a9 2c3c f9f9 dfbc 2388 713d 24d0 0dbe
00000050: 1d05 ba3d 17d5 173e 7910 4dbd 4e47 693c
00000060: f729 a53c 3aa9 3d3d 1429 f8bd 143d 81bc
00000070: 2194 9bbc 9a00 193b 78cf 1b3d 2ca5 ddbd
00000080: e898 7d3c 3cdc 503c e35a 873d 20e5 ebbb
00000090: cd19 903b 0cb6 d2bc 576b 133c 73d4 063c
000000a0: ddf1 1ebd 1012 103e d68f 0bbd f382 94bd
000000b0: 8e4e b0bd b2f4 3f3d b875 dbbd 5392 69bd
000000c0: 3192 79bc 503f 14be 4368 4a3c 38de 17bc
000000d0: 3c03 5cbc 25a8 ae3c d77a 303e 0830 7a3d
000000e0: 4412 133d 978c 9ebc df6e ae3c 6171 b13c
000000f0: 7441 c73d 9b28 2ebe 464a 9c3d 522f 46bd
-0.042418417 -0.019777806 -0.049039226 0.011771467 -0.059348483 0.02744628 -0.1342439 -0.004472845
-0.017771965 -0.028459597 0.08593748 -0.05987754 0.00759901 -0.036211118 -0.045430638 0.013601584
0.010538435 -0.027340876 0.05896772 -0.1384893 0.090830065 0.14827381 -0.050064538 0.014238192
0.020161612 0.046303965 -0.1211721 -0.015776195 -0.018991532 0.0023346306 0.038039654 -0.1082252
0.01547835 0.0127478205 0.06609132 -0.0071989447 0.004397607 -0.025721572 0.00899776 0.008229363
-0.038804878 0.1406939 -0.03407272 -0.07251539 -0.08608733 0.04686422 -0.107158124 -0.05702431
-0.015232609 -0.14477277 0.0123539595 -0.00926929 -0.0134285055 0.021320412 0.1723436 0.061080962
0.03590609 -0.019354148 0.021293102 0.021660509 0.09729281 -0.17007677 0.07631354 -0.048384972
