models/ESOL_betaModel_v2.0.pth (torch, 202723 bytes, 21 tensors)

bias f4 [64]
0	0x3d549b70	0.05190605
1	0xbe480c2a	-0.1953589
2	0x3d6c51b9	0.057695124
3	0xbcb896ea	-0.022532899
4	0x3d6c72ef	0.057726797
5	0xbb1f8edc	-0.0024346625
6	0x3e04b0ee	0.12958118
7	0xbd97ee80	-0.07418537
8	0x3d621436	0.055195056
9	0xbd18445a	-0.03717456
10	0xbdc57871	-0.09642113
11	0x3e403e61	0.18773796
12	0x3d8cbf05	0.068723716
13	0x3de1aa80	0.110188484
14	0xbe146d94	-0.14494926
15	0xbc5f6c33	-0.013636637
16	0x3e102ab2	0.14078787
17	0xbe135a62	-0.14389947
18	0xbcf54d1f	-0.029944
19	0xbe4fd28a	-0.20295158
20	0xbe16845f	-0.14698933
21	0x3da8bbe6	0.08238964
22	0x3bfbf751	0.0076893945
23	0xbe8fd7d8	-0.28094363
24	0x3d7589bf	0.059945818
25	0x3d49f669	0.04930726
26	0x3cdf4629	0.027255135
27	0x3c68f002	0.014217379
28	0x3cb0c042	0.02157605
29	0xbd2c2b16	-0.042033277
30	0xbdfef956	-0.12449901
31	0x3dd7ede7	0.10543423
32	0x3dffed44	0.12496427
33	0x3d37a6bb	0.04483674
34	0xbcd7338a	-0.026269693
35	0x3dea5560	0.11442065
36	0x3cfce83e	0.03087246
37	0xbd0f0add	-0.03492247
38	0x3de0eb4f	0.109823816
39	0x3e06fc99	0.13182296
40	0xbb413185	-0.0029478979
41	0xbd75a40e	-0.059970908
42	0xbd91bb49	-0.071158
43	0xbdc96638	-0.0983395
44	0xbbfba1e0	-0.007679209
45	0xbcf056b5	-0.02933822
46	0x3ae233c6	0.0017257861
47	0xbdd6e0cd	-0.10492096
48	0xbb79520e	-0.0038043293
49	0xbe09e867	-0.1346756
50	0x3da41083	0.08010962
51	0x3d2a3b84	0.041560665
52	0x3d7875dc	0.060659274
53	0x3d4ee332	0.05050964
54	0x3e9e5f44	0.30932057
55	0xbc7ae3a4	-0.015313063
56	0x3e629458	0.22126901
57	0xbc8db8a4	-0.017299958
58	0x3e1c7e60	0.15282583
59	0x3d384a82	0.04499293
60	0x3c6cb8e4	0.014448378
61	0x3e466c12	0.19377163
62	0xbb6d9b4e	-0.00362559
63	0xbda38ec4	-0.07986215

weight f4 [64, 9]
0	0xbd408947	-0.047005918
1	0x3e3cf214	0.1845172
2	0xbd9c580e	-0.076339826
3	0x3e92a32a	0.2864011
4	0xbf62a6fc	-0.8853605
5	0xbdabf48e	-0.083962545
6	0xbe3bf176	-0.18353829
7	0xbc37f2cc	-0.011227321
8	0x3d375ebd	0.044768084
9	0xb9f3c529	-0.00046495468
10	0x3e907a4f	0.28218314
11	0x3e64c3e5	0.22340353
12	0xbd5dba24	-0.054132596
13	0xbe851800	-0.25994873
14	0xbdff4ec4	-0.12466195
15	0x3daf1de7	0.08550625
16	0xbe43caaf	-0.19120286
17	0xbda71c87	-0.08159738
18	0x3e4a0200	0.19727325
19	0x3e6e9076	0.23297295
20	0xbe952fd7	-0.2913806
21	0x3c84b8d0	0.016201407
22	0xbe3ab6e7	-0.18233834
23	0xbae0f800	-0.0017163754
24	0xbd590b6c	-0.05298941
25	0xbe373a4a	-0.1789333
26	0x3d1abcda	0.03777776
27	0x3c8cc974	0.017185904
28	0x3d841628	0.064495385
29	0xbe92b8b6	-0.28656548
30	0x3e7858ba	0.24252596
31	0x3eb5d397	0.35512993
32	0xbe29647a	-0.16542235
33	0xbe6e2206	-0.23255166
34	0x3e258776	0.16164955
35	0xbcb2aa3a	-0.021809686
36	0xbd8cc25d	-0.06873009
37	0x3db8d608	0.09025198
38	0xbe76e3a8	-0.24110281
39	0x3e441ef0	0.19152427
40	0xbed6fe80	-0.41991043
41	0x3e7b105a	0.24517956
42	0x3e175e9d	0.14782186
43	0x3e19cd97	0.15019833
44	0x3edeae80	0.43492508
45	0xbe68cdb7	-0.22734724
46	0x3e1b5ccc	0.15172118
47	0x3ea6944d	0.3253502
48	0x3e47d7b9	0.19515885
49	0xbea9b3fd	-0.33145133
50	0x3e7b891a	0.24564019
51	0xbe96a78f	-0.29424712
52	0x3e868ae3	0.26277837
53	0x3ea4f62d	0.32219067
54	0xbdaaf238	-0.08346981
55	0x3bd464c0	0.006481737
56	0xbd88fc41	-0.066887386
57	0xbdfaad94	-0.12240139
58	0xbd8d2e6f	-0.06893622
59	0x3e5dbf9e	0.21655127
60	0x3ebffd6e	0.3749804
61	0x3eb63bb8	0.35592437
62	0xbed57c1b	-0.41696247
63	0x3e5ae287	0.21375476
64	0xbc97fe90	-0.018554002
65	0xbe09dc2f	-0.134629
66	0x3d7dddba	0.061979033
67	0x3c90fe98	0.017699525
68	0x3e6451ce	0.22296831
69	0xbe972e6d	-0.29527608
70	0xbe0b81e3	-0.13623767
71	0xbda785be	-0.08179806
72	0xbcdd55d7	-0.02701847
73	0x3c2b0ea0	0.010440499
74	0xbeb1e465	-0.34744564
75	0x3ea8e2f7	0.3298566
76	0x3e84e94f	0.2595925
77	0x3e3d9b00	0.18516159
78	0xbe2d9cd8	-0.16954362
79	0xbed313c0	-0.41226006
80	0xbebe2d13	-0.37143764
81	0xbe8e4200	-0.2778473
82	0xbe3211e9	-0.17389645
83	0x3e49dec3	0.19713883
84	0x3dcca669	0.09992678
85	0x3e4897b9	0.19589128
86	0xbd353b80	-0.044246197
87	0x3dde7d84	0.10863784
88	0x3e33b8c6	0.17550954
89	0xbc5e2e48	-0.013560839
90	0x3e0b361a	0.13594857
91	0x3dc38944	0.09547666
92	0x3e6d1a17	0.23154484
93	0xbebb5e62	-0.36595446
94	0xbdd6d176	-0.1048917
95	0xbde47dec	-0.1115683
96	0x3e1548c2	0.14578536
97	0xbe8b6b94	-0.27230513
98	0x3e94905c	0.29016387
99	0xbd8b16a1	-0.067914255
100	0xbe8589ce	-0.260817
101	0x3e9511ae	0.2911505
102	0x3ccd4fa9	0.025062399
103	0xbe31f145	-0.17377193
104	0x3c04d540	0.008107483
105	0xbe46cff5	-0.19415267
106	0xbd907f75	-0.070555605
107	0x3d767486	0.06016972
108	0xbd604048	-0.054748803
109	0xbd9de28a	-0.077092245
110	0xbe8a60f3	-0.2702709
111	0xbcedbe4a	-0.029021401
112	0x3e0d8c39	0.13823022
113	0x3cb1a480	0.021684885
114	0x3e898a3b	0.26863274
115	0x3db7ede5	0.08980922
116	0x3e4a8864	0.19778591
117	0xbe1199e7	-0.14218865
118	0xbe407490	-0.18794465
119	0xbc6eb7f0	-0.014570221
120	0x3e153c6f	0.14573835
121	0xbdf2acef	-0.11849391
122	0xbe287abe	-0.16453072
123	0xba470c39	-0.0007593069
124	0x3e3e438e	0.18580458
125	0xbe7cfabf	-0.24705027
126	0x3e2263b2	0.15858343
127	0xbb093e80	-0.0020941794
128	0xbe16657e	-0.14687154
129	0x3dc3c66c	0.0955933
130	0xbe8786df	-0.26470086
131	0xbe47facc	-0.19529265
132	0xbd40f8c9	-0.04711226
133	0xbe26083e	-0.16214082
134	0xb9a7a52b	-0.00031975782
135	0xbd8de6db	-0.06928798
136	0xbd18ff84	-0.037353054
137	0xbe368a9f	-0.17826317
138	0x3d024b11	0.03180987
139	0x3ec31ab6	0.38106316
140	0x3e904c15	0.28183046
141	0x3e6d6298	0.23182142
142	0x3e862c47	0.26205656
143	0xbea3cf7e	-0.3199424
144	0xbe05ad11	-0.13054301
145	0xbe313d99	-0.17308654
146	0x3a13c6a6	0.0005637206
147	0xbba9c7a7	-0.005181271
148	0x3dae3512	0.08506216
149	0x3cfc1460	0.030771434
150	0x3d6f3135	0.058396537
151	0x3e06c090	0.13159394
152	0x3ee01296	0.4376418
153	0xbc51db88	-0.012808688
154	0x3e1d71d4	0.15375453
155	0x3e2e5c51	0.17027403
156	0x3e348c0b	0.17631547
157	0xbdb03b49	-0.08605058
158	0xbe8ffbab	-0.28121695
159	0xbe7b7a0a	-0.24558273
160	0xbd827b5b	-0.063711844
161	0xbd91d5d1	-0.0712086
162	0xbdf16a43	-0.11787846
163	0x3e023384	0.12714964
164	0x3e8eef7f	0.27917096
165	0x3c0d2f41	0.008617223
166	0xbe02f505	-0.1278878
167	0xbe2ff72a	-0.1718413
168	0x3d841391	0.064490445
169	0x3c6353e0	0.013874978
170	0xbe6a7e2a	-0.2289969
171	0xbc2b9714	-0.010473032
172	0xbe337d3a	-0.17528239
173	0xbcdb6fa6	-0.026786637
174	0x3e17ceca	0.14824978
175	0xbbe48475	-0.006973798
176	0x3de25a70	0.11052406
177	0xbd949f1c	-0.0725691
178	0x3cf054e9	0.029337363
179	0xbdcb07ec	-0.0991362
180	0x3d848e42	0.06472446
181	0x3d3de2d0	0.046358883
182	0xbd13937d	-0.036029328
183	0xbe58b981	-0.21164514
184	0x3e13d81b	0.14437906
185	0x3e165704	0.14681631
186	0x3e232670	0.15932631
187	0x3e895541	0.26822856
188	0x3e163a10	0.14670587
189	0xbe764d3e	-0.24052903
190	0x3e426744	0.18984705
191	0xbdae69b0	-0.08516252
192	0x3e19d3f2	0.15022257
193	0x3e4b5133	0.19855194
194	0x3e0f8e0c	0.1401903
195	0xbd3acbca	-0.045604505
196	0x3ec5eba4	0.38656342
197	0x3ec3258a	0.38114578
198	0xbbbc26cf	-0.005741931
199	0xbe2b9b23	-0.16758399
200	0x3b9f5a51	0.0048630615
201	0xbe62e6a6	-0.22158298
202	0x3dd70457	0.10498875
203	0xbe721f2c	-0.23644704
204	0x3e753746	0.23946866
205	0x3e108871	0.14114548
206	0x3e3e0e6d	0.1856019
207	0x3e1199be	0.14218804
208	0xbe5b2460	-0.21400595
209	0x3e4ed177	0.20197092
210	0xbe872807	-0.26397726
211	0x3e16945b	0.1470503
212	0x3e43f40e	0.19136068
213	0xbd80cfd2	-0.062896386
214	0x3e175e2d	0.14782019
215	0x3e3903ab	0.18067805
216	0xbe142ecd	-0.14470978
217	0x3e8eb5c1	0.27873042
218	0x3ea2bc5e	0.31784338
219	0xbe3a8186	-0.18213472
220	0xbec77c7b	-0.3896216
221	0xbe84fa7e	-0.2597236
222	0x3eaeb3b5	0.3412148
223	0x3d79fb2a	0.061030544
224	0xbe36f712	-0.17867687
225	0x3cadfe0a	0.0212393
226	0xbd512814	-0.051063612
227	0xbe158db5	-0.14604838
228	0xbe810258	-0.251971
229	0x3d6d1ba4	0.05788769
230	0x3e73ca96	0.23807749
231	0x3ebcb54c	0.3685707
232	0x3e12e7e0	0.14346266
233	0xbe3c05c5	-0.18361576
234	0xbcd0f6ac	-0.025508247
235	0x3e01fc82	0.1269398
236	0x3ec2ee47	0.38072416
237	0xbdace9dd	-0.084430434
238	0xbea10907	-0.314522
239	0x3e83302f	0.256227
240	0xbdcf1bb6	-0.10112707
241	0xbcd15941	-0.025555255
242	0x3d78fbe2	0.06078709
243	0xbdd643d1	-0.10462154
244	0xbe925bb6	-0.28585595
245	0x3e7b4b11	0.24540354
246	0xbdf30b1d	-0.11867354
247	0x3f2e71a3	0.68142146
248	0x3d2b5690	0.0418306
249	0xbe7b0d67	-0.24516831
250	0x3e9c580f	0.30535933
251	0x3e36a891	0.1783774
252	0x3e578df4	0.21050245
253	0xbe620dec	-0.22075623
254	0x3c806732	0.015674207
255	0xbe49504e	-0.1965954

att f4 [1, 4, 64]
0	0xbed415e4	-0.4142295
1	0x3c8aae45	0.016928801
2	0x3e90e2c5	0.2829801
3	0x3eb40fb4	0.3516823
4	0xbea76bc8	-0.32699418
5	0x3ebd778c	0.3700527
6	0xbe31088e	-0.1728842
7	0x3ec0964d	0.3761467
8	0xbef02edc	-0.4691075
9	0xbe523daf	-0.20531343
10	0x3ed66b3a	0.41878682
11	0xbe603a79	-0.21897306
12	0xbf4b2e0b	-0.7936713
13	0x3e783b8a	0.24241462
14	0xbe9028fe	-0.28156275
15	0x3d701af7	0.058619466
16	0x3ed1d11f	0.4097986
17	0xbf1303cb	-0.5742766
18	0x3f2787c3	0.6544153
19	0xbe8404ef	-0.25785014
20	0xbea34181	-0.31885913
21	0x3e82aea3	0.25523862
22	0xbe476352	-0.19471481
23	0xbea0c198	-0.313977
24	0xbec63519	-0.38712385
25	0x3e673b7a	0.22581282
26	0x3ec3b291	0.38222173
27	0xbec3ed82	-0.38267142
28	0xbf6d67d6	-0.92736566
29	0xbe9f9a56	-0.31172436
30	0x3eba29dc	0.3636006
31	0x3de0c2b9	0.109746404
32	0x3ec1f2ed	0.3788065
33	0xbeb60d3c	-0.35556972
34	0xbebb22bb	-0.36549935
35	0xbf02c981	-0.5108872
36	0x3f21fe0f	0.6327829
37	0xbf23040a	-0.6367804
38	0x3daacce3	0.0833986
39	0x3e9c59e0	0.3053732
40	0xbf58248f	-0.84430784
41	0xbf396737	-0.7242312
42	0xbf4a9c38	-0.7914462
43	0x3d246542	0.04013563
44	0xbf053c45	-0.5204509
45	0xbea56d3b	-0.323099
46	0x3e1f1c35	0.15538104
47	0x3e44b1f9	0.19208516
48	0x3da533bc	0.08066508
49	0xbf037328	-0.5134759
50	0x3f0d107d	0.55103284
51	0xbeae3268	-0.34022832
52	0xbe9a552b	-0.30143103
53	0x3eb60a72	0.35554844
54	0xbe896d63	-0.26841268
55	0xbec2e19b	-0.38062748
56	0x3f0e934e	0.5569352
57	0x3f0f0e2b	0.55880994
58	0xbe40faac	-0.18845624
59	0xbe41f50c	-0.18941134
60	0x3f68a61b	0.90878457
61	0x3f011c4c	0.504338
62	0xbea2db9f	-0.31808183
63	0x3dddc320	0.10828233
64	0x3dd86b55	0.10567347
65	0x3ec71332	0.38881832
66	0xbe18960a	-0.14900985
67	0x3e27a315	0.16370805
68	0x3d1399d4	0.036035374
69	0x3e8e6a50	0.27815485
70	0x3f241ee1	0.6410962
71	0x3ef15ff6	0.47143525
72	0xbe857821	-0.26068214
73	0xbf8a24dd	-1.07925
74	0x3e12c375	0.14332373
75	0xbe7a0d09	-0.24419035
76	0x3ea05889	0.31317547
77	0x3ef3871a	0.47564012
78	0xbe416c7f	-0.18889044
79	0xbed87290	-0.42274904
80	0xbe74435b	-0.23853819
81	0xbf157b85	-0.583916
82	0x3f1a4a9c	0.60270095
83	0xbed9a450	-0.42508173
84	0xbdb14815	-0.08656327
85	0xbdfbe5b4	-0.12299672
86	0x3e8d9cba	0.27658635
87	0x3e60da50	0.2195828
88	0xbdea452c	-0.11438975
89	0x3e2a6d43	0.16643243
90	0x3e693e99	0.22777785
91	0x3ed02930	0.40656424
92	0xbec496fa	-0.38396436
93	0xbed4f7b6	-0.41595238
94	0x3f350551	0.7071124
95	0xbea6a0fd	-0.325447
96	0xbc120f3b	-0.008914764
97	0x3e9a8130	0.30176687
98	0xbedfea53	-0.43733463
99	0x3f4145d7	0.7549719
100	0x3dacd4be	0.08439015
101	0xbee8a8b3	-0.45441207
102	0x3d245dec	0.040128633
103	0xbec8ed2f	-0.39243457
104	0xbdd5dccd	-0.10442505
105	0xbdd98ee0	-0.10622954
106	0xbe2de42f	-0.16981576
107	0x3eae91da	0.3409565
108	0xbec3d6ff	-0.38249967
109	0xbd99af83	-0.07504179
110	0x3ee0678c	0.43829
111	0x3f17a2c1	0.5923272
112	0xbedef70f	-0.43547866
113	0xbef58df8	-0.47959876
114	0x3d535e62	0.051603682
115	0xbe0df194	-0.13861686
116	0xbf2415aa	-0.64095557
117	0x3ea5f494	0.3241316
118	0xbeae2577	-0.34012958
119	0x3e19f30e	0.15034124
120	0xbe01b2b8	-0.12665832
121	0x3e327f55	0.17431386
122	0xbe754221	-0.23951007
123	0x3fa2dc5b	1.2723497
124	0xbf0f7e54	-0.56052136
125	0xbea5543c	-0.32290828
126	0x3eed3a9b	0.46333775
127	0x3ec1786a	0.3778718
128	0xbedede6c	-0.4352907
129	0x3ec38e00	0.38194275
130	0x3d30477b	0.04303692
131	0x3f36c15f	0.7138881
132	0xbf1fbc1b	-0.623964
133	0x3f11bb5a	0.569265
134	0xbe20d1d6	-0.15705046
135	0x3f28ed30	0.6598692
136	0x3eb1cc26	0.34726065
137	0xbecb35cf	-0.3968949
138	0x3f1fc70d	0.624131
139	0x3ebb0026	0.3652355
140	0xbf1357b6	-0.5755571
141	0xbcbc6113	-0.022995507
142	0xbf4a8a07	-0.79116863
143	0xbe9216ec	-0.28533113
144	0xbef86ce2	-0.4852057
145	0x3deab0de	0.11459516
146	0xbea3768f	-0.3192639
147	0xbe2dd040	-0.16973972
148	0x3e66b929	0.2253157
149	0x3ec336e8	0.38127828
150	0xbeec6081	-0.46167377
151	0xbeb03d1b	-0.3442162
152	0x3e24bae3	0.16086917
153	0x3f07b10e	0.5300454
154	0x3e9b54fd	0.30338278
155	0x3e298b76	0.16557106
156	0xbf106772	-0.56407845
157	0x3e630c43	0.22172646
158	0x3e8cf3a0	0.2752962
159	0xbf432644	-0.76230264
160	0x3d837410	0.064186215
161	0x3eb327d3	0.3499132
162	0x3ec287dd	0.3799428
163	0xbf05d0a4	-0.52271485
164	0xbe11b2e5	-0.14228399
165	0xbe94fc2b	-0.2909864
166	0xbe446cfb	-0.19182198
167	0xbdf6a757	-0.12043636
168	0x3edb24e2	0.42801577
169	0x3e7ded1e	0.24797484
170	0xbeab1e1d	-0.33421412
171	0x3e35dbc1	0.1775961
172	0x3dd23165	0.102633275
173	0x3ecfa1ee	0.4055323
174	0x3e995c43	0.29953203
175	0xbe202830	-0.1564033
176	0xbde0a348	-0.109686434
177	0xbefe4d7b	-0.49668488
178	0xbeb89d86	-0.3605768
179	0xbead3a2f	-0.33833453
180	0xbefcb774	-0.49358714
181	0x3e490370	0.19630218
182	0xbf1a991a	-0.60389864
183	0x3f141054	0.57837415
184	0xbf3336ff	-0.7000579
185	0x3dc617d3	0.09672513
186	0x3e66d7c7	0.2254325
187	0x3ea3f3ad	0.32021847
188	0xbf58ef2b	-0.8473994
189	0x3f0ca5f6	0.54940736
190	0xbf118d07	-0.56855816
191	0xbe9ecbf0	-0.31014967
192	0x3e396431	0.18104626
193	0x3e6a17be	0.2286062
194	0xbefb03f6	-0.4902646
195	0x3e695113	0.22784834
196	0xbf3741b9	-0.7158466
197	0x3ea1697d	0.31525794
198	0x3e2c6dd3	0.1683877
199	0x3ed7fe6c	0.42186296
200	0xbdb3c244	-0.087772876
201	0xbe575c1e	-0.21031234
202	0xbf949860	-1.1609001
203	0x3e280194	0.16406852
204	0x3e7d435b	0.24732725
205	0x3efb9e1d	0.49144068
206	0x3d8233d3	0.06357541
207	0xbdc16733	-0.09443512
208	0xbe766742	-0.24062827
209	0xbe6ea630	-0.23305583
210	0x3f754e3d	0.9582251
211	0x3dc4180b	0.09574898
212	0xbf112407	-0.566956
213	0xbf306167	-0.68898624
214	0xbebfbd64	-0.3744918
215	0x3ecdbf46	0.40184993
216	0xbf343127	-0.703875
217	0x3d425af2	0.047450013
218	0xbefa8862	-0.48932177
219	0xbf1ddcd3	-0.61665076
220	0xbe8cc177	-0.27491352
221	0xbea9ec93	-0.33188304
222	0xbe333706	-0.17501459
223	0xbdcc3b31	-0.09972227
224	0x3ed30f4a	0.41222602
225	0xbe6331b0	-0.22186923
226	0xbebf5762	-0.37371355
227	0xbdf7e59b	-0.12104341
228	0x3f02736d	0.50957376
229	0xbebf97ef	-0.37420604
230	0x3e53cfe8	0.20684779
231	0xbd7ddfe8	-0.06198111
232	0x3e01a45c	0.12660354
233	0x3d6d73c2	0.057971723
234	0xbe5fba9a	-0.21848527
235	0xbe213d53	-0.1574605
236	0x3ecdd7a9	0.40203598
237	0xbf704a37	-0.9386324
238	0x3e49cda2	0.19707349
239	0x3c9c2d28	0.0190645
240	0xbf4353a8	-0.76299524
241	0x3eaa12e2	0.3321753
242	0xbe8436f0	-0.25823164
243	0x3e97e741	0.2966862
244	0xbecf6474	-0.40506327
245	0xbe6205bf	-0.22072504
246	0xbd9c8c0d	-0.076439
247	0x3e9d6992	0.30744606
248	0x3e9a702a	0.301637
249	0x3ea837a7	0.3285496
250	0x3ccb016a	0.024780948
251	0x3f4d4018	0.80175924
252	0x3d9405f2	0.072276965
253	0xbeb6f9d8	-0.3573749
254	0xbef9c893	-0.48785838
255	0xbe28044f	-0.16407894

bias f4 [64]
0	0x3e68e132	0.22742155
1	0x3e955a22	0.29170328
2	0xbe381dbb	-0.17980091
3	0xbda8df7b	-0.082457505
4	0x3dca98d9	0.098924346
5	0x3e77d085	0.24200638
6	0xbe514b90	-0.20438981
7	0x3d32c2c6	0.04364278
8	0xbebd492b	-0.36969885
9	0xbe3e93d7	-0.18611084
10	0x3b19aa13	0.002344732
11	0xbc871a3f	-0.016492007
12	0xbe1a3e67	-0.15062867
13	0x3e83de9a	0.2575577
14	0xbe602077	-0.21887384
15	0x3bd3989a	0.0064574005
16	0xbd76b892	-0.060234614
17	0xbdb267e9	-0.087112255
18	0x3d2c5b62	0.042079337
19	0xbe1e3d21	-0.15453006
20	0x3e06c35b	0.1316046
21	0xbe498bc4	-0.19682223
22	0x3e3c6f9a	0.18401948
23	0xbe89087f	-0.26764295
24	0x3d97a121	0.0740378
25	0x3e945098	0.28967738
26	0x3d3524aa	0.04422442
27	0xbd9727dd	-0.0738065
28	0xbe498639	-0.19680108
29	0xbc413dbd	-0.011794505
30	0xbcba77d0	-0.02276221
31	0x3e9f06da	0.31059915
32	0x3e22ad8b	0.15886514
33	0xbec22ec0	-0.37926292
34	0xbcbf4718	-0.02334933
35	0x3eace489	0.33768108
36	0x3b2dfe46	0.0026549264
37	0xbdd13e37	-0.10216945
38	0xbe188304	-0.14893728
39	0x3e4dad96	0.20085749
40	0xbe50bd51	-0.20384718
41	0x3e92db93	0.28683147
42	0xbda0d320	-0.07852769
43	0xbca03b29	-0.01955946
44	0x3e2851af	0.1643741
45	0x3e941aab	0.28926596
46	0xbe873bfd	-0.26412955
47	0x3e5479ed	0.20749636
48	0xbda37967	-0.0798214
49	0x3d73bf97	0.059508886
50	0x3db802cb	0.08984908
51	0xbdc70afe	-0.097188935
52	0xbd8bc623	-0.06824901
53	0xbab10446	-0.0013505302
54	0x3e13fefd	0.14452739
55	0x3e59f564	0.21285015
56	0x3e007a92	0.12546757
57	0x3e760771	0.24026276
58	0x3ea21658	0.31657672
59	0xbe8ce55e	-0.27518743
60	0x3ea3a0f4	0.31958735
61	0x3e3aa99d	0.18228765
62	0x3d38dc20	0.045131803
63	0x3de806a4	0.113293916

weight f4 [256, 64]
0	0x3e5ada1a	0.21372262
1	0x3e400e7b	0.18755524
2	0x3dee3da6	0.11632852
3	0x3e2915a3	0.1651216
4	0xbce118c2	-0.027477626
5	0xbd881675	-0.06644908
6	0x3e0f7abb	0.14011662
7	0x3e256fd0	0.16155934
8	0x3e773f5f	0.24145268
9	0xbd2c6ae5	-0.04209413
10	0xbda97a49	-0.08275277
11	0xbc9817aa	-0.018565971
12	0xbdfd1811	-0.12358106
13	0x3c1f979f	0.009740739
14	0xbd9ef033	-0.07760658
15	0x3e0539f6	0.13010392
16	0x3ce00bf5	0.027349452
17	0x3d26f0ca	0.040756978
18	0x3e266c26	0.16252193
19	0x3d91315c	0.07089493
20	0xbe18df4f	-0.14928935
21	0xbd800586	-0.062510535
22	0xbe33a247	-0.17542373
23	0xbe144320	-0.14478731
24	0xbdcd03a9	-0.10010464
25	0x3da267db	0.07929965
26	0x3d476fe4	0.04869069
27	0xbd6389ba	-0.05555127
28	0xbed2c243	-0.41163835
29	0xbd19d049	-0.03755215
30	0x3c5fdbe6	0.013663268
31	0xbe676395	-0.22596581
32	0x3d5e2423	0.05423368
33	0xbeade469	-0.33963326
34	0x3e2eb514	0.17061263
35	0xbd95a252	-0.07306351
36	0xbca2adc2	-0.019858245
37	0x3dd109ed	0.10206971
38	0x3de537b4	0.11192265
39	0xbd5996b5	-0.05312224
40	0xbbdd372b	-0.0067509613
41	0x3e944246	0.28956813
42	0x3dd238a0	0.102647066
43	0xbe032d27	-0.12810193
44	0xbe498c44	-0.19682413
45	0xbde058d1	-0.109544404
46	0xbec00a9d	-0.37508097
47	0x3dbaccaa	0.09121068
48	0xbd713d5f	-0.05889642
49	0x3d9b924e	0.07596265
50	0x3d10c6e5	0.03534593
51	0x3e50cc62	0.20390466
52	0xbdf0097c	-0.11720559
53	0x3eb65ee8	0.35619283
54	0xbb95cfde	-0.004571899
55	0x3e203dcb	0.15648572
56	0xbc996571	-0.018725129
57	0x3d8df9ee	0.06932436
58	0xbe014642	-0.12624457
59	0x3e0f8735	0.14016421
60	0x3d684fd7	0.056716766
61	0x3dd7fda1	0.10546423
62	0xbd9d1a26	-0.07671003
63	0x3e027d14	0.12743026
64	0xbe133dd7	-0.14379059
65	0xbba38032	-0.0049896473
66	0x3d6d9983	0.05800773
67	0x3e84becc	0.25926816
68	0x3d80529c	0.062657565
69	0xbcee333f	-0.02907717
70	0xbebb7798	-0.3661468
71	0x3e8b60e3	0.27222356
72	0x3e2e64df	0.17030667
73	0xbdbc8563	-0.09205129
74	0xbdd4dd54	-0.103937775
75	0x3ca0c9d9	0.019627498
76	0xbdb001e7	-0.08594113
77	0xbdd543be	-0.104133114
78	0x3e439d1f	0.19102906
79	0xbcf3a6c1	-0.0297426
80	0x3d50fe54	0.051023796
81	0x3e1cb6ba	0.1530408
82	0xbdda1bfd	-0.106498696
83	0x3e4617a3	0.19344954
84	0xbd9ccf14	-0.076566845
85	0x3b28b030	0.0025739782
86	0xbe424bdd	-0.18974252
87	0xbe0e2e7d	-0.13884921
88	0xbe814be3	-0.2525321
89	0xbec8a983	-0.39191827
90	0xbdc6c83f	-0.09706163
91	0xbc0a4acd	-0.008440685
92	0xbdd1dc31	-0.10247076
93	0x3e885c87	0.26633093
94	0x3e3efed6	0.186519
95	0x3d47462c	0.048650905
96	0xbdf4db4b	-0.11955889
97	0x3d0b1360	0.033954024
98	0x3eada8ac	0.3391775
99	0x3cde5535	0.02714024
100	0xbddf33ec	-0.10898575
101	0x3da36ce1	0.079797514
102	0x3d2a1ac0	0.041529417
103	0x3c4db31f	0.012554913
104	0x3ccc6abc	0.024953239
105	0xbe16a957	-0.14713036
106	0x3e357418	0.17720068
107	0xbe1148e0	-0.14187956
108	0xbe299f79	-0.1656474
109	0xbd955460	-0.07291484
110	0xbe86cbae	-0.2632727
111	0x3e4cd303	0.2000237
112	0x3cd18879	0.02557777
113	0x3e503969	0.203344
114	0xbdf16bbe	-0.11788128
115	0x3d353478	0.04423949
116	0xbd99353a	-0.07480855
117	0x3ee37248	0.44423127
118	0x3d26c527	0.040715363
119	0x3e782cda	0.2423586
120	0xbdf6d210	-0.12051785
121	0xbd698d6d	-0.05701964
122	0xbcb0e7ff	-0.021595
123	0x3b25ba7f	0.0025288162
124	0xbe5d0720	-0.21584749
125	0xbda4435e	-0.08020662
126	0xbdaf8d15	-0.08571831
127	0x3d3b317e	0.045701496
128	0x3d97ffc7	0.074218325
129	0x3e1d97a9	0.15389885
130	0x3cd93984	0.026516683
131	0x3d386cbf	0.045025583
132	0x3d502f1f	0.05082619
133	0xbe832243	-0.25612077
134	0x3cae3e94	0.021270074
135	0x3ad06563	0.0015899356
136	0xbe019ced	-0.12657519
137	0x3e060a8e	0.13089964
138	0x3d94b692	0.07261385
139	0xbd8cf8ce	-0.06883393
140	0x3d18f353	0.037341427
141	0xbd0ba027	-0.03408828
142	0xbe812106	-0.25220507
143	0xbe9685a8	-0.29398847
144	0xbdb151f9	-0.08658213
145	0xbdfc1c91	-0.12310136
146	0x3d5d51f8	0.05403325
147	0x3c655d0a	0.013999233
148	0xbd383a88	-0.044977695
149	0xbe1ad13d	-0.1511888
150	0xbd4e027f	-0.05029535
151	0x3cda2c44	0.026632436
152	0x3e5920d0	0.21203923
153	0xbe2329f9	-0.1593398
154	0x3d27a615	0.040929873
155	0x3e558bf3	0.20854168
156	0x3dbc4698	0.09193152
157	0xbd93cfcd	-0.07217369
158	0xbe338eb5	-0.17534907
159	0x3dd44bc8	0.103660166
160	0x3e08b207	0.13349162
161	0xbd8a38b4	-0.067490965
162	0xbeb34e55	-0.350207
163	0x3d5815a5	0.052755017
164	0xbd535dbc	-0.051603064
165	0xbd20ee5f	-0.03928983
166	0xbddc5a10	-0.107593656
167	0xbcf8b5a7	-0.030360056
168	0x3e4c9301	0.19977953
169	0x3be386ad	0.006943545
170	0xbd9c6497	-0.076363735
171	0xbcd69cb7	-0.026197774
172	0xbda5830f	-0.08081638
173	0xbb9a3a35	-0.004706646
174	0x3d8e3aab	0.06944784
175	0xbb7f0dca	-0.003891813
176	0x3e937b94	0.2880522
177	0xbd84fa67	-0.06493073
178	0x3e04d69e	0.12972495
179	0xbd04d8c3	-0.032433283
180	0x3e7e1758	0.24813592
181	0x3c6ef46f	0.014584645
182	0xbd34e7ac	-0.044166252
183	0xbdfa3a1f	-0.12218117
184	0x3d8ff3bb	0.0702891
185	0xbe7c5c92	-0.24644688
186	0xbd85c723	-0.06532123
187	0xbdfbc81e	-0.12294029
188	0xbe0cdc89	-0.13756002
189	0xbda8257b	-0.08210274
190	0x3e83e7fd	0.2576293
191	0xbe3125a5	-0.17299516
192	0x3cadf80d	0.021236444
193	0x3cdafff3	0.026733374
194	0x3dc344e3	0.095346235
195	0xbe5aec80	-0.2137928
196	0xbe619d11	-0.22032572
197	0x3dcbd24c	0.0995222
198	0x3e597a49	0.21238054
199	0x3d974c22	0.07387568
200	0x39992ed5	0.00029217327
201	0x3c11856f	0.008881911
202	0x3def13d6	0.11673705
203	0xbcd621f5	-0.026139239
204	0xbd71784e	-0.058952622
205	0xb9b65867	-0.0003477961
206	0xbd338931	-0.043832008
207	0x3d895483	0.067055725
208	0xbc932264	-0.017960735
209	0xbe05a3d8	-0.13050783
210	0x3e0787bd	0.13235374
211	0xbe4df831	-0.20114209
212	0xbc520273	-0.012817967
213	0xbdbc0bef	-0.09181964
214	0x3dd75200	0.10513687
215	0xbc99bb1f	-0.018765984
216	0x3e5f985b	0.21835463
217	0x3e9383f2	0.28811604
218	0xbc2019ba	-0.009771759
219	0xbe9bd896	-0.3043868
220	0xbdb0550f	-0.08609974
221	0xbdefebf7	-0.117149286
222	0xbe7d3768	-0.24728167
223	0xbde55b88	-0.11199099
224	0xbe25e0f7	-0.16199099
225	0xbdc1e431	-0.09467352
226	0x3dcf4160	0.10119891
227	0x3de0ebfc	0.109825104
228	0x3d5b99d6	0.053613506
229	0xbde78d6f	-0.11306273
230	0xbb796801	-0.0038056376
231	0xbe301e39	-0.17199029
232	0xbe4d876d	-0.20071192
233	0x3e90bbda	0.2826832
234	0xbd40409e	-0.046936624
235	0x3e320299	0.17383803
236	0x3d62c6c8	0.055365354
237	0xbdb5f05a	-0.08883734
238	0x3e314408	0.17311108
239	0xbd9df8b7	-0.07713454
240	0xbe4a8d17	-0.19780384
241	0xbe401ffe	-0.18762204
242	0xbb6088e7	-0.0034261288
243	0xbb748f57	-0.0037316883
244	0xbe233a4e	-0.1594021
245	0xbe77b420	-0.24189806
246	0xbc16468a	-0.009172091
247	0xbdf0c251	-0.11755813
248	0x3d685f1e	0.056731336
249	0x3bd6a4c4	0.0065504033
250	0xbd5f6442	-0.054538973
251	0x3e419838	0.18905723
252	0x3c5c83d1	0.013459162
253	0x3e5895e9	0.21150936
254	0x3c03eb88	0.0080517605
255	0x3c4fe18c	0.012688052

bias f4 [256]
0	0x3c2d603d	0.010582027
1	0x3e3cb599	0.18428649
2	0x3d1398a0	0.036034226
3	0xbe4da6c3	-0.20083146
4	0xbd8fc864	-0.07020643
5	0x3eab1eb5	0.33421865
6	0xbecad1e8	-0.3961327
7	0xbca65da0	-0.020308316
8	0xbd3389fa	-0.043832757
9	0xbde0fad7	-0.10985344
10	0xbdf1bc8e	-0.11803542
11	0xbd6ed542	-0.058308847
12	0x3cf14c85	0.029455433
13	0x3dad1a75	0.08452312
14	0x3cb984a4	0.022646256
15	0x3cf4acc7	0.029867543
16	0xbc670bf4	-0.014101971
17	0xbd83e727	-0.06440573
18	0xbd5d7619	-0.054067705
19	0xbe27be0e	-0.16381094
20	0x3e13f06d	0.14447184
21	0xbdfe3b8d	-0.12413702
22	0xbbed946d	-0.0072503597
23	0xbd072bde	-0.03300082
24	0xbc7039ad	-0.0146621885
25	0xbd590795	-0.052985746
26	0xbdeba618	-0.11506289
27	0x3d4b6b2e	0.04966276
28	0xbdab4dc6	-0.083644435
29	0xbd8be223	-0.068302415
30	0xba1ecadc	-0.000605745
31	0x3e2da863	0.16958766
32	0x3dd686ab	0.104749046
33	0xbbf68740	-0.0075234473
34	0xbdf21c64	-0.11821821
35	0xbba9f775	-0.00518697
36	0x3d75560d	0.059896518
37	0x3ca08f0b	0.019599458
38	0xbe039bc3	-0.12852387
39	0x3e6c1eac	0.23058575
40	0xbc0e2b91	-0.008677379
41	0x3e064f8e	0.13116285
42	0x3cd5cc60	0.02609843
43	0x3e211bf4	0.1573332
44	0x3dc6a842	0.097000614
45	0x3e4aad61	0.19792701
46	0xbc5c7216	-0.013454935
47	0x3dcb67db	0.09931918
48	0x3d5861d8	0.052827686
49	0xbc01f392	-0.007931607
50	0xbdf1c16b	-0.1180447
51	0x3c2ea085	0.010658388
52	0x3ce8456d	0.028353417
53	0x3d8a400f	0.067504995
54	0xbd0b74e8	-0.034047037
55	0x3ddbf9ce	0.10741006
56	0x39d92c4d	0.00041422472
57	0xbda97c7d	-0.082756974
58	0x3e4d3f27	0.20043622
59	0xbe39caf7	-0.18143831
60	0x3d92b22a	0.07162888
61	0x3de3305f	0.110932104
62	0xbd3ce3cb	-0.046115678
63	0xbd8699de	-0.065723166
64	0xbc3df452	-0.011593895
65	0x3d35f8bd	0.04442667
66	0xbd445554	-0.047932938
67	0xbd3bea96	-0.045878015
68	0x3cc3fbc2	0.023923758
69	0x3e1c0c2f	0.15239023
70	0xbe820144	-0.2539159
71	0xbdeee79d	-0.116652705
72	0xbd72220d	-0.059114505
73	0xbd23322f	-0.03984278
74	0x3bbc3617	0.0057437527
75	0xbcc9299a	-0.02455597
76	0x3daf7c1d	0.085685946
77	0x3e0a8f41	0.1353121
78	0xbe24f7db	-0.16110174
79	0x3db35458	0.08756322
80	0xbd0ada34	-0.0338995
81	0xbcd22776	-0.025653582
82	0xbd729b20	-0.05922997
83	0xbdf013c5	-0.11722521
84	0x3e457b8c	0.1928541
85	0xbe4f9f12	-0.20275524
86	0x3d66b98a	0.056329288
87	0x3cd56ddf	0.026053367
88	0x3d2301d3	0.03979666
89	0x3cb73c1a	0.022367526
90	0x3d25cf11	0.040480677
91	0x3d87410c	0.066042036
92	0xbc8a739b	-0.016900828
93	0xbdad23e7	-0.084541135
94	0x3e1047bc	0.14089864
95	0x3e43931f	0.19099091
96	0x3dd84f58	0.105620086
97	0xbe0a41e7	-0.13501702
98	0xbccbc9a6	-0.024876427
99	0x3e16c7ef	0.14724706
100	0xbc9314d7	-0.017954273
101	0x3d8408e0	0.06447005
102	0x3d1c15f4	0.038106874
103	0x3e73f975	0.23825629
104	0xbdd3625f	-0.10321497
105	0xbd93a552	-0.07209267
106	0x3c87df2d	0.01658591
107	0xbccbd827	-0.024883343
108	0x3d70c3b0	0.058780372
109	0x3e73f4b6	0.23823819
110	0xbde83318	-0.1133787
111	0x3da201e0	0.07910514
112	0x3cae20c9	0.021255868
113	0x3cb9a5fe	0.022662159
114	0xbdb6c4ec	-0.089242786
115	0xbe190907	-0.1494485
116	0xbc1f9a3f	-0.009741365
117	0xbe0c7175	-0.13715155
118	0xbc96c947	-0.018406523
119	0x3df8cb9c	0.121482104
120	0xbd9b4c98	-0.075829685
121	0x3d6fc7c2	0.058540113
122	0xbc035fd9	-0.008018457
123	0xbd5a8e0c	-0.053358123
124	0x3dff3f44	0.12463239
125	0x3d23f0e8	0.040024668
126	0xbced657c	-0.028979056
127	0xbde17195	-0.11007992
128	0x3dbcbb90	0.09215462
129	0x3da7c211	0.08191312
130	0xbdfe0515	-0.12403313
131	0xbdb7da44	-0.08977178
132	0x3d4f42c5	0.050600786
133	0x3e494eab	0.19658916
134	0xbea9028e	-0.33009762
135	0xbe14cd50	-0.14531446
136	0xbe31c7ad	-0.17361327
137	0xbde7d31d	-0.113195635
138	0xbe1cc92e	-0.15311119
139	0xbb883ea7	-0.0041578594
140	0x3d9598c8	0.07304531
141	0x3e5746d8	0.21023118
142	0xbcf46b9c	-0.029836468
143	0x3e390333	0.18067627
144	0xbddf78e6	-0.109117314
145	0xbdc40040	-0.0957036
146	0x3b9ede98	0.0048483126
147	0xbe054d0b	-0.13017671
148	0x3e139942	0.14413932
149	0xbe76b3dd	-0.2409205
150	0x3e6abcd5	0.22923596
151	0x3df5c767	0.120009236
152	0xbe14486d	-0.14480753
153	0xbd85e4f0	-0.06537807
154	0xbddc9fec	-0.1077269
155	0xbc431ac5	-0.011908238
156	0xbdb29aaf	-0.0872091
157	0x3d0d0cbb	0.03443597
158	0x3e0c3fca	0.13696209
159	0x3e113146	0.14178953
160	0x3e5ad3bf	0.21369837
161	0xbde2d023	-0.11074855
162	0xbd543e26	-0.051817082
163	0x3e1eccd2	0.1550782
164	0xbd1d5de4	-0.03841962
165	0x3db13458	0.08652562
166	0xbe21455e	-0.15749118
167	0x3e5a502c	0.21319646
168	0xbe4f61af	-0.20252107
169	0xbd29829b	-0.04138432
170	0x3df52c3f	0.1197133
171	0x3e00c12d	0.1257369
172	0x3e4997ae	0.19686767
173	0x3e13228c	0.14368647
174	0xbe199698	-0.14998853
175	0x3c05dc95	0.008170267
176	0x3cbd9fca	0.023147482
177	0xbc784df7	-0.015155307
178	0x3db28439	0.08716626
179	0xbe05e3d9	-0.13075198
180	0xbd3a4a52	-0.045481034
181	0xbe19062c	-0.1494376
182	0xbd01c7f6	-0.03168484
183	0x3db920ca	0.09039457
184	0xbd7e913d	-0.06215023
185	0x3c211f15	0.009834071
186	0x3dd2ea9f	0.10298657
187	0xbe7d1c93	-0.24717931
188	0x3df8a1c6	0.12140231
189	0xbb886996	-0.0041629774
190	0xbd2ca81c	-0.04215251
191	0xbd9ee928	-0.07759315
192	0x3d9d1ea2	0.07671858
193	0x3dfe7a3e	0.124256596
194	0x3c330f70	0.010928974
195	0xbd65a9c9	-0.056070123
196	0xbda9da1d	-0.08293555
197	0x3e991e69	0.29906014
198	0xbec18c06	-0.37802142
199	0xbe08c756	-0.1335729
200	0xbd4c50a3	-0.04988159
201	0xbe4492aa	-0.19196573
202	0x3b7fec67	0.003905082
203	0x3d8a03e2	0.06739022
204	0x3dfb23f8	0.1226272
205	0x3de1bffe	0.11022948
206	0xbd935250	-0.07193434
207	0x3e3afe55	0.18261082
208	0xbdf9f3b5	-0.122046866
209	0xbc4899b5	-0.012243678
210	0x3d85169c	0.06498453
211	0xbe42c6da	-0.19021168
212	0x3e109ea7	0.14123021
213	0xbdb84994	-0.08998409
214	0x3e707a0b	0.23484056
215	0x3c89c062	0.016815368
216	0xbdbaaa65	-0.091145314
217	0xbb9755d6	-0.0046183867
218	0x3ca30937	0.019901855
219	0xbc52899d	-0.012850192
220	0xbdec9a36	-0.11552851
221	0xbcc2e5f9	-0.0237913
222	0x3b530823	0.0032200895
223	0x3e02bc14	0.12767059
224	0x3e028e04	0.12749487
225	0xbd91e841	-0.07124377
226	0xbe202b84	-0.156416
227	0x3d86cbf5	0.065818705
228	0x3e1b7c33	0.15184097
229	0x3e3e7d7a	0.18602553
230	0xbe030fb8	-0.12798965
231	0x3e93306c	0.2874788
232	0xbe018a0b	-0.12650315
233	0x3d8c1f36	0.068418905
234	0xbd8dd8a5	-0.06926087
235	0x3da6b7a5	0.08140496
236	0x3e1fc304	0.15601736
237	0x3ebeede1	0.37290862
238	0xbd94edc6	-0.07271914
239	0x3e12fa64	0.14353329
240	0x3dcffc35	0.101555265
241	0xb83d5406	-4.5139364e-05
242	0xbdc01031	-0.09378088
243	0xbddaa110	-0.106752515
244	0x3e1302c1	0.1435652
245	0xbc043880	-0.008070111
246	0xbce2deb1	-0.027694078
247	0xbbb57642	-0.005537779
248	0xbdcb95f6	-0.09940712
249	0x3b0fa1ea	0.0021916577
250	0x3e34def8	0.17663181
251	0xbd8f6921	-0.070024736
252	0x3d116992	0.03550107
253	0x3df11675	0.117718615
254	0x3de9360f	0.11387264
255	0xbd501351	-0.05079967

weight f4 [256, 64]
0	0x3d78250a	0.0605822
1	0xbe5ff312	-0.21870068
2	0x3daf20e0	0.08551192
3	0xbe0e1e80	-0.13878822
4	0xba17de8f	-0.00057933567
5	0x3d4891a5	0.048967022
6	0x3e3d2b7c	0.18473619
7	0x3d919b09	0.07109649
8	0xbd59bbc7	-0.053157594
9	0x3cf98f03	0.030463701
10	0xbe2eedeb	-0.17082946
11	0x3e0af97d	0.13571735
12	0x3e742b79	0.23844709
13	0x3e607087	0.21917926
14	0xbe71de63	-0.2361999
15	0x3d603147	0.054734495
16	0x3e2eb725	0.17062052
17	0xbe030174	-0.12793523
18	0x3d316b85	0.04331543
19	0xbdd1b7e4	-0.102401525
20	0xbd803a11	-0.06261075
21	0x3e8e7da0	0.2783022
22	0x3be3bc57	0.006949942
23	0xbd65eea5	-0.056135792
24	0x3ca0ee5b	0.019644907
25	0x3e4d1185	0.20026214
26	0x3e6f2860	0.23355246
27	0x3dca50d0	0.09878695
28	0xbe0f3857	-0.13986336
29	0xbe5a02c1	-0.21290113
30	0xbe7f31b1	-0.249213
31	0x3d53f9cc	0.051751897
32	0x3c4f0d93	0.012637514
33	0x3dbc031e	0.09180282
34	0xbe36e26f	-0.17859815
35	0x3e0bd612	0.1365588
36	0x3d4efb37	0.050532546
37	0x3c453e35	0.012038757
38	0xbe597659	-0.21236552
39	0x3e58494a	0.21121708
40	0xbc00931e	-0.0078475755
41	0xbe3b80f0	-0.18310905
42	0xbe6262c4	-0.22107989
43	0xbb962715	-0.0045822957
44	0xbe1c790a	-0.15280548
45	0xbcd36922	-0.025806967
46	0xbdc168c2	-0.09443809
47	0xbe1d5e53	-0.15368013
48	0x3e813e1a	0.25242692
49	0xbe317cae	-0.17332718
50	0x3d7ffc3d	0.062496413
51	0xbcdcd7cf	-0.026958374
52	0x3e5c47e0	0.21511793
53	0x3d1f8ba3	0.038951527
54	0x3d2e0e6a	0.042494215
55	0x3d45b9b1	0.048272792
56	0x3c9e48bd	0.019321794
57	0xbd012e87	-0.031538513
58	0x3e7ac5a6	0.2448946
59	0xbe5cbb33	-0.21555786
60	0x3e60cfdf	0.21954297
61	0x3d8d7c92	0.069085255
62	0x3d5e8585	0.054326553
63	0xbd2d67f7	-0.042335477
64	0x3e742dc5	0.23845585
65	0xbe8e2081	-0.27759174
66	0xbe805b27	-0.25069544
67	0xbd8967f0	-0.06709278
68	0xbd531c15	-0.051540453
69	0x3df31cec	0.11870751
70	0x3df877f5	0.12132255
71	0xbe5c3b29	-0.21506943
72	0x3e90bc22	0.28268534
73	0x3cf466fa	0.02983426
74	0xbdeed1f0	-0.11661136
75	0x3e19e121	0.15027286
76	0x3ea7d356	0.32778424
77	0x3e7d99c1	0.24765684
78	0xbe7e3f7c	-0.24828905
79	0x3cf6fbe0	0.0301494
80	0x3d94f82f	0.072739
81	0xbe591d61	-0.21202613
82	0xbe1ed248	-0.15509903
83	0xbea8bb24	-0.32955277
84	0xbd762078	-0.06008956
85	0x3e7c22cc	0.24622649
86	0x3e0e6323	0.13905005
87	0xbde11376	-0.1099004
88	0x3e054dfb	0.13018028
89	0x3e9c915a	0.30579644
90	0xbe18d99e	-0.14926764
91	0x3e9b36e0	0.30315304
92	0x3e479f5c	0.19494385
93	0xbe1bb508	-0.15205777
94	0xbe84e26a	-0.2595399
95	0x3ec7c692	0.39018685
96	0xbe5637fe	-0.20919797
97	0x3db042b3	0.08606472
98	0xbeba1792	-0.36346108
99	0x3ed83dce	0.42234653
100	0xbe2e136c	-0.16999596
101	0xbdc89a8e	-0.09795104
102	0xbe4a97a2	-0.19784406
103	0x3ee3cd68	0.4449265
104	0x3e0252db	0.1272692
105	0xbdab17d0	-0.08354151
106	0xbdc45772	-0.09586991
107	0xbd336999	-0.043801878
108	0xbbe7b6f2	-0.0070713693
109	0x3e6670d0	0.22503972
110	0xbded5e66	-0.11590271
111	0xbd9f1831	-0.07768286
112	0x3e3981bf	0.181159
113	0x3e12d249	0.1433803
114	0x3e1a752d	0.15083762
115	0x3df8ebb0	0.12154329
116	0x3e8b3984	0.27192318
117	0x3b5c2e71	0.0033597017
118	0x3dd1b646	0.10239844
119	0xbdc479a1	-0.095935114
120	0x3e8b3349	0.27187565
121	0xbdf0dab4	-0.11760464
122	0x3e9a140f	0.30093428
123	0xbe3b37e3	-0.18283038
124	0x3e2d8740	0.16946125
125	0x3ea85d11	0.32883504
126	0x3ea963fb	0.33084092
127	0xbe65cfa0	-0.22442484
128	0xbe2da5a1	-0.16957714
129	0x3da85d91	0.082209714
130	0xbd8d1529	-0.068888016
131	0xbe9eedab	-0.310407
132	0xbe54f21c	-0.20795482
133	0xbd1ecdfd	-0.038770664
134	0x3e3a48a2	0.1819177
135	0xbe0e9d48	-0.13927186
136	0x3e7bdbf4	0.24595624
137	0x3e8c0e02	0.27354437
138	0x3bd06f70	0.0063609406
139	0xbe130c32	-0.14360121
140	0x3d94bbe7	0.07262402
141	0xbdb9038b	-0.09033879
142	0xbd31405e	-0.043274276
143	0x3be216be	0.0068996837
144	0xbd44f41d	-0.048084367
145	0xbd8c0d4e	-0.06838475
146	0x3e23b38a	0.15986457
147	0xbd905e07	-0.07049184
148	0xbba95f6e	-0.005168847
149	0x3d21a4c4	0.039463773
150	0x3e6d6e35	0.23186572
151	0x3d4b02d5	0.049563248
152	0xbbe63322	-0.0070251385
153	0x3f040b5d	0.5157984
154	0xbe5bca99	-0.21464004
155	0x3c3bbdf3	0.011458862
156	0xbd87557d	-0.066081025
157	0xbe20941f	-0.15681504
158	0x3d46e2e8	0.04855624
159	0xbe16b85a	-0.14718762
160	0xbcdb48ab	-0.02676805
161	0xbe03074e	-0.12795755
162	0xbebea750	-0.37237024
163	0xbd2669a8	-0.040628105
164	0x3e145d18	0.14488637
165	0x3d91823a	0.07104917
166	0xbcd50d6d	-0.026007378
167	0x3da16fc2	0.07882644
168	0x3e621971	0.22080018
169	0x3e6499a7	0.22324239
170	0x3d78d7eb	0.06075279
171	0x3e3784c4	0.1792174
172	0x3e34994c	0.17636603
173	0x3d215d24	0.039395466
174	0x3d430bb2	0.047618575
175	0x3d362b25	0.04447474
176	0x3da291c8	0.07937962
177	0xbe2f26a7	-0.17104588
178	0x3dfdaaf5	0.12386123
179	0xbd2144db	-0.039372306
180	0xbdf45c2f	-0.11931645
181	0xbebe1f10	-0.37133074
182	0xbe86d104	-0.2633134
183	0xbd71a106	-0.058991455
184	0x3da024ee	0.07819544
185	0x3de9ac37	0.114098005
186	0xbc6652ac	-0.014057796
187	0x3e123fcb	0.14282148
188	0xbdf8aa89	-0.12141902
189	0x3dee53e2	0.11637093
190	0xbdd6a179	-0.10480017
191	0x3d4c5763	0.049888026
192	0xbea6dabe	-0.32588762
193	0x3d27dd6c	0.04098265
194	0xbe2bc4d2	-0.167743
195	0x3e2e44d6	0.17018446
196	0xbef8d2f4	-0.48598444
197	0xbd97636f	-0.07392012
198	0x3e3ddf9a	0.18542328
199	0xbdedce9a	-0.11611672
200	0x3de1af56	0.11019771
201	0x3db84c29	0.089989014
202	0xbd0b2355	-0.033969242
203	0xbcfbbd01	-0.030729773
204	0xbd35c1e6	-0.04437437
205	0xbd36b3ad	-0.044604946
206	0xbd83f324	-0.0644286
207	0x3e6e1c7e	0.23253056
208	0xbc9b0066	-0.018921088
209	0xbe1a6259	-0.15076579
210	0x3e989522	0.2980128
211	0xbd0daff4	-0.03459163
212	0xbd7938a0	-0.060845017
213	0xbd800b03	-0.062521
214	0x3e52bf39	0.20580758
215	0xbcf084e1	-0.029360237
216	0x3e053c08	0.13011181
217	0x3e63fdb7	0.22264753
218	0x3d2df6d8	0.042471737
219	0x3cd22d15	0.025656262
220	0x3e234ace	0.15946504
221	0xbd968b95	-0.07350842
222	0xbd9065df	-0.0705068
223	0xbcd83ec4	-0.026397116
224	0xbc9b9f20	-0.018996775
225	0xbe845494	-0.25845778
226	0x3d2f24eb	0.042759817
227	0x3e2e702c	0.17034978
228	0x3c49c9da	0.012316192
229	0xbda99e55	-0.082821526
230	0x3ce18452	0.027528916
231	0x3d6e62c7	0.05819967
232	0x3d7b8b98	0.061412424
233	0xbb8fe923	-0.0043918057
234	0xbd3b31c6	-0.045701765
235	0x3f046bff	0.5172729
236	0x3e9f6727	0.31133386
237	0xbdc6250b	-0.09675034
238	0x3e499375	0.19685157
239	0xbe292105	-0.16516502
240	0xbe4d1add	-0.20029779
241	0x3db5879c	0.08863756
242	0x3d060d99	0.03272781
243	0x3d41ea51	0.047342602
244	0xbdf4b54b	-0.119486414
245	0xbe24708e	-0.16058561
246	0x3d84bf7a	0.06481834
247	0x3d4f1aa5	0.05056252
248	0x3e94b528	0.2904446
249	0xba8ad80c	-0.0010592951
250	0x3ce98e98	0.028510377
251	0xbb8fbfc8	-0.004386876
252	0xbdc6f55c	-0.09714767
253	0x3d660a36	0.05616208
254	0x3e0911cd	0.13385697
255	0x3cecac03	0.028890615

bias f4 [256]
0	0xbd07c260	-0.033144355
1	0xbe564f9a	-0.20928803
2	0x3d9c6368	0.07636148
3	0xbdf2e696	-0.11860387
4	0xbe06b71e	-0.13155791
5	0x3e57afe2	0.21063188
6	0x3d6bd982	0.05758048
7	0x3ca7737b	0.020440808
8	0x3d034181	0.03204489
9	0xbd652544	-0.055943742
10	0x3d9a6810	0.075393796
11	0x3e021100	0.12701797
12	0xbe2a38fa	-0.16623297
13	0x3c326a96	0.01088967
14	0x3c1e9ef8	0.009681456
15	0xbdde56ae	-0.108563766
16	0xbcdd98a3	-0.027050322
17	0xbd5bd5d7	-0.05367073
18	0xbe1c9b92	-0.1529372
19	0x3bbdb8cd	0.0057898522
20	0x3ccb30e5	0.024803588
21	0x3c655250	0.013996676
22	0x3c8353a8	0.016031101
23	0x3cde717e	0.027153727
24	0x3daec312	0.085333005
25	0xbe21fec3	-0.1581984
26	0x3b73eab2	0.0037218747
27	0xbd284ae8	-0.04108706
28	0xbde183cf	-0.110114686
29	0xbd2a2326	-0.041537426
30	0xbc309959	-0.010778748
31	0xbe460d15	-0.19340928
32	0xbe31bd97	-0.17357479
33	0xbe3037ce	-0.17208788
34	0x3dc7977d	0.09745691
35	0x3d087edc	0.033324108
36	0xbd6c8682	-0.057745464
37	0xbe47d084	-0.19513136
38	0x3d4c82e1	0.049929503
39	0xbc391d34	-0.0112984665
40	0x3c38ba36	0.011274865
41	0x3dd2155a	0.10257979
42	0x3e95ebc0	0.29281425
43	0xbcf2980a	-0.029613513
44	0xbe4259c8	-0.18979561
45	0x3dfbe49a	0.12299462
46	0xbe19b67a	-0.15011016
47	0x3defa546	0.11701445
48	0xbd1adac9	-0.037806306
49	0xbca7a802	-0.020465855
50	0xbe32a071	-0.17444016
51	0x3caab6b7	0.020839078
52	0x3d9d369b	0.07676431
53	0x3d28b43f	0.04118752
54	0xbc9a8137	-0.018860443
55	0xbe76a48c	-0.24086207
56	0xbd1dc67a	-0.03851936
57	0xbe49f3e1	-0.19721939
58	0x3d90205b	0.07037421
59	0xbe0ba2ed	-0.1363637
60	0xbda38b0e	-0.07985507
61	0xbb048002	-0.00202179
62	0x3e4d924b	0.20075338
63	0x3b5ec962	0.0033994545
64	0x3e78fd1b	0.24315302
65	0xbe012728	-0.12612593
66	0x3dabab7a	0.08382316
67	0x3db37eec	0.08764443
68	0xbdde8588	-0.10865313
69	0x3d91a48a	0.071114615
70	0xbe1026d9	-0.14077319
71	0x3e2d2a7a	0.16910735
72	0x3ebb2c25	0.36557117
73	0xbdc9d4c2	-0.098550335
74	0x3dca7d1e	0.098871455
75	0x3d5794a3	0.052631985
76	0xbe1fff38	-0.15624702
77	0xbd6e5585	-0.058187027
78	0x3e1b083a	0.15139857
79	0xbe3cfe46	-0.18456373
80	0x3e1c2c5c	0.15251297
81	0xbe373a26	-0.17893276
82	0xbdb30b2f	-0.087423675
83	0x3d291f61	0.04128969
84	0xbed5a765	-0.41729274
85	0xbcbce8c8	-0.023060217
86	0x3ce7da82	0.028302435
87	0xbe0014b9	-0.12507905
88	0xbdbba0a5	-0.091615
89	0x3d5d74a4	0.054066315
90	0x3c9084b4	0.017641403
91	0xbdf10e92	-0.11770357
92	0xbe1e8bfd	-0.15483089
93	0x3daebcaf	0.08532082
94	0xbd8176d2	-0.06321491
95	0x3de88cfc	0.11355016
96	0x3d62d75f	0.055381175
97	0x3d9e87d9	0.07740755
98	0x3d82751c	0.06369993
99	0xbdef6299	-0.11688728
100	0xbda59bb7	-0.08086341
101	0x3d7d37d8	0.061820835
102	0xbd8d4744	-0.068983585
103	0xbeb62d43	-0.35581407
104	0x3d0a859d	0.03381883
105	0x3cb17582	0.021662477
106	0x3d3c8839	0.04602835
107	0xbd03b7de	-0.03215777
108	0xbd8e9bbc	-0.06963298
109	0x3e466b2b	0.19376819
110	0xbd2b5748	-0.041831285
111	0xbe09521b	-0.13410227
112	0x3d58bb09	0.052912746
113	0x3c937660	0.018000782
114	0xbe0412a8	-0.12897742
115	0xbd8e3e11	-0.06945432
116	0xbdd2c86f	-0.10292136
117	0xbe04567f	-0.1292362
118	0x3db1cee1	0.08682037
119	0x3d84cf2e	0.06484829
120	0x3e02b0ae	0.1276271
121	0xbe1908dc	-0.14944786
122	0xbe3a7577	-0.18208872
123	0x3e0b4bf2	0.1360319
124	0xbda183af	-0.07886445
125	0xbdbe1bb2	-0.09282626
126	0x3d0b20da	0.033966877
127	0xbd280a74	-0.041025594
128	0xbe4f5fbf	-0.20251368
129	0x3e1f1cb2	0.1553829
130	0x3d583ad2	0.05279047
131	0xbd260bbe	-0.040538542
132	0xbcf689d9	-0.030095028
133	0x3bfc2388	0.0076946653
134	0xbceb4724	-0.028720446
135	0xbd79232f	-0.06082457
136	0x3d1c9a25	0.03823294
137	0x3c12ab1a	0.008951927
138	0x3e2dbeb2	0.16967276
139	0x3eaef71d	0.34172907
140	0xbc7def32	-0.015498923
141	0xbcf5f60a	-0.030024547
142	0x3d5dcb5f	0.054149028
143	0x3d8558d4	0.06511083
144	0xbc52c952	-0.012865381
145	0x3deec863	0.116593145
146	0x3e882721	0.26592353
147	0x3d9f20cd	0.07769928
148	0x3d85c444	0.06531575
149	0x3d620317	0.055178728
150	0xbce4b951	-0.027920397
151	0x3d16043c	0.036625132
152	0xbdbc0c0c	-0.09181985
153	0xbd98d9bb	-0.07463404
154	0xbd9eb8dc	-0.07750103
155	0xbd733daf	-0.059384998
156	0xbcc27c23	-0.023740834
157	0xbf0aec1f	-0.5426654
158	0xbe6ae9ed	-0.22940798
159	0xbe505aeb	-0.20347182
160	0x3e2d5e30	0.16930461
161	0xbd5d254b	-0.053990643
162	0x3d9c1677	0.07621472
163	0xbe0d0ec3	-0.13775162
164	0xbdf2a5fe	-0.11848067
165	0xbe68ecbd	-0.22746558
166	0x3dc440d4	0.095826775
167	0xbe9ac98e	-0.302319
168	0xbd7dafc5	-0.061935205
169	0x3e54b2e5	0.20771368
170	0xbe55f50a	-0.20894256
171	0x3db1a820	0.086746454
172	0xba8a8dc0	-0.0010570809
173	0x3e53652b	0.20644061
174	0x3d04cc7a	0.032421567
175	0xbe0a839f	-0.13526772
176	0x3e4490cd	0.19195862
177	0xbdda22a1	-0.10651136
178	0x3e14bca3	0.14525084
179	0xbd3dde34	-0.046354488
180	0xbd8c8e70	-0.06863105
181	0x3d7f3e01	0.06231499
182	0x3e6b20c2	0.22961715
183	0xbe2ddc56	-0.16978583
184	0xbdd862a0	-0.10565686
185	0xbdb386b0	-0.08765924
186	0x3dc925b3	0.09821644
187	0x3cff8ba1	0.03119451
188	0xbe2b702b	-0.16742007
189	0xbdc0c58c	-0.09412679
190	0x3e13f4fe	0.14448926
191	0xbe70fe7d	-0.2353458
192	0xbe7327b1	-0.2374561
193	0x3dee089f	0.11622738
194	0x3df717b8	0.12065071
195	0x3da679be	0.08128689
196	0xbd4f96e7	-0.05068102
197	0xbc94bb29	-0.018155651
198	0xbd76355b	-0.060109477
199	0x3db520e4	0.08844164
200	0xbd5815a4	-0.052755013
201	0x3d87a91c	0.06624052
202	0x3c978408	0.018495575
203	0xbdd8a9c8	-0.10579258
204	0x3d92c059	0.07165594
205	0x3da91c0b	0.08257302
206	0x3e213225	0.15741785
207	0xbe5c0568	-0.21486437
208	0x3df5c974	0.12001315
209	0x3db0780b	0.086166464
210	0x3cfa70d7	0.030571384
211	0xbd3cca24	-0.046091214
212	0x3e292d0f	0.16521095
213	0x3d432cc1	0.047650103
214	0xbe54b168	-0.207708
215	0xbcaeefec	-0.021354638
216	0x3bf1083c	0.007355718
217	0x3d87714e	0.06613408
218	0x3d79d489	0.060993705
219	0x3d8967f6	0.06709282
220	0x3e9d40f9	0.30713633
221	0x3d45ba1b	0.048273187
222	0xbe782e24	-0.24236351
223	0x3d46355b	0.048390727
224	0xbd01befd	-0.03167628
225	0x3bef7cbd	0.007308571
226	0x3e42cf3a	0.19024363
227	0x3d46a6d1	0.048498932
228	0x3cf4b8be	0.029873248
229	0x3ca63723	0.020289963
230	0xbdb8fae4	-0.090322286
231	0x3e05b12b	0.13055865
232	0x3ddd41de	0.10803579
233	0x3ddd0e0f	0.10793697
234	0xbd9b6fdf	-0.07589697
235	0xbe46f2b8	-0.19428527
236	0xbd8b8b78	-0.06813711
237	0xbd87810f	-0.06616413
238	0xbded491e	-0.115862116
239	0x3d0a9cb7	0.03384086
240	0xbd622dfd	-0.05521964
241	0xbbf1d1c7	-0.0073797437
242	0x3db7037f	0.08936214
243	0xbe2bf42d	-0.16792364
244	0x3e9788d4	0.2959658
245	0xbe282c6f	-0.164232
246	0xbe040922	-0.12894109
247	0x3dc1173d	0.094282605
248	0x3dd3e65c	0.10346672
249	0xbddc9188	-0.107699454
250	0x3dd3ca7d	0.10341356
251	0x3caf2447	0.021379603
252	0x3e84995c	0.25898254
253	0xbd43033e	-0.047610514
254	0x3dc60955	0.09669749
255	0xbc0c1cf9	-0.0085518295

weight f4 [64]
0	0x3f7db7ab	0.9910838
1	0x3f7d8081	0.99024206
2	0x3f74023e	0.9531592
3	0x3f83367d	1.0251004
4	0x3fad72df	1.3550681
5	0x3f761110	0.96119785
6	0x3f88d62c	1.069036
7	0x3f72f439	0.94903904
8	0x3f6ff740	0.9373665
9	0x3f56cbeb	0.83904904
10	0x3fa6d126	1.3032577
11	0x3f6543aa	0.8955637
12	0x3f97f6ad	1.1872154
13	0x3f810b70	1.0081615
14	0x3f3224da	0.6958748
15	0x3f857952	1.0427649
16	0x3f9dd6d6	1.2331188
17	0x3f86cdb1	1.0531522
18	0x3f98937b	1.1920007
19	0x3f4e04ed	0.80476266
20	0x3f5643ed	0.83697397
21	0x3f858b97	1.0433224
22	0x3f75d600	0.96029663
23	0x3f54076d	0.8282383
24	0x3f8d1de1	1.1024743
25	0x3f835004	1.0258794
26	0x3f98de0b	1.1942762
27	0x3f696cbb	0.91181535
28	0x3f83903f	1.0278395
29	0x3f96e8c8	1.1789789
30	0x3f81d101	1.0141908
31	0x3f8a4265	1.0801512
32	0x3f7127a9	0.9420114
33	0x3f9b6a25	1.2141768
34	0x3f8866c4	1.0656362
35	0x3f865bbe	1.0496747
36	0x3f938d2d	1.1527458
37	0x3f192e0d	0.5983589
38	0x3f690447	0.9102215
39	0x3f888a9b	1.0667299
40	0x3f6e082e	0.9298123
41	0x3f84cbcc	1.0374694
42	0x3f5610da	0.83619463
43	0x3f35bcc4	0.7099116
44	0x3f5aabfb	0.8541867
45	0x3f89ba7d	1.0760037
46	0x3f79852c	0.9746883
47	0x3f3ff419	0.7498184
48	0x3f92df05	1.147431
49	0x3f979e3e	1.1845167
50	0x3fa33079	1.2749168
51	0x3f761e71	0.961402
52	0x3f37a766	0.71739805
53	0x3f8c9a7b	1.0984644
54	0x3f246c05	0.64227325
55	0x3f9ceaa2	1.2259104
56	0x3f97f915	1.1872889
57	0x3f67b6d2	0.90513337
58	0x3f92ced5	1.146937
59	0x3f6c50b2	0.9231063
60	0x3f86430b	1.048921
61	0x3f712d8c	0.94210124
62	0x3f2c1cad	0.67231256
63	0x3f950e1f	1.1644934

bias f4 [64]
0	0x3c71137d	0.014714119
1	0x3e2c3736	0.16817936
2	0xbd6b829a	-0.0574976
3	0x3cc331a0	0.023827374
4	0x3de0e38d	0.10980902
5	0xbc00a7d9	-0.007852518
6	0xbda119b3	-0.0786623
7	0x3d266907	0.040627506
8	0x3d89641a	0.06708546
9	0xbcffd572	-0.031229708
10	0xbb502d2b	-0.0031765203
11	0x3d2adf79	0.041717026
12	0xbe024084	-0.12719923
13	0xbb5fd42e	-0.0034153569
14	0x3c0c3a30	0.008558795
15	0x3e2e3333	0.17011718
16	0x3db7a24d	0.08966503
17	0xbc30bcda	-0.010787213
18	0xbcff9074	-0.03119681
19	0xbe607380	-0.2191906
20	0xbcfc2ebc	-0.030784003
21	0x3de210a3	0.110383295
22	0xbbb3758d	-0.0054766596
23	0xbd7c6b70	-0.061625898
24	0xbd391b52	-0.04519207
25	0xbe2d8e54	-0.16948825
26	0x3dd346fa	0.10316272
27	0xbc431e5d	-0.011909095
28	0xbdd0cacb	-0.1019493
29	0x3e1c8a4b	0.1528713
30	0xbd5e7bc8	-0.054317266
31	0x3e0d9cb2	0.13829306
32	0x3d0f17de	0.03493487
33	0xbe162962	-0.14664224
34	0xbd0c9c6c	-0.034328863
35	0x3e1a5493	0.15071325
36	0x3dc40361	0.09570957
37	0xbdbcf968	-0.09227258
38	0x3e354556	0.17702231
39	0xbc4aa6ff	-0.0123689165
40	0x3d738526	0.059453152
41	0xbcfc005b	-0.030761888
42	0xbd8f1165	-0.069857396
43	0x3d811784	0.063033134
44	0xbe17f581	-0.14839746
45	0x3e089a9b	0.13340227
46	0xbdd99580	-0.10624218
47	0x3dc0b56f	0.09409606
48	0xbb50ada2	-0.0031841774
49	0xbc21155b	-0.009831752
50	0xbda1fa56	-0.07909076
51	0x3d694563	0.056950938
52	0xbd5e49f6	-0.054269753
53	0xbd67473e	-0.056464426
54	0x3d35b3ff	0.04436111
55	0xbd45674c	-0.048194215
56	0xbd4c4744	-0.04987265
57	0xbdfce8bb	-0.12349077
58	0x3da4be13	0.08044066
59	0x3c91b16c	0.017784797
60	0x3db737d4	0.08946195
61	0x3d57f06f	0.05271953
62	0xbd3c1010	-0.045913756
63	0xbdc03760	-0.09385562

mean_scale f4 [64]
0	0x3f3e9679	0.74448353
1	0x3f35111d	0.7072924
2	0x3f9ee655	1.2414042
3	0x3f2d8904	0.67787194
4	0x3fbe5de7	1.4872407
5	0x3f597f27	0.84959644
6	0x3f441604	0.76596093
7	0x3fa3b22f	1.2788752
8	0x3fb06361	1.3780328
9	0x3f391087	0.72290844
10	0x3fb5a68f	1.4191455
11	0x3fbaee6c	1.460401
12	0x3f273047	0.6530804
13	0x3f9972a4	1.198811
14	0x3f6036a0	0.8758335
15	0x3fa24233	1.2676452
16	0x3f473afb	0.7782437
17	0x3fa169d0	1.2610416
18	0x3f1eb2e2	0.61991704
19	0x3f98a87c	1.1926417
20	0x3f4e8dc7	0.80685085
21	0x3f4f9e8f	0.81101316
22	0x3f50ec73	0.8161079
23	0x3f971741	1.1803972
24	0x3fb8a274	1.4424577
25	0x3faa4877	1.3303365
26	0x3f267435	0.6502107
27	0x3fa0aa14	1.2551904
28	0x3f360426	0.7110008
29	0x3ed54765	0.41656032
30	0x3f912c7e	1.1341703
31	0x3f4f8a75	0.81070644
32	0x3f3d07c7	0.7383999
33	0x3f3d39c8	0.7391629
34	0x3f21f271	0.6326056
35	0x3f52d003	0.8234865
36	0x3fa6ec61	1.3040887
37	0x3f54b8c9	0.8309446
38	0x3f3812e1	0.71903807
39	0x3f58dd31	0.8471251
40	0x3f9c2ef9	1.2201835
41	0x3f3298da	0.6976448
42	0x3f47a5a2	0.7798711
43	0x3f612606	0.87948644
44	0x3f5fc8db	0.87415856
45	0x3f2e9400	0.6819458
46	0x3f269e8b	0.6508567
47	0x3f9239bd	1.142387
48	0x3fc651ac	1.5493674
49	0x3f10d32f	0.5657224
50	0x3fc48cc6	1.5355461
51	0x3f3e0f27	0.7424187
52	0x3f5a674d	0.85313874
53	0x3f120fdd	0.57055455
54	0x3f927bdc	1.1444049
55	0x3fe3e5a8	1.780446
56	0x3fbe1472	1.484999
57	0x3f495fb9	0.78661686
58	0x3f174dc6	0.5910305
59	0x3f9aa90b	1.2082838
60	0x3f8b467d	1.0880886
61	0x3f9acb61	1.2093316
62	0x3f6bb9ef	0.9208059
63	0x3fb6bffa	1.4277337

bias f4 [64]
0	0xbd9e3403	-0.07724764
1	0xbe5153ad	-0.20442076
2	0xbe870bca	-0.26376182
3	0x3d8f2ff9	0.06991572
4	0x3ecd4663	0.40092763
5	0xbd2f55e4	-0.04280652
6	0x3e842a23	0.25813398
7	0x3e76347f	0.24043463
8	0xbdfc5dc9	-0.123225756
9	0xbec6d09c	-0.3883103
10	0xbdad3e9e	-0.08459209
11	0x3c58b555	0.013226827
12	0xbd10227e	-0.035189144
13	0xbe4eb0eb	-0.20184676
14	0xbe47762c	-0.19478673
15	0x3d572024	0.052520886
16	0xbd542910	-0.051796973
17	0xbe821eae	-0.25414032
18	0xbd76ce2c	-0.060255215
19	0x3b871db8	0.004123416
20	0x3e80d562	0.25162798
21	0x3e2186fe	0.15774152
22	0xbca0d5d9	-0.01963322
23	0xbe5443fd	-0.2072906
24	0xbe4fa02b	-0.20275943
25	0x3e252beb	0.16130035
26	0x3e74a776	0.23892006
27	0xbd6c2a8a	-0.057657756
28	0xbdb25819	-0.087082095
29	0xbe90a855	-0.28253427
30	0xbe2fda9b	-0.17173235
31	0x3d2201f0	0.03955263
32	0x3d1d52b9	0.03840897
33	0x3cabacd3	0.020956432
34	0xbe0bb15b	-0.13641874
35	0xbe8dba14	-0.2768103
36	0xbe0a77da	-0.13522282
37	0xbea95bcf	-0.33077857
38	0xbe4ff94b	-0.20309941
39	0xbc86766e	-0.016413894
40	0x3d7204e1	0.059086684
41	0x3f0bcdc0	0.54610825
42	0xbe39bc29	-0.18138184
43	0xbed9fd60	-0.42576122
44	0xbe4b13a8	-0.19831717
45	0xbba5bac8	-0.0050576665
46	0x3dbaf03e	0.09127854
47	0xbe212c31	-0.15739514
48	0xbe80e6c4	-0.2517606
49	0x3e20d5fd	0.1570663
50	0x3dc9db7b	0.09856316
51	0xbde4c100	-0.11169624
52	0xbd9016a1	-0.07035566
53	0xbe8f7508	-0.28018975
54	0x3e2f9a06	0.17148599
55	0xbd5b0c56	-0.05347856
56	0x3e4e02c0	0.20118237
57	0x3cdf3551	0.027247103
58	0xbe8dabed	-0.2767023
59	0x3c99506d	0.018715108
60	0x3e759d45	0.23985775
61	0xbe085fee	-0.13317844
62	0x3e9ea2a1	0.3098345
63	0xbe25d728	-0.16195357
