models/FreeSolv_Model_v4.0.pth (torch, 950816 bytes, 22 tensors)

bias f4 [128]
00000000: a053 d13c c054 aebd d1d9 8e3c 3fd9 c23d
00000010: 93db 2fbd 1362 823d 2ea2 12bd dd5e 013d
00000020: cfc7 21bd c744 2e3d 6c5e f23d bf0b bd3d
00000030: 9507 a2bd dd8d c33d e841 813c 2a6d edbd
00000040: dd77 82bd c3c9 363d 6ad2 8d3d ea44 cf3d
00000050: 0c1f 29bd 41ac 1b3d 97bc d0bd f19e 9d3d
00000060: 56bd 17bd 2359 ad3d 5a2f e9bd 0a64 acbc
00000070: 67a3 8d39 440c 06be 29af 3cbd fbfc eebd
00000080: 2ad4 76bd 133c d63d 8231 09be fae4 43bd
00000090: 371e 503d 70ce eebd 4c83 6cbd dcb9 9bbd
000000a0: 5197 d93d 8f29 aabd 8a23 12bd e36a 493b
000000b0: 6ac2 78bd 387f ae3c 667b 5dbd 35ea d93d
000000c0: 3369 893c 7d4c a1bc 9be9 0bbe bb45 c8bc
000000d0: 837a 02be 9aaa a13c 9e1a 0ebc db53 15bd
000000e0: 7f53 8abc aa67 96bd cbc7 e9bd 0ae8 8ebd
000000f0: eaf3 393c d3a2 793d 8e4f 563c 11ed 533d
00000100: 2bde c3bd a2fe 0abd b1f5 783d 58f3 0e3e
00000110: ecac c1bd e65d 35bc 391b 82bd 3ce9 593d
00000120: 48ec f1bd 2dda 2e3d 6c83 9c3c d350 cb3d
00000130: d48b 0dbe 3da2 553d d6ee 21be b855 2abd
00000140: 23c8 78bd 2a72 9e3c 59ee a9bd 2551 e23c
00000150: 3555 f6bd 2e43 083e 4f93 16bc d099 6c3d
00000160: 6567 88bd 5515 263d b2d7 073e 7c6b c9bd
00000170: cfd8 c4bd 67be 353e 223c 9c3b 5ac4 a03d
00000180: 028b 003e 70c3 8d3d c279 863d afbf db3c
00000190: 9299 b2bd 5686 34bc 0c14 9e3c 29ea c83d
000001a0: efb9 e23d c19a de3c a00a 873e 4345 52bb
000001b0: 95e8 8e3d ca3f 0ebd b867 06bd 242d 053e
000001c0: bbbf d23d 411b 933d 4323 ff3d 34f5 ddbc
000001d0: d777 bd3d 80b4 d83d ddd2 95bc 112e 623d
000001e0: 957e 603d 3fa8 d63c ff01 e63d 9ecc 583d
000001f0: fc2e 033d f8cd 6fbd abbe f23b eeef da3d
0.02555257 -0.085122585 0.017437847 0.09514093 -0.04293401 0.063663624 -0.035799198 0.03158461
-0.039497193 0.04254606 0.11834416 0.09230756 -0.079116024 0.09548543 0.015778497 -0.11593087
-0.06370518 0.04462601 0.06924899 0.10120566 -0.041289374 0.03800607 -0.10192221 0.07696331
-0.0370458 0.08464267 -0.11385985 -0.021043796 0.0002701536 -0.13090616 -0.046065483 -0.11669346
-0.06026093 0.10460677 -0.13397792 -0.04782579 0.050810065 -0.116604686 -0.057742402 -0.07603809
0.106245644 -0.08308708 -0.035678424 0.0030733875 -0.060732283 0.021300897 -0.05407276 0.106403746
0.016773796 -0.019689793 -0.13663332 -0.024447313 -0.12742047 0.01973467 -0.008673338 -0.036456924
-0.016885517 -0.07343991 -0.114150606 -0.06977852 0.011349658 0.060946297 0.013080491 0.051739756
-0.095638596 -0.033934243 0.060781185 0.13960016 -0.0945681 -0.01106975 -0.063528486 0.053200945
-0.11812645 0.042688537 0.019105636 0.09927525 -0.13822871 0.052156676 -0.15813765 -0.041585654
-0.06073774 0.019341547 -0.08297414 0.027626583 -0.12027971 0.13306877 -0.009190395 0.057763875
-0.06660346 0.040547688 0.13265875 -0.09834954 -0.096116655 0.17748414 0.0047679106 0.07849951
0.12553027 0.06922042 0.06566192 0.0268248 -0.087206975 -0.011018356 0.019296668 0.098102875
0.1107062 0.027173402 0.26375294 -0.003208474 0.06977955 -0.034728803 -0.032813758 0.13005501
0.10290476 0.07182933 0.124578975 -0.027094461 0.09251373 0.10581303 -0.018289024 0.055219714
0.054808218 0.026203273 0.112308495 0.052929513 0.03202723 -0.058546036 0.0074079833 0.10690294

weight f4 [128, 9]
00000000: 638c 5ebe 4478 a83e 99b2 aabd ca84 6b3e
00000010: c51e 2f3d 2d00 273e ef57 d73d 9d1a 8f3d
00000020: e161 3e3e 93e3 1f3e 646a 8f3e cae1 373e
00000030: a57c 94be 3df7 87bd 0030 35bb 9103 773c
00000040: acf3 90bc c478 99bd faf2 74bd f774 c73e
00000050: 6f3b e5bc 2b58 813e 94f7 283e 8af6 a43d
00000060: fd51 8bbe da01 c7bd fdbb 1a3e 48b4 d7bc
00000070: 054e 89be 5535 1a3d ed40 17be c5fc c9bc
00000080: 50b6 10bc 80aa 133e 3e5e b7bd 620b 16be
00000090: 7b10 f33d 84ec e3bd c055 003e 16b6 ddbd
000000a0: 8771 1dbe 3685 b0bd 0f36 853d 277a 1fbe
000000b0: 3596 853e 4f44 c0bd 7fd1 313e 183f 003d
000000c0: 7fb2 23bd 9659 013d 4229 8e3d e52e 2e3e
000000d0: 5f51 9a3b ed07 823d b439 84bd 0294 543e
000000e0: 91a0 843e fbdb 333b 281d 1c3e 779f 27be
000000f0: 70a7 6fbd 70cf bc3d 70f3 283e f04a 633e
00000100: 1aab c2bd f9c6 42bd 5116 53be d18b 77bc
00000110: e66b 3abe eb16 54bd 6038 303e 9c37 48bd
00000120: 5dfd 8a3e 51f3 e5bc e11e f73d e458 54be
00000130: d825 9fbe 769d 4abe 694c d4bd b6e8 57be
00000140: 0e09 0ebe 1ae7 5abd 2472 2f3e 04a7 25be
00000150: 9c6c 3d3e 37aa ca3d 51b3 03be 61a4 98bd
00000160: a4b2 7e3e 3b2a 10bd 6aae 28bc 4c24 aa3e
00000170: 9690 4dbd f686 be3b ba8c 973c 5517 cebd
00000180: 0c49 5fbc 0859 31be b33d 323e f2c0 fcbd
00000190: bebc 0abe 6ba1 763e f127 aa3c e238 a8bd
000001a0: 1c30 88bd da46 16bd b39e 763e 5bbf 04be
000001b0: 9a44 623c 90a0 2f3e 909a 33be d3f8 7f3d
000001c0: 9a85 ccbc a055 7fbc 1674 b33d b2f4 863e
000001d0: 18ee 333e c280 5d3c 746c e5bd f1a7 1d3d
000001e0: 62c5 a43c 892a 283e 348b d8bd 3245 5abe
000001f0: 1113 96bd c016 48be 7ea9 5dbd 8984 853d
00000200: 91ea 9bbd 4dc4 c43d 8447 6cbe bc54 37bd
00000210: 1920 113e 664b f0bd 8218 1bbd 4c57 f43d
00000220: 4c9e 133f b18d 283d 60af 75bd 6120 a0be
00000230: 00ce 823c cadb 023e 4edb b63e dc30 253e
00000240: 8334 8c3d d0de 9fbe 2ae8 443d cc52 813d
00000250: a0fc 533d 4a8f 02be 3f9b 7ebe 835c 693e
00000260: 2561 163e 29b2 cebd 94b7 b03e df4c 2dbe
00000270: affa 2c3e a62a 24be a03b f2bb 0e29 0ebd
00000280: ccf8 d33d e095 4f3e 76a1 8e3d a726 b8be
00000290: 3b35 8f3d 63a0 0dbd bcee 883c 05f4 4c3e
000002a0: e7cc 1ebe 7fb7 9d3c 6ea6 b5bd 0260 2abe
000002b0: d4e2 74be 3abd 4b3e 4b21 8abd a759 2e3e
000002c0: 0025 69bb ba9a 863d 8601 53bd 983d 9ebe
000002d0: e4ab 993d a379 04be cc73 10be 4d99 e93c
000002e0: f3e9 84be b0ca 09bd 1872 e63d f3be 66be
000002f0: 637c 57bc 2127 a13d de7d 35bd 4d40 15bc
00000300: 5841 203d a5b3 463e f0a5 033d f247 8abe
00000310: 2794 67be f443 f8bc e117 17bd 9500 8dbd
00000320: 7cb1 1b3e f84f 80bc 50e7 f8bd 7a29 1cbe
00000330: 538f f53c f5ac 35be 2b29 8d3d df9e 90bd
00000340: e105 f83d 1f4b 55bd 10ee eb3d 4a5b 97bd
00000350: 9945 c2bd be6d 1dba cc02 1b3e 4d74 4fbd
00000360: cb4f 07be babb 76bd fd01 473c 9289 9f3d
00000370: 71b8 b7bb 1798 453e c0dc 153e 396f 983d
00000380: 5a3c 093e 5a7b 03bd 995f a2bd 5314 103e
00000390: e95e 94bd 2c4d 063d a0bf 5ebd 494a 41bc
000003a0: d102 1fbd 6cfd e4bd 084f d9bd d664 9abd
000003b0: af8f 563e 0086 bd3d 95ee 713e cdcd ddbd
000003c0: 1cec b03d 8ceb 8d3b 16e8 c63c 8b2f 11bd
000003d0: 8782 bd3e 0677 453e 456f 22bd 058a 3c3e
000003e0: 95cc 0b3e a7ac 4bbd 92ad 9a3d 52ad 21be
000003f0: b88d 7dbd a5e3 0f3e 46bf eb3d 63e1 723e
-0.21733241 0.32904255 -0.08334846 0.22999874 0.042753953 0.16308661 0.10514819 0.06987498
0.18592025 0.15614156 0.28010857 0.17957225 -0.29001346 -0.06638954 -0.0027647018 0.015076534
-0.017694317 -0.07493737 -0.059802033 0.38956425 -0.027982442 0.2526258 0.16500694 0.08054836
-0.2721099 -0.0971715 0.15110774 -0.026331082 -0.26817337 0.037648518 -0.14770861 -0.024656663
-0.008832529 0.1442051 -0.08953522 -0.1465278 0.11868378 -0.11129096 0.12532711 -0.10825746
-0.15375338 -0.08619158 0.065044515 -0.15573941 0.2609116 -0.09388029 0.17365073 0.03131017
-0.03996515 0.031579576 0.06941463 0.17010076 0.004709407 0.06349168 -0.064563185 0.20759585
0.25903752 0.002744435 0.15245497 -0.16369425 -0.05850929 0.09219253 0.16499114 0.22196555
-0.09505291 -0.047553036 -0.20613982 -0.015109018 -0.18205222 -0.05177967 0.17209005 -0.04888116
0.27146426 -0.028070124 0.120664366 -0.20737034 -0.3108356 -0.19786629 -0.103661366 -0.21084866
-0.13870642 -0.053443052 0.17133385 -0.16176993 0.18498462 0.09895747 -0.12861373 -0.07453228
0.24872833 -0.035196524 -0.01029549 0.33230817 -0.050186716 0.0058144284 0.01849972 -0.10063044
-0.013628256 -0.17319119 0.17406349 -0.12341489 -0.13548562 0.24085014 0.020770999 -0.082139745
-0.06649801 -0.036688663 0.24083976 -0.12963621 0.013810301 0.17151093 -0.1753943 0.062493157
-0.02496605 -0.015584379 0.08762376 0.26358563 0.17571294 0.013519468 -0.112023264 0.03849024
0.02011365 0.16422476 -0.10573426 -0.21315458 -0.073278554 -0.19539928 -0.05411672 0.0651942
-0.07613099 0.09607754 -0.23074156 -0.044758543 0.141724 -0.11733131 -0.03786517 0.11930713
0.57663417 0.041150752 -0.059981704 -0.31274703 0.01596737 0.12779155 0.3571419 0.1613192
0.06845953 -0.3122468 0.04807297 0.063146204 0.051754594 -0.12749973 -0.24863909 0.22789197
0.14685495 -0.10092575 0.3451506 -0.16923855 0.16892503 -0.16031894 -0.0073923618 -0.03470712
0.103501886 0.20272017 0.0696439 -0.3596699 0.06992575 -0.034576785 0.0167154 0.20014961
-0.15507852 0.019252537 -0.088696346 -0.16638187 -0.23914653 0.19896403 -0.067446314 0.17026387
-0.0035575032 0.065724805 -0.051515125 -0.30906367 0.07503489 -0.12937026 -0.14106673 0.028515482
-0.2595974 -0.033640563 0.112522304 -0.22533779 -0.013152215 0.07868791 -0.04430949 -0.009109569
0.039124817 0.19404466 0.032140672 -0.27008015 -0.2261511 -0.03030584 -0.036888007 -0.06884877
0.15204424 -0.015663132 -0.12153494 -0.15250197 0.029975569 -0.17741759 0.06892618 -0.07061552
0.12110496 -0.052073594 0.11520016 -0.07390459 -0.09485931 -0.00060054276 0.15137786 -0.050648022
-0.13214032 -0.060237624 0.01214647 0.07789911 -0.005606704 0.19296299 0.1463499 0.07443089
0.13401929 -0.03210006 -0.0792839 0.14070253 -0.07244665 0.03278844 -0.054381967 -0.011797496
-0.038821045 -0.11181149 -0.10610777 -0.07538764 0.20953248 0.09254074 0.23626168 -0.10830269
0.08638784 0.004331058 0.02428059 -0.03544573 0.37013647 0.19283685 -0.039656896 0.18412025
0.1365226 -0.0497252 0.07552637 -0.15788773 -0.06190273 0.14051683 0.11511092 0.2371879

att f4 [1, 4, 128]
00000000: 441a b2be 5d0e ebbd 7a56 8bbe ec93 593e
00000010: a558 923e 6828 bebd 1e30 433d bd55 1cbd
00000020: 2d0e 5d3e 3d76 2f3e 9e9b c3bd 471d 8b3e
00000030: 7754 e13d 0ffc d43d eb6a c4bc 6830 95be
00000040: cf55 323e 7d19 e93d 4219 833d ad14 dd3d
00000050: 8489 3bbc 7180 193e 845e 693e 8955 f2bd
00000060: 6d29 213d bee5 84be ed7e d1be aed5 97bd
00000070: ef7f e9bd 6ca1 093e 2fae 50be 3b6b 9e3d
00000080: 8d8b 6cbe 20e2 7b3e 995b d13d 5abf 663e
00000090: 570e 08be 4396 283e e54c d93d 8a69 453e
000000a0: b667 e03d 686a 0e3c 4d88 173e b0ce 703e
000000b0: 772e 0ebe ef06 d83e 7671 14be 2fc3 8bbe
000000c0: f2a4 e33d 454a 873e 9e6b af3e 88fd ad3d
000000d0: 6933 bf3d 624b 223e 3a99 b53e 121e 36be
000000e0: c137 fd3d f371 0bbd 629a 453e 8c2b b9bd
000000f0: d13f fd3c 127c 0f3e 42f0 41be 5648 44be
00000100: 4edf 82be 69b9 4abe 247f 70be 84c3 a6be
00000110: 6741 a23d 4cdf 9d3e 7da1 4abe 54ea 1d3e
00000120: 1164 7ebe 9d46 0ebe 6396 9abe 5ca2 09be
00000130: 2b82 74be e347 27be 3243 f93d 7bcb 53bd
00000140: 50b1 36be 10c9 c7bc ed99 153e aad0 7bbe
00000150: 79f0 d53d 2d08 463e aa31 82be cc65 f1bd
00000160: d68e cb3e b09f f03e bee9 c93e b200 213e
00000170: fd30 b6bd b5d8 c83e 4309 26be 9e0e 3f3d
00000180: 22e9 243e c271 39be 9e53 093e f192 613e
00000190: 3ddc 3c3e 0c06 8b3e 24aa 903e 08c5 323e
000001a0: b70d 03be 9022 7abe 8efd 73be e8c2 273e
000001b0: 4a93 703e ab8e 053c 41b7 ce3d 1bd6 9c3d
000001c0: 109f af3d 15db 9ebd 06b0 fc3d c897 73be
000001d0: b85c 21be 3621 93be 5076 90be 7acc 80be
000001e0: 424b 97bd be03 33be fc91 efbc 391a 7a3d
000001f0: b7c6 e5be 09e0 a2bd a4d0 f63d b98d 3bbd
00000200: 0eef 79be a4cf 1f3e 20aa 883e 9572 b73b
00000210: b63f 1fbe 25cf a6be 5844 a9bd d09a 29be
00000220: c26f 5e3e 45a0 073e a6a2 57bd 2262 b63d
00000230: 39fe b83d 3aff 7a3e d9b4 16be a79b 24be
00000240: 2264 6ebe 5e57 14be 2e74 5e3d c0f3 11be
00000250: 9e3d db3e 16ec ca3d f48f 8abe 13ff 243e
00000260: 9a6b 303e c852 933e db95 17be a9f9 65be
00000270: 4232 abbd a405 37bd 40bd 063f 00e8 e73d
00000280: 8437 453e d246 05bd 240d cbbd 6a32 a8be
00000290: 39c6 7ebe 408b 193e 532e 52be bcd2 08be
000002a0: f006 8dbd 57ab edbc 688a 07be c0a3 94bd
000002b0: e83c 0a3e c012 583e 4ec7 32bd 6da5 e2bd
000002c0: 0ff3 5c3e 3b7c b03e 3b4a 01be 25a4 ea3e
000002d0: a716 46bd 55e6 5ebe e82b 21bd 7d39 88be
000002e0: fad6 87be 8081 23be 22b2 d03e 2a01 1c3e
000002f0: b0ed 01be 70f4 9fbd 0461 b7bd 4189 093e
00000300: c0a4 83be 12f0 953e 86cb b13e be47 56be
00000310: 641b 61bd eac5 07be ab11 7dbe 2aa3 a6bd
00000320: fa35 133e f072 973e be87 8c3e 9b9f d8bd
00000330: bd87 843e 9bc5 aabd 11bb c23e 7403 74be
00000340: 9b61 c13d 8e07 273e 56e5 93be 37cf 223e
00000350: 3635 7a3d c27e 70be 7ac1 b8bd 5b5f 2cbe
00000360: c5d1 5dbe 4b4d 3cbe b341 0a3e 33dc 0abe
00000370: f17e 353e 5772 ad3e bb80 bfbd 494c aebe
00000380: 3712 313e bc9b 84be 29ac c2bd 7f10 17be
00000390: af57 1bbe 1f5f 0fbe 3a9d 7bbe 2f96 3cbd
000003a0: b1c1 a03d e48f 96bd 5589 2b3e 9a61 04be
000003b0: 6f41 9c3d 610e 4b3d b329 4abe b7d5 3ebe
000003c0: fc54 8bbe d33e 983e 4efd 2bbe 0ffa 84be
000003d0: bfbd 213e 3d83 edbd 8636 ef3d c681 e13d
000003e0: 0691 38be ed1c 6fbd b3e7 153e 4f19 7c3e
000003f0: 2b37 26be 8399 5cbe e8e0 27be 6c28 82be
-0.34785664 -0.11477349 -0.27214414 0.21247834 0.28583255 -0.09285051 0.04765331 -0.038167704
0.21587439 0.17134948 -0.09551166 0.27170774 0.110024385 0.10399639 -0.023976764 -0.29138494
0.17415546 0.11381815 0.06401302 0.10794959 -0.0114463605 0.14990403 0.22789961 -0.11832721
0.039346147 -0.2595653 -0.4091715 -0.07413803 -0.114013545 0.13440484 -0.20378946 0.07735296
-0.2310011 0.24597979 0.10222549 0.22533932 -0.1328672 0.1646357 0.106103696 0.19278541
0.10957281 0.008692361 0.14798088 0.23516345 -0.13884912 0.4219279 -0.14496407 -0.2729735
0.11115445 0.2642385 0.34261793 0.08495623 0.093359776 0.15849069 0.35468465 -0.17784908
0.1236415 -0.034044217 0.19297174 -0.09041509 0.03091422 0.14012173 -0.18939307 -0.19168219
-0.25560993 -0.19797291 -0.23486 -0.32571042 0.07922631 0.30834424 -0.19788165 0.1542142
-0.2484286 -0.13894124 -0.3019286 -0.13440841 -0.2387778 -0.16336016 0.121710196 -0.051707726
-0.17841077 -0.024387866 0.146095 -0.24591318 0.10446257 0.19339056 -0.25428516 -0.11786994
0.39757413 0.46996832 0.39436144 0.15722921 -0.088960625 0.39227834 -0.1621447 0.0466448
0.16104558 -0.18109801 0.13410804 0.2202871 0.18443389 0.2715305 0.28254807 0.17457974
-0.127982 -0.24427247 -0.23827192 0.16382945 0.23493686 0.0081516905 0.10093547 0.07658025
0.08575261 -0.0775663 0.12338261 -0.23788369 -0.15758026 -0.28736275 -0.28215265 -0.25156003
-0.07387401 -0.17481896 -0.029244415 0.061060164 -0.4487817 -0.079528876 0.12051514 -0.045789454
-0.24407598 0.15606552 0.26692295 0.005598376 -0.15551648 -0.32579914 -0.08264989 -0.16562963
0.2172232 0.13244732 -0.052645348 0.08905436 0.09032864 0.24511424 -0.14717425 -0.16075002
-0.23280385 -0.14486453 0.054310016 -0.1425314 0.42820448 0.09908311 -0.27062953 0.16112928
0.17228547 0.28774095 -0.14803259 -0.22458519 -0.08359195 -0.044683114 0.5263252 0.11323547
0.19259459 -0.032538243 -0.09914616 -0.32850963 -0.24880303 0.14994526 -0.20525484 -0.13361639
-0.06886089 -0.029012365 -0.13236392 -0.07257795 0.13499796 0.21100903 -0.043647103 -0.11066709
0.21577094 0.3446978 -0.12625973 0.45828357 -0.048361447 -0.21767552 -0.039348513 -0.2660636
-0.26531202 -0.15967369 0.40760905 0.15234819 -0.12688327 -0.07810295 -0.08954051 0.13431264
-0.25711632 0.29284722 0.3472559 -0.20925805 -0.054957762 -0.13259092 -0.24713771 -0.0813659
0.14376059 0.29579878 0.27447313 -0.10577317 0.2588481 -0.083384715 0.38033345 -0.23829442
0.09442445 0.16311476 -0.28885907 0.15899359 0.061085902 -0.23485854 -0.09021278 -0.1683325
-0.21662052 -0.1838886 0.13501625 -0.13560562 0.17724206 0.33876297 -0.09350725 -0.34042576
0.17292105 -0.25900066 -0.09505493 -0.14752387 -0.15170167 -0.1400113 -0.24571696 -0.046041664
0.07849444 -0.07351664 0.16751607 -0.12927857 0.07629668 0.04957426 -0.1974247 -0.18636213
-0.27213275 0.2973543 -0.16795847 -0.2597203 0.15795039 -0.11597297 0.116803214 0.110110804
-0.18024072 -0.058377195 0.14639167 0.2461903 -0.16231982 -0.21542935 -0.16394389 -0.25421464

bias f4 [128]
00000000: de00 05bd 1a3b 5f3d bf0a a53d 825a 13be
00000010: 8a19 773d fa1d 863d 9159 fd3d 58b3 91bd
00000020: eb0c 84bd 6e53 083d 99a5 c43c de84 b33d
00000030: e8da edbd 9607 18be 1061 a93d 3d0e 83bd
00000040: 8247 8bb9 636a ec3d b8d7 323e ceeb 51bd
00000050: 8862 283e 695b 1ebd 79ac 8c3d 25dc 3c3e
00000060: fd71 b83d 55f4 bbbb 58ca 1abe 7e71 6abc
00000070: a47d e03c 3852 c73c 9163 60be 853d 163e
00000080: f4db 5c3d e0c7 1bbd 359d 00be b9da 07be
00000090: ce2a 443c db16 21bd 4ba0 88bc 29be 61bd
000000a0: 72c3 21bd eaac 93bc 3340 703d 4b1d 4e3d
000000b0: 9739 0a3e 72eb e13a 360c c13d 5a22 6d3c
000000c0: b6cb 5c3d 76a8 a1bd 369c b0ba 36b1 3ebd
000000d0: c1bf f7bb a34b 653e 34be 9dbc 8379 41bd
000000e0: 8106 a7bd b45c 363b eea5 72bd c4f4 4f3d
000000f0: 6033 14be 983f 4abd c720 033e fbf1 8d3d
00000100: 65e2 833e b3cb 2a3c 7c15 103d c306 613c
00000110: b02d b2bd 6b00 b5bc f966 4bbe 3866 933c
00000120: 8049 353e fdaa 05bd 37d9 11bd 4055 893d
00000130: 7a30 84be e39b 6d3e 4c87 853d 2d94 ec3d
00000140: 98b8 d6bc bc57 96bd f857 2b3e 5c29 95bd
00000150: fbab e03d 9e4d 543e ef63 6e3e 62f6 07bd
00000160: 222a c83c 0685 adbc f520 febc a43e 9dbc
00000170: d968 b1bc d8c9 95bd ee47 3e3d 63fb 7abd
00000180: 4e22 93bd 5a89 37bd 73b8 36bc 5885 363d
00000190: d6dd 283c 0640 78bd 11d6 8ebd 7684 943c
000001a0: 42ec cabd c4da cd3c f4a5 01be 9071 de3b
000001b0: ac9a adba 249c 9a3d 766a f9bc df2a 8ebc
000001c0: 6f8a 963d 6e40 37be 87d4 533d 18c6 f3bc
000001d0: 70b8 933e b270 033e c2ad ea3d 1f13 023e
000001e0: 6580 613c b6cd 72bc 2e54 a6bc a40d d4bc
000001f0: 8e40 1abe 8493 f93c 7df4 e9bd bbbb 0d3e
-0.03247153 0.054499723 0.0805869 -0.14389995 0.06032709 0.06548686 0.12370599 -0.07114285
-0.064477764 0.03328269 0.024004744 0.08765577 -0.11614019 -0.14846644 0.08270466 -0.063992
-0.00026565423 0.11543729 0.17465103 -0.05125027 0.16443837 -0.038661394 0.06868834 0.18443353
0.090061165 -0.0057359138 -0.1511625 -0.014309285 0.02740366 0.024331197 -0.21912982 0.14671905
0.0539207 -0.038032413 -0.1255997 -0.1326703 0.011973096 -0.039328437 -0.016677996 -0.05511299
-0.03949303 -0.018026788 0.058654975 0.050320905 0.13498531 0.0017236306 0.09426157 0.014473522
0.05390521 -0.078934595 -0.0013474289 -0.04655572 -0.0075607006 0.22392134 -0.019255735 -0.047235023
-0.081555374 0.0027826251 -0.059240274 0.050770536 -0.14472723 -0.049377054 0.12805472 0.0693092
0.25758663 0.010424542 0.03517674 0.013734522 -0.087001204 -0.022094926 -0.198635 0.017993078
0.1770382 -0.03263377 -0.035607543 0.06705713 -0.25818235 0.23203997 0.065199465 0.115517
-0.026211068 -0.07340953 0.16732776 -0.07283279 0.10970303 0.20732734 0.23280309 -0.033193953
0.024434153 -0.021181595 -0.031021575 -0.019194908 -0.02165644 -0.07313889 0.046455316 -0.061274897
-0.071842775 -0.044808723 -0.011152375 0.04456076 0.010306796 -0.060607933 -0.06974424 0.018129569
-0.09908344 0.02512873 -0.12660962 0.00678844 -0.0013244948 0.07549313 -0.030446272 -0.017354427
0.07350623 -0.17895672 0.051716354 -0.029757544 0.28851652 0.12835959 0.11458923 0.12702607
0.013763522 -0.014819553 -0.020303812 -0.02588541 -0.15063688 0.030465849 -0.114235856 0.13841145

weight f4 [512, 128]
00000000: a2b1 8b3b 3135 10bc fe28 36bd a1fe 633d
00000010: dcb5 463d ddab c7bc a016 d13d 0656 1cbd
00000020: 95df eebd 9655 b9ba 25fd 373c 0f1c afbc
00000030: e34a b83d c388 01be e5b7 d7bd a6af ca3d
00000040: ef82 223d 7b22 79bd d58a 503c 213c 2f3d
00000050: 7ed7 0dbd 58a1 5abd bd3b d13c 10c3 5a3d
00000060: 6028 7a3d b375 c8ba ff4f ba3d 55af 19bc
00000070: 6e73 323e 25d2 17bd 9a62 ac3c fc50 713d
00000080: 4dee 99bd 64d5 893d 278e a1bc c250 f2bc
00000090: f97d d0bd 89c6 523c 66b2 883d 163b 3e3e
000000a0: 2b1c f1bd 7e36 943c fe8d ac3c 1a0f b23d
000000b0: e2d7 113c 4328 d83d 11d1 86bd 34c0 593c
000000c0: 414b 6b3d dfcc fd3a 12d9 913d f60e c53b
000000d0: 4e2f 843d 4114 883c 8c53 4dbd 6c24 853d
000000e0: a9ea b3bd 8046 f43c 158e 09be b02c 64bd
000000f0: 2b47 cabd c855 a73c 1575 e5bc 09ea 353d
00000100: 59cf c0bd 4b1f b03d e819 103d b639 3cbe
00000110: 8f6f 953d 9ca5 95bd 56f5 a9bd 4426 cfbd
00000120: 2d18 a2ba b071 be3d 3059 fdbc 6f6e f73c
00000130: 76db 773d 6240 b8bd a447 163c fdd8 dbbd
00000140: dc4b 593d ec40 583d 5ed0 0dbd 4304 37bd
00000150: d8f7 003e a04b e1bd 8eec a4bd c47d 943d
00000160: 9af8 643d d800 bc3d aec1 af3d 0f23 a7bd
00000170: f2c0 ce3d a12c 68bd 5c31 0a3d c4a0 57bd
00000180: d439 b93b 2e1a 4dbd 267d 85bd 91c9 6bbd
00000190: 6261 133d d198 f83a d499 c63a 8dbc 063e
000001a0: 2fd7 933c 0da6 81bc 3891 9e3d cbed c5bc
000001b0: cbb0 34bd 7871 8dbc c449 dfbc d987 02be
000001c0: 42a1 1ebe d0e0 afbc c7f5 ad3d a52a cabc
000001d0: a69e d93d 3068 cbbd 2af5 333e a2ad ff3c
000001e0: 4fe4 393d c2bf 90bd 730a 7a3d 5f6b f4bd
000001f0: 18b3 aabd 74f6 4fbd 927e 353d f185 40bd
00000200: e992 30be 133f b73d 697c 6cbc 5593 89bd
00000210: 669e 44bd 9b14 c4bc 2f2c 073d ccaa 0d3a
00000220: fe9a b23c f6d8 93bd a13f 9bbd 5084 e1bd
00000230: ff11 033d c8ab 243d 3427 f5bd 5eab efbc
00000240: 9ba3 8bbd 72e4 b1bc aec4 99bc 63a0 333c
00000250: 7b67 c2bc fd69 df3d 015d 8e3d a8d8 3b3d
00000260: abcf fdbc fd33 a43c d894 6f3d 26e1 45bc
00000270: 6308 a2bc 69e1 473d 8364 5e3c 39dd b93d
00000280: 9e67 1abe 8969 fdbd 2b3c e8bc 739d f7bb
00000290: f0bf 13be 7071 a53d dd88 3a3d 8497 693d
000002a0: 7f47 d9bd 9917 9c3c dc20 4bbd 20d2 b63c
000002b0: fa89 b5bc 7673 8a3e 5d7b 963c 57ed 20bd
000002c0: c697 eebd a5d2 85bd efa9 2d3d 7c74 3dbe
000002d0: 47ed c83d 0df3 d6bd 7fc9 f0bd e260 07be
000002e0: 699f 4cbd f4e1 593d 6f9c db3c 58df 9e3d
000002f0: 27d0 e6bd 6570 993d d26e e7bd 54ac 1dbe
00000300: b00f 41bd 081e 89bd 7fbf b83d 3e7c a3bc
00000310: 71ea 0dbc 00b8 8e3d 5043 7f3e f8df 1c3e
00000320: e0ad 743d 55d1 f7bc 194e 71bc a2c8 3f3d
00000330: ecfd e1bd c650 9dbc 92e6 bc3d 3f3d 69b9
00000340: 8102 adbc 45ca 9b3c c15d 9f3d 9781 6ebd
00000350: 23fe 9ebd ca9c 56bd 1f73 ea3c 1788 a8bd
00000360: a157 e03d b9c8 cd3c 728b cfbc 1e49 00bc
00000370: 3b77 d4bc f144 843d 5598 d63d bbfa 353d
00000380: 6f60 08bd 9bc6 603c f9e2 c8bd c419 093e
00000390: 7540 de3c f257 d1bc 283e 0d3d f2ed fa3c
000003a0: 277a 903d 1b3a a93c 1198 bb3d 7a5f c13d
000003b0: 4236 a7bd 115d 1fbd a1ef 6c3d 9ee9 85bd
000003c0: 5411 a63d fb1c b8bd d58b dbbd a1dc 86bc
000003d0: a001 91bd 4cc0 a2bc c6f9 ec3d 4697 4d3d
000003e0: 4736 7d3c bf8b 86bd ecaa acbd b985 143e
000003f0: 5313 1abe a2c5 f73b c8f1 ed3d 7c18 d3bd
0.004263119 -0.008801744 -0.044472687 0.055662755 0.04851328 -0.024373943 0.102093935 -0.038167976
-0.11663739 -0.0014139886 0.011229788 -0.021375684 0.089986585 -0.12649827 -0.10533122 0.098967835
0.03967565 -0.0608239 0.012728413 0.042781953 -0.034629337 -0.053376526 0.02554118 0.053408682
0.06107366 -0.0015293866 0.09097289 -0.009380181 0.17426845 -0.037065644 0.02104311 0.058915123
-0.075161554 0.06730154 -0.019721104 -0.029579524 -0.101802774 0.012864717 0.06674652 0.18577227
-0.11772951 0.01809239 0.0210638 0.08694287 0.008901568 0.10554554 -0.06582845 0.013290454
0.057444815 0.0019363425 0.07121481 0.0060137464 0.06454335 0.01661122 -0.050128505 0.065010875
-0.08784992 0.029818773 -0.13433106 -0.05570668 -0.098768555 0.020426646 -0.02800993 0.044412646
-0.094145484 0.08599719 0.035180956 -0.1838139 0.07296669 -0.07306978 -0.08298747 -0.101147205
-0.0012366824 0.09299028 -0.030926317 0.030204026 0.06051203 -0.08996655 0.009172354 -0.107347466
0.05305086 0.05279629 -0.034622543 -0.0446818 0.12594545 -0.110007524 -0.08052932 0.072505504
0.055901147 0.091798484 0.08581863 -0.08160984 0.10095395 -0.056683186 0.03373848 -0.052643552
0.0056526456 -0.050073795 -0.06518011 -0.057565276 0.035981543 0.0018966441 0.0015152046 0.13157864
0.018046943 -0.01582625 0.07742542 -0.02416124 -0.044113915 -0.01726602 -0.027256854 -0.12747134
-0.15491202 -0.021469504 0.08494144 -0.024678538 0.10625963 -0.099319816 0.17573991 0.031210724
0.045383748 -0.07067825 0.06104512 -0.11934542 -0.08334941 -0.050772145 0.04431016 -0.047002736
-0.17243542 0.08947577 -0.014433959 -0.067175545 -0.048002623 -0.023935607 0.03300112 0.0005404174
0.021802422 -0.072191164 -0.075804956 -0.11011565 0.031999584 0.040202886 -0.11970368 -0.029256519
-0.06818315 -0.021715377 -0.018770542 0.010963532 -0.023730984 0.109088875 0.06951333 0.045860916
-0.030982813 0.020044321 0.058491558 -0.012077605 -0.01977939 0.048798952 0.013573769 0.09075398
-0.1507859 -0.12373645 -0.028349003 -0.007556611 -0.14428687 0.08078277 0.04554068 0.057029262
-0.1060934 0.019054221 -0.049591884 0.022316992 -0.022160519 0.27041215 0.018369371 -0.039288845
-0.11650042 -0.06534318 0.04239839 -0.18501467 0.09810882 -0.10495577 -0.11757182 -0.13220552
-0.049956713 0.053194 0.026807992 0.07757443 -0.11270171 0.07492141 -0.11300434 -0.15397769
-0.0471341 -0.06695181 0.090209 -0.019956704 -0.008661852 0.06968689 0.24928021 0.15319812
0.059736133 -0.030251184 -0.014728093 0.046822198 -0.1103476 -0.019203555 0.09223665 -0.00022243428
-0.021119358 0.019017348 0.07781554 -0.058229055 -0.077633165 -0.05239562 0.028619347 -0.08229082
0.10954214 0.025120126 -0.025335047 -0.0078299325 -0.02593576 0.06458462 0.10478274 0.04442857
-0.03329509 0.013719226 -0.098089166 0.13388735 0.027130345 -0.02555463 0.034483105 0.03063104
0.07054549 0.02065759 0.09159864 0.09442039 -0.08164646 -0.038907114 0.057845715 -0.065386996
0.08108774 -0.089899026 -0.1072003 -0.016462626 -0.07080388 -0.019867085 0.11571078 0.050193094
0.015454835 -0.06569623 -0.08431038 0.14504136 -0.15046434 0.0075614015 0.11618382 -0.103074044

bias f4 [512]
00000000: 7b81 c33c 840c be3c 5136 9f3d 8329 a53d
00000010: d50f 1a3b 1958 c5bc ed61 88bc ad4c 163c
00000020: f29d a13c e327 aabc 757b afbc 67ff fdbc
00000030: 043b 1a3d bfdf 7dbd 11db 9cbd cbd5 6dbd
00000040: 2c3b 91bc e25a b8bc 6bde 043e 2a40 2b3d
00000050: d0dc 51bd 3b4a 163d ce4e 8c3d ee0d 5a3d
00000060: aad2 d63c dcfe 7d3d 3ed3 3dbd 8913 7b3d
00000070: 1ce2 1e3d 4c67 2ebd a76c 96bd f2c9 003e
00000080: 453b 1d3d c705 fa3d 8b13 7b3d 12c2 333c
00000090: 3ad8 96bc 1416 053d 3ca7 da3c c712 00be
000000a0: 21f7 6fbd adf5 4bbd 46d5 c53a 5758 133d
000000b0: 4db1 00bd 064f 7d3d e78a a6bc 0a7e f1bc
000000c0: 744d 8d3d 0082 92bc a129 a83d 94aa 5cbd
000000d0: 8683 72bd 03da 283e b021 4a3d cc67 4fbb
000000e0: 5f22 853d 4bfe 8a3c a9fc 063d f8cc 1c3c
000000f0: ed7b 973c 83b5 74bd 7e66 833d 1bf8 ab3d
00000100: 602a 833d cd09 303c f403 43bd 9ae9 5bbd
00000110: 052e 8abd e01f 6bbd 3ef8 86bd 51f9 94bd
00000120: 084e 293d 548d 8c3b 6f08 6a3d fe81 9d3d
00000130: 13f5 8ebc 9e0d 20bd 7d4a 373d 9895 08bd
00000140: 0a2e b3bc 8a67 79bd ed54 a73d eada aa3d
00000150: 4189 343c 6cb6 063e c348 023e e7c3 763d
00000160: 6777 dcbd 0dc7 eebd cfe1 89bd f8fe 503c
00000170: 5279 f6bc 780c 103d 45c7 93bc e14f 963d
00000180: 847b 27bc 5684 053e fa84 53bd b1cc f8bc
00000190: 042b 953d 32d9 ab3d 7392 b0bc d483 033e
000001a0: 4343 23bc 4423 9dbd 9ac0 b3bc 0580 db3c
000001b0: 092c 61bd 7e91 bbbd a445 d7bd 72be 42bd
000001c0: 15cd b53d 1bf0 a3bd 9869 39bb 73b5 b23b
000001d0: 1f75 843d 2530 33bd f4ba 35bd 9506 a83d
000001e0: 90c4 783d 9115 a33d 5e0f bebd ad39 75bd
000001f0: ae1c c4bd 0a61 a53d 810e 8fbc 3554 9a3b
00000200: 15c1 083e 4d8f d63d 7d1a 353d e381 73bc
00000210: 225f 873d 0e0e 8fbd e80f a5bb 078b 0bbd
00000220: aa40 04be 28be 413d 32be c03d 04ec 8e3c
00000230: 90b3 013c 0b49 153d 4285 b43d 6c6f 1cbd
00000240: 8536 66bd fa8c 553d b5cf 1b3d 12e7 9a3d
00000250: e8a2 c33b 77cc 05bd 890d d5bc 0a68 3cbd
00000260: a119 bf37 4880 dcbc e954 6b3b 11ca 0a3d
00000270: 52bc 713d 3e7b b23d 9751 18bc 0efa 0a3d
00000280: dbb3 083d 6cf0 be3d 162f 4d3d f747 c13d
00000290: 0d37 df3d c04e d73d 351b fa3c 0b59 27bd
000002a0: a3d6 013d d6ff 97bd 827f 3fbd d386 b83c
000002b0: ef78 6cbd 4536 c33d 1558 d53d 53be 6bbd
000002c0: f07b a43d ae2d 9e3c e5ab 01bd 5d6b d2bd
000002d0: 8f0d 563d 9f92 0d3e 3794 60bc 4bad f1bc
000002e0: af78 b93c bef3 193d ee8f db3c ca73 cebd
000002f0: d9d4 2abd 8a2e cfbd 2fef 09bd 7865 553d
00000300: f6bd 78bc 1cf1 973d d5b1 17bd 79b6 1cbd
00000310: f8de 4e3c fd9d 0abd 8bd4 8ebd 0f6b 7abd
00000320: 94df e53d d9fd 64bd 4087 cebd 6d1c 933c
00000330: 0a34 7d3d e3a4 8cbd 028f 08bb 278f 153c
00000340: d7fb f13c 681d 9c3c 2e35 f33c 155c f43c
00000350: 5755 ef3d 3ca9 ca3d 6726 763d 5878 db3d
00000360: 4f2f b9bc dd69 18bd 6e35 39bd 4c5c 91bd
00000370: 3f5f 08be 78de 2fbd aa2f 09bd 9efe 073d
00000380: 446d b33c b7b1 4d3d fad2 243c f98c 0bbc
00000390: 9aa9 2b3d 4735 60bd d107 9ebd c356 fe3d
000003a0: 3b11 adbd df80 303d 7fa0 8b3d 1203 ba3c
000003b0: f50a d53d 906b 11bd fc01 64bd 93dd 8dbb
000003c0: 172a d13c c481 efbc 8366 3e3c a390 38bd
000003d0: 6cca 223d 58a8 1f3d b996 05bc 9398 993d
000003e0: bb87 4b3c 70f5 d4bc 0a71 d2bc d7b7 a53c
000003f0: fc70 1ebd 700c 05bd 685d 5f3d 1b9f 8e3d
0.023865452 0.023199327 0.07774032 0.08064558 0.0023507972 -0.02408986 -0.016648257 0.009173554
0.019728635 -0.020770973 -0.021421174 -0.031005574 0.037653938 -0.06198096 -0.07658971 -0.058065217
-0.01772841 -0.022504274 0.1297547 0.04180924 -0.051235974 0.036691885 0.06850968 0.05323594
0.0262235 0.06201063 -0.046344034 0.061297927 0.038789853 -0.04257898 -0.073449425 0.12577036
0.038386602 0.12208133 0.061297935 0.010971563 -0.018413652 0.03249176 0.026691072 -0.12507163
-0.05858529 -0.04979484 0.0015093468 0.03597292 -0.031419087 0.06184294 -0.020329906 -0.029479045
0.06899539 -0.017884254 0.08211065 -0.053873613 -0.05920746 0.16489415 0.049348533 -0.003164756
0.065006964 0.01696696 0.0329558 0.009570353 0.01849171 -0.059743416 0.06416033 0.08396932
0.06404567 0.010744524 -0.047611192 -0.053689577 -0.06747059 -0.057403445 -0.06590317 -0.07274116
0.041334182 0.0042893086 0.05713695 0.0769081 -0.017450845 -0.039075486 0.044748772 -0.03334579
-0.02187254 -0.06088976 0.08170495 0.08342536 0.011019052 0.13155526 0.12723069 0.06024542
-0.10764962 -0.1165906 -0.06732523 0.012756102 -0.030087147 0.03516814 -0.018039355 0.073394544
-0.0102223195 0.13038763 -0.05164049 -0.030371042 0.07283595 0.08391036 -0.021554207 0.12843257
-0.009964767 -0.07672742 -0.021942426 0.026794443 -0.054973636 -0.0915861 -0.1051133 -0.047544904
0.08877007 -0.08004781 -0.0028291699 0.0054537593 0.064676516 -0.043747086 -0.044367746 0.082043804
0.06073433 0.07963098 -0.09280275 -0.059869457 -0.09575783 0.08075149 -0.01746297 0.0047097453
0.13354905 0.10476551 0.044214714 -0.01486251 0.06609942 -0.069851026 -0.0050372966 -0.034068134
-0.12915292 0.047300488 0.09411277 0.017446525 0.007916346 0.036446612 0.088144794 -0.038192198
-0.056204338 0.0521364 0.03803988 0.075636044 0.0059703477 -0.032665696 -0.02600743 -0.045997657
2.2780909e-05 -0.026916638 0.0035908765 0.03388411 0.059017487 0.08714913 -0.009296796 0.033929877
0.03337465 0.093232006 0.050093733 0.09437554 0.10899172 0.10513067 0.030530551 -0.040856402
0.031698834 -0.07421844 -0.04675246 0.022525227 -0.05773252 0.095318355 0.10417191 -0.057554554
0.08031452 0.019308891 -0.031658072 -0.10274384 0.052259024 0.13825463 -0.013707212 -0.029501578
0.022640554 0.037585966 0.02680203 -0.10080679 -0.041706894 -0.101162985 -0.03367537 0.05209872
-0.015182009 0.07419035 -0.03703483 -0.038259957 0.012626402 -0.033842076 -0.06974133 -0.061137255
0.11224285 -0.05590615 -0.10084391 0.01795789 0.061817206 -0.06867387 -0.0020837192 0.009128368
0.029539032 0.01905699 0.029688444 0.029829064 0.11686199 0.0989556 0.060095217 0.10716313
-0.022605566 -0.037210334 -0.04521697 -0.07097682 -0.13317584 -0.042936772 -0.03349272 0.033201806
0.021902688 0.05021831 0.010060066 -0.008517497 0.04190979 -0.05473831 -0.077163346 0.12418892
-0.08450552 0.04309165 0.068177216 0.022706542 0.104024805 -0.03550297 -0.055665955 -0.004329392
0.025532765 -0.029236682 0.01162112 -0.04505981 0.039743826 0.038978904 -0.008153611 0.07499804
0.012422497 -0.02599594 -0.025688667 0.020229263 -0.03868197 -0.032482564 0.05453244 0.06963941

weight f4 [512, 128]
00000000: 72fa 78bb 2708 63bd 0b44 ca3d 4263 27bd
00000010: 6265 a3bd 03ca b43d 32be 3f3d cdc2 ebbd
00000020: ea13 3f3c 88b2 eebc 0179 92bd 1093 32bb
00000030: 3f82 88bd efa0 763b d32f a63d 40af dc3c
00000040: f6e4 e1bd cf31 a63c 79f9 4e3d b7af ac3d
00000050: c2c6 5e3d 0043 15bd a032 69bc 5efe a53c
00000060: 8d73 cf3d 2d1f e53d 8fa5 343c 085f 9e3d
00000070: b9f4 123e 5495 37bc d48a 24bd 55b1 e5bd
00000080: e79d ac3b 86b8 c93d 59f8 bebd 6d81 e7bb
00000090: e8cd ea3d 6157 863c 67cb 873d 176d ec3c
000000a0: 6628 eb3d 5922 1fbd 3970 21bd 5d9d 563c
000000b0: 2621 91bd 28bc 23bd 704e 28bd 9171 903d
000000c0: b1e5 2f3d 09a5 cc3b 9014 a3bd 3b6a 19bd
000000d0: 5378 b1bd fd51 bb3d daeb 963d 8b57 1d3c
000000e0: 2070 19bb 2dd6 69bd c688 d1ba 6f2c 4bbd
000000f0: c2eb 553c 03b9 94bd 26a4 7c3d 42f2 0d3d
00000100: 23be 86bd 8c2b cd3d e000 2bbd 13dd bd3b
00000110: a162 12bd bf0b 25bd dff2 c03c 0080 433b
00000120: 0bef debd 05f8 423c 4afc 86bd 3a78 15bd
00000130: 374d bf3c 4c89 883d 44b0 bfbb 9962 3ebe
00000140: c241 353d 8739 8f3d d43d 70bd f694 713d
00000150: ddd5 043d 7209 b5bd 142d 42bd 2c6f b5bc
00000160: 8966 903d e3fd 003a 6df2 863c 29c8 273d
00000170: 4dca e03c f096 873c c241 85bd 3332 233d
00000180: 25c1 023e f074 403c d458 cbbc defe adbc
00000190: 8930 b8bd 2a85 383c 4f7b c5bc 9eb0 973d
000001a0: 103a b23d a0d7 8b38 0022 7dbc 0233 eabd
000001b0: 14fe aabd fac3 4abd 8a88 71bd e34c 873d
000001c0: c429 41bd 4f49 7ebd a2cd 16ba 5d17 e2bd
000001d0: 5f41 0e3d 2e56 b1bd 3585 343d be94 30bd
000001e0: 578f d03c 5a08 cf3c 8b5d 123e e425 41bc
000001f0: 02ad b73d 3898 d33c 82d0 423d e8b7 ae3d
00000200: f1db adbd 33a6 993c 888b 963d 542e d5bd
00000210: 9c24 cc3d f14e 56bd e9da b03d 3256 6c3d
00000220: 61bc 9d3d cc44 3c3d 4c07 413d 2825 a0bd
00000230: 7cf1 e439 a049 cbba 8eb4 2a3d 93c7 32bd
00000240: 5b7d 1b3d daf5 88bd ddd4 bbbd 0b9f 86bd
00000250: 36fc 72bd 3099 973d bffe 8abd 7132 ccbd
00000260: fb38 933c d89c c4bd 34ce 3ebd 023c ad3d
00000270: 26ea 343d 00dd 9c3d 7d86 593d f30a 8f3d
00000280: 75fa 72bd 7eb6 3e3c 89ae 37bc a05c c03d
00000290: c5b9 7d3d aba6 af3d b2a8 76bd d3e0 7a3d
000002a0: 3760 43bb f121 b8bd f82b b63b c587 c43d
000002b0: 5f47 47bd 05dd 9b3d 232e b23d 5384 95bc
000002c0: e1c9 003d c8e1 c03b 7af4 8bbd 70a0 b6bd
000002d0: 289e 94bd cc12 98bd 6223 8cbd 722c 0abb
000002e0: 4f8c d5ba c936 013d 62fa 92bd c59a ca3d
000002f0: c039 89bb 5460 833c 4ded acbb 9fa9 6bbd
00000300: e2b0 953d 69d3 57bc 214f 023d 6480 993d
00000310: 0537 2c3d b3b5 ae3c c730 17bd 555e b4bc
00000320: 2ed4 3bbd e981 e1bc 0152 d6bd 0137 a83c
00000330: fc9f 983c 16f2 cabc 9df3 01bd b968 5fbd
00000340: bbb3 18bd 6127 44bd 3111 6c3d 9e45 c5bc
00000350: 24dc 8b3a ee4d 51bd 6579 bdbc 01b2 8fbc
00000360: 65c3 adbd 66a2 f6bc 0912 6c3d 46ff afbd
00000370: 76fb f23c 4f55 813d 9233 88bd e351 01bd
00000380: 35de a53d 63b3 c1bd 2591 d5bd 3703 ec3b
00000390: 8b3a 6f3c bde5 fb3c 68fd 8fbd 04cb d73c
000003a0: 7f97 cbbd 9f11 183d adfe 8abd 00a2 4c3c
000003b0: d2bd 2fbd 8298 53bd d585 063a d096 833c
000003c0: b5d9 193c fac2 00bc f1fd ee3c 90b2 953d
000003d0: 59ec a23c 080d a7bd f2ee b33c 3b90 bebd
000003e0: 006a 95bc 6efb 9fbd 7749 1d3d e3da b5bd
000003f0: 19b0 60bd 2ea5 083d 17b2 c13d 3ca9 f2bc
-0.0037991074 -0.055427697 0.098762594 -0.040866144 -0.079783216 0.08827593 0.046812244 -0.11511765
0.011662463 -0.029137865 -0.07151986 -0.00272483 -0.066654675 0.0037632545 0.081145905 0.026939034
-0.11029999 0.020287422 0.050530884 0.084319524 0.05438877 -0.03644085 -0.014233261 0.020262893
0.101294614 0.11187587 0.0110258 0.077329695 0.14351167 -0.011205036 -0.04017146 -0.11215464
0.005267847 0.09849648 -0.09324712 -0.0070649893 0.11465055 0.016399087 0.06630593 0.028860612
0.11482315 -0.038851116 -0.039413664 0.013099042 -0.07086401 -0.03997436 -0.04109043 0.07052911
0.04294366 0.0062452597 -0.07962906 -0.037454825 -0.08665528 0.091464974 0.07369204 0.009603391
-0.002341278 -0.05708902 -0.0015986196 -0.049602922 0.013056697 -0.07261851 0.06167998 0.034654863
-0.065792345 0.100180715 -0.04174888 0.0057941764 -0.03573859 -0.040294405 0.02355331 0.0029830933
-0.108854376 0.011899953 -0.06591089 -0.03649161 0.023352249 0.06666812 -0.00584987 -0.185923
0.044252165 0.06993394 -0.058652714 0.05897995 0.03243052 -0.08839692 -0.04740627 -0.022147737
0.07050807 0.00049206446 0.01647302 0.040962372 0.027440215 0.016551465 -0.06506683 0.039842796
0.12768991 0.01174663 -0.02482263 -0.021239694 -0.08993632 0.011262218 -0.02410665 0.07406734
0.08702481 6.6682e-05 -0.015450001 -0.1143551 -0.08349243 -0.049503304 -0.058968104 0.06606462
-0.04715897 -0.06208163 -0.00057526876 -0.110396124 0.03473031 -0.086590156 0.04407235 -0.0431106
0.025458975 0.025272537 0.14293496 -0.011788819 0.089685455 0.02582942 0.04756213 0.08531171
-0.08489216 0.018756008 0.07350832 -0.10409227 0.0996792 -0.05232138 0.08635504 0.05769939
0.07701946 0.045964047 0.0471261 -0.07819587 0.0004366747 -0.0015509613 0.041676097 -0.04364736
0.037961345 -0.066875175 -0.0917146 -0.06573304 -0.05932256 0.07402265 -0.0678687 -0.099705584
0.017971506 -0.09600228 -0.04658337 0.08458711 0.044168614 0.0765934 0.053106774 0.0698451
-0.059320886 0.011640189 -0.011211046 0.09392667 0.06194474 0.08576711 -0.060219474 0.061249565
-0.0029811987 -0.08990849 0.0055594407 0.095962085 -0.04865205 0.076105155 0.08700206 -0.018251574
0.031442527 0.00588629 -0.068337396 -0.0891732 -0.072567284 -0.0742546 -0.06842686 -0.002108362
-0.0016292426 0.031546388 -0.07176663 0.09892801 -0.0041877925 0.016037144 -0.005277312 -0.05753481
0.07309128 -0.013172963 0.031813744 0.07495192 0.04204466 0.021326875 -0.036911752 -0.022017637
-0.045856647 -0.027527766 -0.1046486 0.02053404 0.018630974 -0.024773639 -0.03172647 -0.05454323
-0.03728078 -0.047889117 0.057633583 -0.024081048 0.0010670465 -0.05109971 -0.023129174 -0.017540934
-0.08484534 -0.030106734 0.057634387 -0.085936114 0.029660922 0.063150994 -0.06650461 -0.031572234
0.08099023 -0.094580434 -0.10428075 0.0072025317 0.01460136 0.030749196 -0.07030755 0.026341923
-0.09941005 0.03712618 -0.06786857 0.012489796 -0.042905636 -0.051659115 0.0005131637 0.016063124
0.009390284 -0.007858986 0.029173823 0.07309449 0.01988809 -0.081567824 0.021964524 -0.093048535
-0.018239021 -0.07811628 0.03840014 -0.0887964 -0.05485544 0.033360653 0.09457796 -0.029621713

bias f4 [512]
00000000: 1f1d 2ebd 3b22 d33d 3f0e 393d b166 88bc
00000010: 2f36 01be 52ec 29bd 81ef 22bd d06b 01bd
00000020: e4c7 6cbc 5ba5 fcbd 0a5b 823c 2c82 713d
00000030: 1a53 e4bd 0789 f43c c357 fcbc 52fb b1bc
00000040: 27e7 1dba 9aa9 81bd d75b 3cbb 0778 39be
00000050: e81e b03d 4680 05bd c6f4 00be b74c 633d
00000060: 1367 f2bd 0af3 0c3d 6959 a3bd 5063 f53c
00000070: c6bb b9bd e013 64bd bc26 56bd b285 2c3c
00000080: 9aec f13c c49c cf3c 0d7c 19be b43c 773d
00000090: f3a2 4e3d ecc4 9abb f24d 863d 81a3 ccbd
000000a0: 3135 89bc 0020 10bd 6b9b 82bb 9d5e 353e
000000b0: 0c1e 9b3d 4c2c 9d3d f51f 0ebd 8df4 31bd
000000c0: 6322 a33c 1a76 3d3c 7c34 5dbc d999 70bd
000000d0: 636f 33bd 9f93 eebd ec1b 093d c83a dabd
000000e0: bbd4 f23d 7671 df3c 4966 02bd f379 c7bd
000000f0: 1b23 74bc 4715 e1bb b33e a73d 4a1d 603d
00000100: b55b 223c c819 aabd e8b9 b2bd df01 50bb
00000110: 564b 37bd 2e82 a53d c056 eb3c cede b73d
00000120: aa55 1ebd 9d4f 9cbd 7aa3 2a3c bc54 563c
00000130: 0a5b 703d 49d6 733d 0d5c e0bd 5780 a9bd
00000140: 75be ec3c 71f5 943d d6d8 b4bc 1dfa 8cbd
00000150: 6b0e 2ebd bdf4 3dbd 9cda f73c f564 04bd
00000160: 5c10 a0bd 6df5 933d 5fd8 d13d 903e 6abd
00000170: 1f9e 97bd 807d 103e d24e eebc 22f7 6fbd
00000180: 9746 ccbd ef5b a13d 605d 123d f7ef a5bd
00000190: b3b8 13be 2685 68bc c6b5 7b3d b833 d03d
000001a0: 5bd8 ac3d 44a2 8b3d 6b62 c43d c4f0 18bd
000001b0: fd3d 6abd cd8b d1bd 5a41 0639 9f48 1e3d
000001c0: bf8a 33bd 9bc9 833c 717b 88bd c9a7 cfbd
000001d0: 7dc3 a4bd 7b99 8dbd 573f cdbd 4f47 d33d
000001e0: 3e7e 163d 947f 313d 1ae3 ecbc d379 023d
000001f0: ff18 34bd 7c4c f8bc 9f0d b13c 3083 7fbd
00000200: baba 8cbc 552d 2dbd 9d4e 5cbd f587 cbbd
00000210: f775 543d aacc 2f3d 9444 84bc 7ee5 7dbd
00000220: 2537 03bd 85ff 84bd c4af 723c 112f 593d
00000230: b06c 6dbe fc25 ea3d d314 3dbd fc52 87bd
00000240: bb93 873d 1629 193d 69e4 b6bd 6f10 483d
00000250: 97d1 bfbc 037a 8abd 5cd5 ae3c 3674 833c
00000260: 6077 443c 262a 54bd 84b2 b1bc 806d 4c3d
00000270: 5ce3 793d 8061 223c 5d15 b43d 8f55 bf3c
00000280: dd9a 64bd a741 353d fd0b 1a3d 49b2 9a3d
00000290: 0baa 5e3c bad6 06be d7fc 2b3d 3eba 98bc
000002a0: 6c99 0dbd 53c0 113e 3c66 aebd ee27 a3bd
000002b0: ece5 44bd 50ca 793c 8d80 1e3d 6616 013d
000002c0: a5c4 11bd 52fe 6dbd d248 8dbd 07dd b03d
000002d0: ef9a e9bd b8ef 95bd 4977 a1bc eb9c 223d
000002e0: aba2 8bbc b493 2b3e bb5f f13b e5ab cf3d
000002f0: 9f54 163c 2c78 52bc 3d46 d93d df77 35be
00000300: beb6 4fbc db70 e2bd 58f3 a7bd 9c14 9cbd
00000310: 0b5f 0c3d eea8 a73d 6e9d 643d cd0a f0bc
00000320: 0c66 2cbe 3eb4 7e3c 535b b23d 2c7e cf3d
00000330: c2c3 843d c876 183d 8e14 5a3a f0b8 a83d
00000340: fdf9 a9bd 79dd 13bd fb4f 3d3c 4ae4 68bc
00000350: bd2f 783d 111d 853d 3713 96ba deeb 31bd
00000360: 5168 c4bd eff5 3c3d f561 30bd dc52 b83b
00000370: d30e 2bbd e17a 633d a773 f4bc 5304 1dbc
00000380: dc66 b73c 2d2f 7c3d 4590 f1bd 6061 c7bd
00000390: 6c71 a3bd 1537 e8ba 7258 0f3e ced1 ed3d
000003a0: be05 32bd a706 c0bd 99d0 2fbd a530 923d
000003b0: 58d3 103d a60f 51bc 9637 263d 0d1a 16bd
000003c0: 98c3 e93c c669 49bd 067e e7bb c3e1 bd3c
000003d0: 97ae 9c3d eaac 2c3e d42c 32bc 1216 d4bd
000003e0: 6a00 203d b822 163d d329 00bd 5d42 c23d
000003f0: 9c3f a73d 477e 9f3c ec17 10bd b277 e0bd
-0.04250824 0.10309263 0.0451796 -0.01665053 -0.12618326 -0.04148514 -0.03977919 -0.03159696
-0.0144519545 -0.123362266 0.015912551 0.058962032 -0.11148663 0.029850496 -0.030803567 -0.021726284
-0.0006023519 -0.06331177 -0.0028741264 -0.18112193 0.08599645 -0.032593034 -0.12593374 0.055493083
-0.11836066 0.034411468 -0.07976038 0.029954582 -0.09069018 -0.055683017 -0.052283034 0.010529922
0.029531766 0.025343306 -0.14988728 0.060360625 0.05044837 -0.004723182 0.06557836 -0.099921234
-0.016748996 -0.035186768 -0.0039858124 0.17711873 0.0757409 0.076744646 -0.034698445 -0.043446112
0.019913858 0.011563802 -0.013501283 -0.05874047 -0.0438074 -0.1164925 0.033473894 -0.10655743
0.11856981 0.027275782 -0.031835828 -0.09740057 -0.014900948 -0.0068689915 0.08166256 0.054715432
0.00990956 -0.08305699 -0.08726865 -0.0031739397 -0.04474958 0.080814704 0.028727889 0.089780435
-0.038655914 -0.076323725 0.010414952 0.013081726 0.05868057 0.05953053 -0.10955057 -0.08276432
0.02889941 0.07273377 -0.022076052 -0.06883643 -0.04249422 -0.04637598 0.030255608 -0.032322843
-0.0781562 0.07224546 0.10246348 -0.05718857 -0.07403206 0.14110374 -0.029090319 -0.058585294
-0.099744014 0.07878863 0.03573358 -0.0810241 -0.14425926 -0.014191901 0.06145265 0.101661146
0.08439704 0.06818059 0.09589084 -0.037338987 -0.057188023 -0.10231743 0.00012803581 0.038643476
-0.04383349 0.016087344 -0.066641696 -0.10139424 -0.08045099 -0.0691404 -0.10021847 0.103163354
0.036741488 0.04333456 -0.028916884 0.031854462 -0.04396915 -0.030309908 0.02161294 -0.06238097
-0.017178882 -0.04227956 -0.05378591 -0.09938041 0.051870313 0.042919792 -0.016145982 -0.06198644
-0.03203501 -0.06494049 0.014812414 0.0530234 -0.23185992 0.11433026 -0.046162438 -0.06607625
0.06619974 0.0373927 -0.089302845 0.048843797 -0.02341537 -0.06761553 0.021341972 0.016046625
0.011991352 -0.05179801 -0.021691568 0.049909115 0.061007842 0.009910941 0.08793137 0.023356227
-0.05581175 0.044252064 0.03760909 0.075535364 0.013590346 -0.13167849 0.041989174 -0.018643495
-0.034570143 0.14233522 -0.085155934 -0.079666 -0.048070833 0.015245989 0.038696814 0.0315155
-0.035587925 -0.058103867 -0.06898655 0.086359076 -0.11406504 -0.07321113 -0.0197102 0.03970043
-0.01704534 0.16755563 0.0073661483 0.10140208 0.009175449 -0.012846034 0.106091 -0.17721508
-0.0126778465 -0.11056682 -0.08200711 -0.076211184 0.034270328 0.08186518 0.0558142 -0.029302025
-0.16835803 0.015545903 0.08708825 0.10131487 0.0648265 0.037222654 0.0008319103 0.08238399
-0.082996346 -0.036099885 0.011554713 -0.014214585 0.0605924 0.064996846 -0.0011449818 -0.04343783
-0.09590209 0.046132978 -0.04306217 0.005625112 -0.041762184 0.05553711 -0.029840304 -0.0095835505
0.022387914 0.061568428 -0.11795095 -0.0973537 -0.07980618 -0.0017716611 0.13998583 0.11612283
-0.043462507 -0.09376269 -0.042923544 0.071381845 0.035357803 -0.012760079 0.040580355 -0.036645938
0.02853565 -0.04917314 -0.0070645837 0.02317894 0.07650488 0.16862836 -0.010874946 -0.10355772
0.039062895 0.036654204 -0.031289887 0.09485314 0.081664294 0.019469393 -0.035179064 -0.1096033

weight f4 [128]
00000000: deb4 763f f568 8c3f fe0a 8a3f 35d5 843f
00000010: 330d 933f c11a 903f 40f4 883f 7a7d 843f
00000020: 7a8e 813f 1693 5b3f e514 8a3f 78c4 863f
00000030: ace5 a13f c561 943f c96b 813f f14b 8d3f
00000040: 1943 9b3f 5e01 7d3f 24f0 893f 4eff 7e3f
00000050: 2870 813f 6c6c 683f 65f9 6b3f 58b7 773f
00000060: 8536 943f 63ea 8b3f 2784 7b3f 100d 943f
00000070: 21c6 753f 87fe 8f3f dc21 7f3f c823 8b3f
00000080: 4999 993f 6a20 873f b102 853f 97a8 7e3f
00000090: d26c 863f ff70 8b3f 16d1 753f 8e3a 833f
000000a0: 1a8f 743f 56b3 7d3f 7eec 7b3f fd4a 7e3f
000000b0: 4394 973f 56be 683f 2183 8c3f c151 5d3f
000000c0: d60b 803f 45d9 8d3f d760 953f ca26 793f
000000d0: cf63 8a3f 5fb5 8f3f 645c 823f 9dea 953f
000000e0: a6a7 813f 4952 8c3f c3d6 823f 7655 8d3f
000000f0: b506 803f ae92 813f 40be 8e3f 5d46 753f
00000100: 9a78 953f 792d 713f 292a 7d3f 6a21 823f
00000110: 368b 6c3f 8b84 9c3f 46a6 873f 6567 6d3f
00000120: a220 8f3f da2f 853f 5ac1 853f 9975 8f3f
00000130: 67fa 793f 1062 883f 4661 683f 9560 823f
00000140: 46d3 843f cef7 7e3f 933b 723f 06dc 7a3f
00000150: 5ed2 903f e816 813f 730a 8b3f 23d9 aa3f
00000160: 42e2 5e3f 779d 833f 4159 703f efd9 753f
00000170: 5cbd 6e3f 3e81 963f 2ba3 863f bba2 873f
00000180: d086 803f de06 6d3f ed7b 8b3f e59c 723f
00000190: ead5 813f 5e5e 6a3f c548 853f 9c70 a03f
000001a0: 3e12 983f a030 803f 1fbc 8c3f 8d8e 873f
000001b0: d9a3 823f ff8f 5d3f fdaf 653f d9f0 823f
000001c0: e21b 953f 02ab 853f 4c8d 7f3f ba56 903f
000001d0: 9462 8c3f 95df 973f ffcc 8c3f 5f3f 873f
000001e0: 65dd 873f 1d4b 553f c3c9 7a3f b1ae 833f
000001f0: 08f8 a13f 8aa9 8b3f f0e6 893f 4cf4 863f
0.9636973 1.096953 1.0784605 1.0377566 1.1488403 1.1258165 1.0699539 1.0350792
1.0121605 0.8577131 1.0787627 1.0528708 1.2648215 1.1592337 1.0111018 1.10388
1.2129852 0.9883021 1.077641 0.99608314 1.0112352 0.9079044 0.9217742 0.96764135
1.1579138 1.0930904 0.98248523 1.1566486 0.96005446 1.124955 0.9966104 1.0870295
1.1999904 1.0556767 1.0391446 0.99476 1.0501959 1.0893859 0.96022165 1.0252244
0.95530856 0.9910177 0.98407733 0.99333173 1.1842121 0.9091543 1.0977517 0.8645287
1.0003612 1.108193 1.1670178 0.9732481 1.0811709 1.1227225 1.0184445 1.1712223
1.0129287 1.0962611 1.022179 1.1041706 1.0002047 1.0122888 1.115181 0.9581049
1.167743 0.9421001 0.98892456 1.0166447 0.9239992 1.2227949 1.0597618 0.9273589
1.1181834 1.0405228 1.0449631 1.1207763 0.9764771 1.0654926 0.9077343 1.0185724
1.0376976 0.9959687 0.94622153 0.9799198 1.1314199 1.0085115 1.0862564 1.3347515
0.8706399 1.028243 0.9388619 0.96035665 0.9325769 1.1758192 1.0518545 1.0596536
1.0041142 0.92588603 1.0897194 0.9477065 1.0143406 0.9155024 1.0412832 1.2534366
1.1880567 1.0014839 1.099491 1.0590378 1.0206252 0.86547846 0.8972166 1.0229751
1.1649134 1.0442812 0.99824977 1.1276467 1.0967584 1.1865107 1.100006 1.0566214
1.0614439 0.8331774 0.97964114 1.0287687 1.2653818 1.0911114 1.0773602 1.0543303

bias f4 [128]
00000000: 41b5 4ebe ada4 b63a afb4 2e3d 8df0 1ebe
00000010: c6be 3ebe 14f5 533d 0e78 e6bd c93a 8d3d
00000020: 84b3 1cbe 6df9 1bbe 0d23 d13d 8b37 b1bd
00000030: a4e4 c9bd cc58 29bd 2856 1dbd 5e39 043e
00000040: c676 f03d b1ad 00be 9309 3f3e 1b73 943d
00000050: 0e14 ab3c c7e1 263c 474d d4bd 6690 2e3e
00000060: a627 393e 259c 223d 5e9d 4d3d cebf 8bbd
00000070: 8a32 babd 8c00 24be ae9c a6bd 1da3 1b3e
00000080: 9d99 b93d 0387 823d 6242 4c3c bbf5 8c3d
00000090: 1aff 723d 7b7f 91bd 1559 8f3d 204b 223e
000000a0: 5392 b8bd 4f65 d33d bcf6 ffbd 2d5b 89bd
000000b0: cf92 99bd cd62 24be 5cd9 673d d8df 813d
000000c0: 2edc a3bc 23de 703d 1290 07bc 19ec 35bd
000000d0: 7ab6 16be b1bb 5c3d 8bf2 8cbd 85d9 9dbd
000000e0: f309 ebbd fa25 fabd 999d 58bd 131d c73d
000000f0: a903 c3bc 2a95 12be 919a 91bd d7bb d7bd
00000100: 7d4a 0bbe 5e43 793d b29e b33d 2cb7 2abd
00000110: 136b f73c 54c2 cabd 7ca9 b53d e269 193e
00000120: 9fb5 923c 1b29 04be 32fe e93d 71c3 cdbd
00000130: 57c0 553d b893 843d 4567 483d 3e85 3c3d
00000140: b108 973c e199 f4bd 1954 ef3d 7a21 1bbd
00000150: 1962 16bd 205c e53d 9609 dbbd 1be8 20bd
00000160: fceb d4bc 7c5c 8bbd 6940 813c 5853 123d
00000170: 2b70 f93b 35da b53d 55c0 f8bd 2999 c7bd
00000180: 1e5b ef3b e634 1bbd 5549 05bc cba5 72bb
00000190: cbfa b03d 196f 913d eeef 01be 442a b73d
000001a0: a9d2 333d 5f67 7d3e 2e62 47be a97c a33d
000001b0: dc87 3dbd 7279 8dbd 4152 7a3c 170d cebd
000001c0: 2ecc c6bd 7de3 fbbd 6e16 4dbb 26ac a93c
000001d0: 0460 19bc 6e62 3cbd e054 75bd 10d7 18bd
000001e0: e827 663d 066d bb3d cde8 a43c cbe9 2b3d
000001f0: 52bf e43c d9cf 973d 10c0 3cbe 1894 bbbd
-0.2018633 0.0013934575 0.042652782 -0.1552145 -0.18627462 0.051747397 -0.11253367 0.06895978
-0.15302855 -0.15231867 0.102117635 -0.08653172 -0.09858063 -0.04134445 -0.038412243 0.12912509
0.11741404 -0.12566258 0.18655996 0.07248517 0.020883586 0.010185665 -0.10366302 0.17047271
0.18081531 0.039699692 0.050198905 -0.06823693 -0.09091671 -0.16015834 -0.08135353 0.15198942
0.090625025 0.06373408 0.012466999 0.06882807 0.059325315 -0.07104393 0.06999413 0.1584897
-0.09012284 0.103220575 -0.12498233 -0.067068435 -0.07498705 -0.16053315 0.056603774 0.06341523
-0.02000245 0.058805596 -0.008274095 -0.044414613 -0.14718047 0.053889934 -0.06882199 -0.07707504
-0.11476507 -0.12214275 -0.05288467 0.09722342 -0.023805456 -0.14314714 -0.07109559 -0.105338745
-0.13602634 0.060855262 0.08770503 -0.041678593 0.030202424 -0.099003464 0.08870217 0.14981797
0.01790887 -0.12906305 0.11425437 -0.10047043 0.052185383 0.064734876 0.04892661 0.046025507
0.018436762 -0.119434126 0.11685962 -0.037873723 -0.036714647 0.11199212 -0.10695188 -0.039283853
-0.025991432 -0.06804749 0.015777783 0.035724014 0.0076122484 0.0887951 -0.121460594 -0.0974601
0.007304563 -0.037892245 -0.0081351595 -0.003702509 0.08641585 0.07101268 -0.12689182 0.089436084
0.043902073 0.24746464 -0.19471046 0.079827614 -0.046272144 -0.069079295 0.0152784 -0.100610904
-0.09706913 -0.12299249 -0.0031293887 0.02071197 -0.009361271 -0.045992307 -0.059895396 -0.037314475
0.0561904 0.09151654 0.02013054 0.04197101 0.02792326 0.07412691 -0.18432641 -0.09159106
