models/FreeSolv_Model_v3.0.pth (torch, 950816 bytes, 22 tensors)

bias f4 [128]
0.024733214 -0.08399054 0.014686221 0.093007796 -0.04575866 0.058552753 -0.038262025 0.030242598
-0.037928782 0.044223186 0.11408937 0.09087959 -0.07983251 0.099381804 0.008971045 -0.11928563
-0.062456015 0.049436923 0.06820825 0.10040569 -0.03862571 0.036932424 -0.09617768 0.07433649
-0.041580755 0.081419565 -0.110555686 -0.023580479 -0.00011146654 -0.12758635 -0.05228216 -0.10615685
-0.056585643 0.10152672 -0.13510598 -0.046803433 0.052651953 -0.1161767 -0.058044903 -0.07321925
0.10258907 -0.08412762 -0.0333574 0.004561194 -0.06304312 0.021655222 -0.05249494 0.109009184
0.0178106 -0.013690523 -0.12911606 -0.024981631 -0.12768753 0.013133451 -0.0116464505 -0.034716748
-0.019683462 -0.0730633 -0.082265116 -0.06535483 0.0098541295 0.0617731 0.011846587 0.048206434
-0.086911865 -0.031721305 0.059507888 0.13812481 -0.090816595 -0.0077298945 -0.063700736 0.050893903
-0.1137954 0.042314157 0.020169524 0.10250407 -0.13343874 0.05602832 -0.15871967 -0.037588857
-0.06356118 0.020390514 -0.08193879 0.027706107 -0.12266375 0.13179183 -0.010844777 0.052747827
-0.06565271 0.038770333 0.1360897 -0.091433845 -0.095239975 0.13932598 0.0048732604 0.074884824
0.12410446 0.074009515 0.058784373 0.025199784 -0.08009892 -0.011160608 0.017620908 0.09329336
0.10015689 0.026090857 0.21916506 -0.002154333 0.071757086 -0.034363605 -0.028295822 0.13362162
0.10058695 0.07523722 0.1248603 -0.02812445 0.0907659 0.10453456 -0.019789333 0.051421434
0.056588028 0.024746422 0.10952383 0.053577658 0.033949107 -0.057815857 0.0077223973 0.10362745
00000000: 4f9d ca3c 3b03 acbd 7a9e 703c df7a be3d
00000010: 6f6d 3bbd 03d5 6f3d a4b8 1cbd 53bf f73c
00000020: 365b 1bbd 5f23 353d b0a7 e93d 141f ba3d
00000030: 3a7f a3bd b088 cb3d 4afb 123c 064c f4bd
00000040: e1d1 7fbd 5f7e 4a3d c4b0 8b3d 80a1 cd3d
00000050: fe35 1ebd 7446 173d cef8 c4bd bb3d 983d
00000060: 9550 2abd 4dbf a63d 056b e2bd d92b c1bc
00000070: 25c3 e9b8 ffa5 02be d125 56bd c368 d9bd
00000080: 59c6 67bd 3eed cf3d 3959 0abe f5b4 3fbd
00000090: 93a9 573d 0dee edbd 7ec0 6dbd f9f3 95bd
000000a0: 381a d23d 1a4b acbd c5a1 08bd 1276 953b
000000b0: c01c 81bd 4b66 b13c ef04 57bd 3540 df3d
000000c0: 89e7 913c 374e 60bc 0037 04be 47a6 ccbc
000000d0: 85c0 02be b02d 573c c1d0 3ebc 2633 0ebd
000000e0: 363f a1bc 36a2 95bd 9d7a a8bd c1d8 85bd
000000f0: 3773 213c ca05 7d3d 3018 423c 1c74 453d
00000100: d9fe b1bd 33ee 01bd 8bbe 733d 9770 0d3e
00000110: 0dfe b9bd 0e4b fdbb 8875 82bd 2076 503d
00000120: 900d e9bd 9c51 2d3d 8f3a a53c a7ed d13d
00000130: 2aa4 08be f47d 653d 6987 22be c6f6 19bd
00000140: 5d2c 82bd 020a a73c 86cf a7bd ebf7 e23c
00000150: 2237 fbbd 70f4 063e 4bae 31bc 1b0e 583d
00000160: ee74 86bd a4cd 1e3d 195b 0b3e ab41 bbbd
00000170: 2d0d c3bd 78ab 0e3e dfaf 9f3b 375d 993d
00000180: 7b2a fe3d 4d92 973d e2c7 703d c76f ce3c
00000190: e70a a4bd fcda 36bc b959 903c 9710 bf3d
000001a0: 0e1f cd3d 7ebc d53c ce6c 603e b62f 0dbb
000001b0: 61f5 923d dac0 0cbd a4cc e7bc 1bd4 083e
000001c0: 8800 ce3d f915 9a3d c2b6 ff3d 3f65 e6bc
000001d0: 79e3 b93d 3716 d63d 3d1d a2bc 489f 523d
000001e0: d9c8 673d 02b9 ca3c 084e e03d 3f74 5b3d
000001f0: 380e 0b3d 52d0 6cbd 2a0c fd3b a13a d43d

weight f4 [128, 9]
-0.21666463 0.32316568 -0.0837216 0.2270241 0.04085884 0.16308661 0.10301367 0.07051613
0.18245377 0.15595266 0.27268094 0.17751706 -0.28654933 -0.06726543 -0.0027647018 0.015891515
-0.01885114 -0.07610883 -0.06257204 0.3768418 -0.027936148 0.24878612 0.16136077 0.08054836
-0.26869372 -0.092964776 0.1500005 -0.030910587 -0.26054564 0.03442873 -0.14658336 -0.028908608
-0.008832529 0.14332874 -0.093269184 -0.15733397 0.12571312 -0.101296075 0.12661321 -0.10464904
-0.15448515 -0.08619158 0.064869046 -0.15039715 0.2676773 -0.1032968 0.15224369 0.030341234
-0.045318957 0.02989104 0.06941463 0.16373196 0.0025760352 0.063559726 -0.066982515 0.20618854
0.2520652 0.0015070981 0.14721712 -0.16369425 -0.059078265 0.09532629 0.14992629 0.2185636
-0.08815766 -0.048785716 -0.20619814 -0.017897567 -0.18205222 -0.053046282 0.17094192 -0.048279814
0.26960936 -0.025427643 0.11969823 -0.20637436 -0.3062358 -0.19786629 -0.10289431 -0.21073304
-0.14010447 -0.055191543 0.1591907 -0.15828283 0.18325067 0.09459934 -0.12861373 -0.072947085
0.24851294 -0.025121845 -0.005457515 0.29148954 -0.046466287 0.009928703 0.024196561 -0.10063044
-0.008511877 -0.16511148 0.16636185 -0.12413323 -0.1364429 0.24062218 0.0194616 -0.07626037
-0.06649801 -0.034417737 0.23758353 -0.13138746 0.01513406 0.17173664 -0.17331891 0.062104095
-0.027391544 -0.015584379 0.08549535 0.26255852 0.17566012 0.016965065 -0.113425665 0.042824827
0.023600597 0.1611834 -0.10573426 -0.20535666 -0.07709714 -0.19579104 -0.058444247 0.06086227
-0.08307247 0.08952518 -0.23281226 -0.044758543 0.13267978 -0.11358964 -0.03676963 0.12077941
0.5654617 0.042300444 -0.05975837 -0.31322816 0.01596737 0.12589742 0.36411208 0.15330328
0.06784849 -0.29746976 0.046380267 0.061870363 0.049998984 -0.12749973 -0.24497278 0.23387127
0.14095989 -0.10126364 0.30887172 -0.17004544 0.16857772 -0.15615763 -0.0073923618 -0.035054393
0.10107455 0.19640332 0.068728305 -0.35003874 0.064186394 -0.03728073 0.012482713 0.20014961
-0.15449618 0.015341886 -0.09780925 -0.16500582 -0.24897847 0.19889027 -0.06748301 0.17080903
-0.0035575032 0.06662475 -0.050154317 -0.30163878 0.0741869 -0.12044195 -0.14052144 0.02791717
-0.25566044 -0.033640563 0.10944521 -0.22294265 -0.012274329 0.08028374 -0.03762639 -0.0060456716
0.039388906 0.19115952 0.032140672 -0.26305196 -0.22308335 -0.03131636 -0.03387911 -0.05295821
0.15394832 -0.008763634 -0.11010646 -0.15250197 0.03534698 -0.16672431 0.06771703 -0.07029366
0.116413675 -0.051510572 0.11423883 -0.07732187 -0.09485931 -0.00046342277 0.15412736 -0.04614336
-0.13521731 -0.062143244 0.012836935 0.074320205 -0.0012596645 0.19296299 0.1413473 0.07556064
0.13508426 -0.036003742 -0.0972109 0.13942093 -0.07476978 0.03736699 -0.054381967 -0.012854132
-0.04081291 -0.114784986 -0.104891144 -0.04956313 0.20118892 0.090757914 0.21533069 -0.10830269
0.082402185 0.0017155455 0.018159656 -0.03904469 0.36692968 0.19210407 -0.04074647 0.17925578
0.1365226 -0.04964649 0.07807473 -0.16269648 -0.06265735 0.13905358 0.110079095 0.23219314
00000000: 55dd 5dbe f975 a53e 3b76 abbd 0179 683e
00000010: 995b 273d 2d00 273e d5f8 d23d c36a 903d
00000020: 29d5 3a3e 0eb2 1f3e d69c 8b3e 08c7 353e
00000030: 98b6 92be 75c2 89bd 0030 35bb ec2e 823c
00000040: b56d 9abc f2de 9bbd c525 80bd 69f1 c03e
00000050: 59da e4bc cac1 7e3e c23b 253e 8af6 a43d
00000060: 3992 89be 5164 bebd bb99 193e 3338 fdbc
00000070: 3d66 85be 2405 0d3d f319 16be bfd1 ecbc
00000080: 50b6 10bc c5c4 123e ea03 bfbd 281c 21be
00000090: f1ba 003e 5174 cfbd e5a6 013e 3c52 d6bd
000000a0: 5b31 1ebe 3685 b0bd 10da 843d b601 1abe
000000b0: 000d 893e 468d d3bd c5e5 1b3e 2e8e f83c
000000c0: 5fa0 39bd 0ede f43c 4229 8e3d 5aa9 273e
000000d0: b3d2 283b 9a2b 823d 212e 89bd 1723 533e
000000e0: b10e 813e d289 c53a 16c0 163e 779f 27be
000000f0: 0dfc 71bd 6e3a c33d 4786 193e 23cf 5f3e
00000100: 018c b4bd 88d3 47bd 9b25 53be eb9d 92bc
00000110: e66b 3abe 0f47 59bd 660b 2f3e 0ec1 45bd
00000120: 3d0a 8a3e a24d d0bc 5824 f53d cd53 53be
00000130: f0ca 9cbe 769d 4abe 41ba d2bd 67ca 57be
00000140: 8c77 0fbe 8710 62bd e302 233e e514 22be
00000150: 10a6 3b3e 4cbd c13d 51b3 03be 4865 95bd
00000160: 2d7a 7e3e 54cc cdbc f4d4 b2bb 1e3e 953e
00000170: 6f53 3ebd 00ac 223c de37 c63c 5517 cebd
00000180: 6675 0bbc fc12 29be c35a 2a3e 9039 febd
00000190: b0b7 0bbe a965 763e ef6d 9f3c 662e 9cbd
000001a0: 1c30 88bd 9df9 0cbd 1949 733e 6f8a 06be
000001b0: d9f4 773c bbdb 2f3e 837a 31be dd60 7e3d
000001c0: 3b64 e0bc a055 7fbc 3018 af3d 126e 863e
000001d0: 3fe0 333e 52fa 8a3c b74b e8bd 1669 2f3d
000001e0: 0a56 c13c 430d 253e 348b d8bd 0449 52be
000001f0: 1be5 9dbd 727d 48be 3c63 6fbd b74a 793d
00000200: e621 aabd fa58 b73d 5666 6ebe bc54 37bd
00000210: 35dd 073e afa1 e8bd c09b 16bd 325b f73d
00000220: 19c2 103f 3b43 2d3d 31c5 74bd 715f a0be
00000230: 00ce 823c 41eb 003e e66c ba3e 89fb 1c3e
00000240: 26f4 8a3d f54d 98be 3cf9 3d3d c76b 7d3d
00000250: bccb 4c3d 4a8f 02be 25da 7abe f37b 6f3e
00000260: ca57 103e 5063 cfbd 6f24 9e3e 6420 2ebe
00000270: a39f 2c3e c9e7 1fbe a03b f2bb 3295 0fbd
00000280: 2c00 cf3d f41d 493e 6dc1 8c3d 4738 b3be
00000290: 2874 833d aeb3 18bd 4b84 4c3c 05f4 4c3e
000002a0: 3f34 1ebe 895c 7b3c 3750 c8bd 49f7 28be
000002b0: 36f4 7ebe e4a9 4b3e 8834 8abd 90e8 2e3e
000002c0: 0025 69bb 8f72 883d 9d6e 4dbd 6670 9abe
000002d0: 4def 973d 45aa f6bd dae4 0fbe 8db2 e43c
000002e0: ede5 82be b0ca 09bd cf24 e03d 144b 64be
000002f0: 441a 49bc cd6b a43d 211e 1abd c51a c6bb
00000300: 4356 213d 52bf 433e f0a5 033d bfae 86be
00000310: f66f 64be 9545 00bd d2c4 0abd b5ea 58bd
00000320: a1a4 1d3e 5895 0fbc 7f7f e1bd 7a29 1cbe
00000330: ffc7 103d c7b9 2abe 3aaf 8a3d 1ff6 8fbd
00000340: 4b6a ee3d c0fc 52bd 0cf6 e93d ee5a 9ebd
00000350: 9945 c2bd 8df7 f2b9 90d3 1d3e d200 3dbd
00000360: 6876 0abe ea89 7ebd 0252 523c 3135 983d
00000370: 541b a5ba 1798 453e 59bd 103e 89bf 9a3d
00000380: 8753 0a3e a978 13bd 8216 c7bd 5cc4 0e3e
00000390: e620 99bd 210e 193d a0bf 5ebd 239a 52bc
000003a0: 702b 27bd 6414 ebbd 2bd1 d6bd b502 4bbd
000003b0: 7804 4e3e 49df b93d a67f 5c3e cdcd ddbd
000003c0: 7ac2 a83d 28dc e03a 8fc3 943c 53ed 1fbd
000003d0: 35de bb3e eeb6 443e c5e5 26bd d48e 373e
000003e0: 95cc 0b3e 1e5a 4bbd a5e5 9f3d e899 26be
000003f0: 7f52 80bd 1064 0e3e 2671 e13d 0ac4 6d3e

att f4 [1, 4, 128]
-0.34413275 -0.11340412 -0.24433342 0.19737135 0.2862608 -0.090275995 0.04758899 -0.03288499
0.18959004 0.17097922 -0.08909509 0.2445867 0.1029959 0.098074935 -0.016442463 -0.29558256
0.14402346 0.102879524 0.066377826 0.10289034 -0.010912613 0.11318902 0.22833312 -0.12690666
0.03850072 -0.26562917 -0.3847442 -0.07115725 -0.096092865 0.13234416 -0.19535278 0.075781375
-0.20298746 0.24344164 0.073522985 0.22317207 -0.12106636 0.1394371 0.09112792 0.19277306
0.10872537 0.0022471126 0.14422333 0.23123807 -0.1256211 0.3877912 -0.14429112 -0.26190475
0.10078119 0.2443015 0.3355451 0.057941616 0.09309237 0.15079853 0.3389062 -0.16513488
0.11853092 -0.03793166 0.1940455 -0.09451898 0.02408076 0.1391669 -0.18791202 -0.1951338
-0.25294644 -0.179342 -0.22754295 -0.32629412 0.073497206 0.2921578 -0.1883065 0.15372592
-0.24535711 -0.13791849 -0.29033902 -0.13327093 -0.23429625 -0.15792137 0.12123591 -0.054490272
-0.1865614 -0.028519591 0.14276472 -0.22986557 0.10485232 0.17879413 -0.25091556 -0.11611489
0.39492044 0.4434876 0.3844657 0.14735292 -0.094325975 0.38707605 -0.15592346 0.04751655
0.15747732 -0.18057461 0.115396306 0.21355593 0.1819528 0.2612414 0.2757798 0.17488737
-0.12827323 -0.2371466 -0.22158608 0.15953694 0.20036478 0.009837085 0.085033916 0.07666416
0.06995596 -0.07369984 0.094143406 -0.20476557 -0.1439946 -0.2721636 -0.26782352 -0.24176915
-0.074311174 -0.16006652 -0.03156744 0.04318132 -0.40248683 -0.05796969 0.109774545 -0.040062252
-0.23247118 0.1524209 0.25556758 0.01031095 -0.16034718 -0.28796396 -0.07028163 -0.16088495
0.2231172 0.12804247 -0.05312398 0.08569881 0.07635792 0.24531098 -0.12857875 -0.15665165
-0.23093651 -0.13925706 0.047833573 -0.14371365 0.42202404 0.094699495 -0.25997025 0.15377013
0.16331832 0.28313804 -0.13631003 -0.22463728 -0.08615762 -0.051406052 0.5235355 0.09751748
0.18020298 -0.034839828 -0.1042727 -0.33711952 -0.24294063 0.14651868 -0.20936343 -0.11488082
-0.07079818 -0.030697046 -0.12980957 -0.047292672 0.14015147 0.20853457 -0.046482842 -0.113209136
0.20313409 0.33651456 -0.11811557 0.442868 -0.04305117 -0.22245711 -0.031614702 -0.257119
-0.27946675 -0.16251418 0.40116572 0.14819482 -0.1113453 -0.053833466 -0.088816464 0.13174048
-0.25869417 0.26363087 0.3400202 -0.20697534 -0.05674794 -0.12357566 -0.25142014 -0.08564318
0.1411023 0.2883133 0.2644195 -0.09545352 0.25330108 -0.089756794 0.3625028 -0.23109621
0.0883693 0.15993409 -0.29697502 0.14950411 0.05934723 -0.24485439 -0.10183006 -0.16677834
-0.20819661 -0.18872684 0.13382207 -0.11419641 0.18089946 0.3354309 -0.0952892 -0.343399
0.17485493 -0.26348194 -0.09184704 -0.12139929 -0.1513699 -0.1349606 -0.2331468 -0.047156032
0.07598924 -0.069533914 0.15506119 -0.12488929 0.03962048 0.051322173 -0.20046735 -0.18118738
-0.26732916 0.30586696 -0.16659366 -0.24547441 0.16439924 -0.10997473 0.07613347 0.08964002
-0.16196054 -0.059103664 0.13992481 0.23118751 -0.16982068 -0.2058022 -0.13105057 -0.25525883
00000000: 2b32 b0be 6b40 e8bd 8a32 7abe b71b 4a3e
00000010: c790 923e 9fe2 b8bd acec 423d 69b2 06bd
00000020: e423 423e 2d15 2f3e 7d77 b6bd f074 7a3e
00000030: 84ef d23d 83db c83d 58b2 86bc 9956 97be
00000040: e37a 133e 80b2 d23d 19f1 873d 2cb8 d23d
00000050: d1ca 32bc a5cf e73d 28d0 693e d2f3 01be
00000060: eeb2 1d3d 8c00 88be 31fd c4be e4ba 91bd
00000070: 56cc c4bd 3a85 073e 8f0a 48be 4433 9b3d
00000080: f2db 4fbe c448 793e 3893 963d 3887 643e
00000090: a4f1 f7bd 99c8 0e3e 46a1 ba3d 4d66 453e
000000a0: 68ab de3d 4b44 133b 48af 133e acc9 6c3e
000000b0: d1a2 00be 918c c63e 0dc1 13be 6118 86be
000000c0: 5e66 ce3d 2c2a 7a3e 91cc ab3e 3054 6d3d
000000d0: 36a7 be3d ee6a 1a3e 1d85 ad3e 1e19 29be
000000e0: 57c0 f23d 3a5e 1bbd ddb3 463e 2b93 c1bd
000000f0: 0445 c53c c581 0e3e 026c 40be 28d1 47be
00000100: 3282 81be 6ea5 37be 0501 69be 0610 a7be
00000110: b485 963d b595 953e 6bd3 40be 546a 1d3e
00000120: e53e 7bbe 813a 0dbe 51a7 94be 2d78 08be
00000130: 5beb 6fbe 24b6 21be 884a f83d 3131 5fbd
00000140: f409 3fbe eba1 e9bc ea30 123e e161 6bbe
00000150: d0bc d63d cf15 373e 0178 80be a5cd edbd
00000160: 0333 ca3e cf10 e33e b0d8 c43e afe3 163e
00000170: fa2d c1bd d52e c63e 66aa 1fbe b7a0 423d
00000180: bc41 213e 8de8 38be e654 ec3d 68ae 5a3e
00000190: d651 3a3e 6fc1 853e 0333 8d3e ad15 333e
000001a0: 0f5a 03be 8fd6 72be 76e7 62be a75d 233e
000001b0: 6d2c 4d3e ba2b 213c 4326 ae3d 1902 9d3d
000001c0: 1245 8f3d f1ef 96bd 42ce c03d 11ae 51be
000001d0: 5273 13be 0759 8bbe 2a20 89be 5592 77be
000001e0: 7530 98bd 7ae8 23be dc4c 01bd e5de 303d
000001f0: c112 cebe a071 6dbd 7ad1 e03d 5118 24bd
00000200: ed0c 6ebe 3914 1c3e c1d9 823e 42ef 283c
00000210: 0d32 24be 0370 93be d1ef 8fbd 06bf 24be
00000220: d678 643e 911d 033e 8898 59bd dc82 af3d
00000230: 8b61 9c3d cd32 7b3e 26aa 03be 4a69 20be
00000240: 9f7a 6cbe 6799 0ebe 23ed 433d ac29 13be
00000250: 8913 d83e cff1 c13d d21a 85be eb75 1d3e
00000260: eb3c 273e 78f7 903e db94 0bbe 5107 66be
00000270: 6873 b0bd 278f 52bd 6c06 063f 3fb7 c73d
00000280: 2187 383e 35b4 0ebd ed8c d5bd ee9a acbe
00000290: 6ec5 78be fe08 163e 5e63 56be a346 ebbd
000002a0: a3fe 90bd 5f78 fbbc cdec 04be f6b5 41bd
000002b0: de83 0f3e 168a 553e cb64 3ebd 31da e7bd
000002c0: 6202 503e a34b ac3e 93e6 f1bd 98bf e23e
000002d0: 6c56 30bd cccb 63be 6b7e 01bd 1aa5 83be
000002e0: 4416 8fbe 1e6a 26be 9865 cd3e 62c0 173e
000002f0: 0109 e4bd 7b80 5cbd 68e5 b5bd fae6 063e
00000300: 9073 84be a0fa 863e 2117 ae3e 58f1 53be
00000310: 8770 68bd 3c15 fdbd 24ba 80be b165 afbd
00000320: 1f7d 103e cd9d 933e fe61 873e 237d c3bd
00000330: aeb0 813e 69d2 b7bd f899 b93e 7ca4 6cbe
00000340: f7fa b43d c3c5 233e 1c0d 98be 9b17 193e
00000350: 1516 733d 1cbb 7abe 478c d0bd f1c7 2abe
00000360: 7e31 55be 9c41 41be a708 093e cfdf e9bd
00000370: b53d 393e 99bd ab3e fc26 c3bd fed1 afbe
00000380: 2c0d 333e 1be7 86be 4d1a bcbd 31a0 f8bd
00000390: b600 1bbe 1d33 0abe 09be 6ebe af26 41bd
000003a0: 3fa0 9b3d cc67 8ebd 5cc8 1e3e f5c5 ffbd
000003b0: 1649 223d 3337 523d 5047 4dbe 2f89 39be
000003c0: 5edf 88be 989a 9c3e 8797 2abe a55d 7bbe
000003d0: 4658 283e 6e3a e1bd ddeb 9b3d 3095 b73d
000003e0: fcd8 25be af16 72bd 7348 0f3e 6bbc 6c3e
000003f0: 79e5 2dbe d0bd 52be 1f32 06be 49b1 82be

bias f4 [128]
-0.047129996 0.02777861 0.080075555 -0.15724856 0.061873652 0.07320821 0.12130204 -0.06898527
-0.05318181 0.042613775 0.022377623 0.064391345 -0.11043266 -0.13947383 0.081786446 -0.054698963
0.0058291373 0.11147106 0.16234793 -0.049627565 0.16889998 -0.017427003 0.06958685 0.15965548
0.09377027 -0.003055665 -0.15574569 -0.015714549 0.021589473 0.039772272 -0.22145222 0.1412748
0.056553688 -0.039342538 -0.10980997 -0.13828075 0.0034319588 -0.031232543 -0.008720138 -0.05348584
-0.024371818 0.011702809 0.068071865 0.041180983 0.126989 0.00107759 0.103044406 0.016530355
0.053193837 -0.07786658 -0.011126667 -0.036526863 0.002825462 0.2101307 -0.034923784 -0.0427672
-0.1045249 0.010446561 -0.059001636 0.05460129 -0.13781793 -0.016102897 0.13687663 0.066216886
0.2482291 -0.00067718077 0.029133627 0.014786955 -0.08695189 -0.015400376 -0.19402382 0.020227075
0.1486273 -0.030032353 -0.055239446 0.06963008 -0.22050582 0.23868938 0.07493156 0.08357941
-0.02643282 -0.069434986 0.15660514 -0.065922394 0.12233267 0.1945749 0.22116691 -0.027525414
-0.00855388 -0.0332344 -0.03844711 -0.017576387 -0.012783358 -0.059555337 0.040658772 -0.08593663
-0.059142206 -0.036332563 -0.030973464 0.032055195 0.022802504 -0.061630312 -0.06760428 0.010639971
-0.101933666 0.008303731 -0.11976148 -0.0026243492 -0.0024240443 0.073597685 -0.024403585 -0.014528449
0.06443595 -0.17746907 0.04881585 -0.03772583 0.28814775 0.12628743 0.10859835 0.11002767
-0.0036271256 -0.016252534 -0.011355285 -0.045884464 -0.12579508 0.04380066 -0.11768403 0.14305663
00000000: 620b 41bd f88f e33c a7fe a33d c405 21be
00000010: 3a6f 7d3d 30ee 953d 346d f83d 2648 8dbd
00000020: 2bd5 59bd c88b 2e3d 4751 b73c 9cdf 833d
00000030: 852a e2bd 3ad2 0ebe a77f a73d 050c 60bd
00000040: 5902 bf3b f04a e43d 893e 263e 4646 4bbd
00000050: 1ef4 2c3e 13c3 8ebc 8d83 8e3d ba7c 233e
00000060: a10a c03d 8d41 48bb cc7b 1fbe ccbb 80bc
00000070: 68dc b03c 40e8 223d 5fc4 62be 57aa 103e
00000080: d7a4 673d a425 21bd 0de4 e0bd 7899 0dbe
00000090: b7ea 603b 64db ffbc e9de 0ebc f813 5bbd
000000a0: 68a7 c7bc 23bd 3f3c 4369 8b3d 64ad 283d
000000b0: 6809 023e ec3d 8d3a f208 d33d ab6a 873c
000000c0: c8e1 593d 8378 9fbd a04c 36bc 319d 15bd
000000d0: 632b 393b 812c 573e 3e0c 0fbd a92c 2fbd
000000e0: 2711 d6bd 0d28 2b3c b3ab 71bd 9aa5 5f3d
000000f0: 2520 0dbe 39ea 83bc 6329 0c3e b89c 873d
00000100: c52f 7e3e d584 31ba a5a9 ee3c fc44 723c
00000110: d513 b2bd dc51 7cbc 2eae 46be 40b3 a53c
00000120: c131 183e 6906 f6bc c242 62bd 379a 8e3d
00000130: 47cc 61be fd6a 743e b875 993d af2b ab3d
00000140: a489 d8bc ee33 8ebd 195d 203e 5202 87bd
00000150: 8d89 fa3d a53e 473e 9479 623e fa7c e1bc
00000160: 9325 0cbc cb20 08bd b87a 1dbd 5bfc 8fbc
00000170: 4a71 51bc 4cf0 73bd d089 263d 8bff afbd
00000180: 193f 72bd 74d1 14bd 10bc fdbc 4f4c 033d
00000190: 51cc ba3c 1170 7cbd 1d74 8abd 4653 2e3c
000001a0: 99c2 d0bd 5f0c 083c 8245 f5bd 46fd 2bbb
000001b0: b7dc 1ebb 62ba 963d 07ea c7bc bb08 6ebc
000001c0: fff6 833d 74ba 35be 21f3 473d 6686 1abd
000001d0: 1a88 933e 7e51 013e d068 de3d 3056 e13d
000001e0: 12b5 6dbb 0924 85bc 840b 3abc 59f1 3bbd
000001f0: 6dd0 00be 5268 333d 5304 f1bd 707d 123e

weight f4 [512, 128]
0.0015426695 -0.0045196894 -0.048720066 0.04910315 0.053551324 -0.025771668 0.096138895 -0.040100228
-0.116037644 -0.01581823 0.027045153 -0.02920274 0.09237101 -0.12581268 -0.11400425 0.100110464
0.03807753 -0.06718205 0.016054854 0.042203527 -0.03156395 -0.04321574 0.02125138 0.03994092
0.05653876 -0.006118341 0.087445 -0.011075712 0.15546718 -0.032334715 0.01343546 0.05775804
-0.08641704 0.060467876 -0.013302163 -0.033848625 -0.10647362 0.013958495 0.062261816 0.18639429
-0.11381711 0.01788544 0.01784235 0.07969551 0.011225361 0.10861933 -0.059710633 0.0113241365
0.04139055 0.01033294 0.0687768 0.0014294856 0.07352897 0.014105798 -0.048899338 0.06198254
-0.082144134 0.028320907 -0.13793427 -0.058185488 -0.09780438 0.023064572 -0.031042535 0.04431934
-0.098767176 0.065275 0.037176523 -0.18000688 0.072636716 -0.075979576 -0.078826144 -0.090577774
-0.00018952132 0.09238545 -0.038822986 0.03444455 0.046393212 -0.09886968 0.019251777 -0.100846566
0.06327857 0.05722436 -0.028203422 -0.041682422 0.10386322 -0.11291939 -0.07113646 0.06932926
0.05413988 0.08956939 0.07865473 -0.08009761 0.10171987 -0.053073935 0.033340283 -0.05686551
0.0029125004 -0.041245975 -0.062837735 -0.05192681 0.032498304 -0.0012262365 0.013463628 0.12026022
0.0092149265 -0.022206925 0.08103549 -0.020214027 -0.0454047 -0.023957409 -0.028519165 -0.12852232
-0.14970069 -0.026751438 0.08250239 -0.018873826 0.096227236 -0.09886305 0.18024856 0.03193832
0.04829908 -0.079270214 0.054326415 -0.111912504 -0.08851637 -0.04975478 0.040505745 -0.04664285
-0.1586859 0.059043825 -0.0041524293 -0.06641197 -0.053622328 -0.022766272 0.028159302 -0.0056415778
0.01216631 -0.056126013 -0.054797783 -0.112347364 0.033366047 0.04596908 -0.12179787 -0.03384957
-0.06979478 -0.014475202 -0.019110894 0.013971198 -0.025381638 0.11282876 0.059240177 0.05128917
-0.026866576 0.017683709 0.05316141 -0.016244158 -0.02171035 0.032479256 0.012464292 0.087606326
-0.14786118 -0.10528022 -0.02490858 -0.009734852 -0.12287291 0.068055525 0.042130586 0.061746113
-0.1053873 0.014150122 -0.043873474 0.018591657 -0.026405243 0.23867412 0.018507194 -0.040425997
-0.106364034 -0.050036 0.048649028 -0.17625672 0.09447882 -0.101930894 -0.113518044 -0.13059184
-0.059256215 0.039297998 0.027622597 0.07070103 -0.10904215 0.06296857 -0.11200872 -0.13340928
-0.0581968 -0.06437114 0.09130665 -0.018262789 -0.004302075 0.06522078 0.21794687 0.15106553
0.069177076 -0.027158167 -0.028143017 0.0525235 -0.09298253 -0.011769376 0.07432441 0.0060381503
-0.024911452 0.021533381 0.06967148 -0.059526995 -0.08762987 -0.05094493 0.039166775 -0.07670374
0.119550094 0.03136527 -0.020493586 -0.004153528 -0.024274677 0.06382373 0.10042862 0.048775136
-0.035684783 0.005984958 -0.10147573 0.11274943 0.024020126 -0.027773548 0.033916526 0.02476145
0.07709316 0.020319315 0.090841904 0.095401905 -0.079042494 -0.041643314 0.060251705 -0.054622512
0.08029092 -0.088780925 -0.10771963 -0.024475519 -0.06869136 -0.013767405 0.10087675 0.048405956
0.02040706 -0.057626843 -0.074467376 0.14456251 -0.13515683 0.0067314613 0.11528795 -0.09244338
00000000: 6633 ca3a e719 94bb b18e 47bd 6220 493d
00000010: a258 5b3d 1b1f d3bc 78e4 c43d 2340 24bd
00000020: 25a5 edbd 3c95 81bc cc8d dd3c 963a efbc
00000030: 032d bd3d 0ad5 00be 0f7b e9bd b706 cd3d
00000040: 2ff7 1b3d be96 89bd 7885 833c 9bdd 2c3d
00000050: 3349 01bd fd02 31bd 6017 ae3c 1799 233d
00000060: 3095 673d 5d7c c8bb 5d16 b33d e776 35bc
00000070: ca32 1f3e 6871 04bd 6720 5c3c b293 6c3d
00000080: 6bfb b0bd 2aad 773d 51f1 59bc dba4 0abd
00000090: d70e dabd 2cb2 643c 3f06 7f3d 25de 3e3e
000000a0: f218 e9bd 7c84 923c 1f2a 923c 6637 a33d
000000b0: 94ea 373c d073 de3d 2393 74bd df88 393c
000000c0: 2389 293d 7e4b 293c dada 8c3d 945d bb3a
000000d0: 5b96 963d 011c 673c ac4a 48bd 67e1 7d3d
000000e0: 2f3b a8bd 3f01 e83c a43e 0dbe e853 6ebd
000000f0: aa4d c8bd eaf1 bc3c ea4c febc 3288 353d
00000100: 7246 cabd e6ae 853d 6946 183d b953 38be
00000110: 8fc2 943d 2e9b 9bbd 9a6f a1bd d780 b9bd
00000120: 3eba 46b9 9534 bd3d da04 1fbd ba15 0d3d
00000130: cf06 3e3d 307c cabd e7b5 9d3c a588 cebd
00000140: 3298 813d 1764 6a3d dd0a e7bc 30bb 2abd
00000150: 3db6 d43d 4842 e7bd feaf 91bd 80fc 8d3d
00000160: c7c1 5d3d 2870 b73d bb15 a13d 370a a4bd
00000170: 8252 d03d 0e64 59bd d28f 083d cfeb 68bd
00000180: a6df 3e3b 8af1 28bd 12b1 80bd 35b1 54bd
00000190: f11c 053d abb9 a0ba 8c96 5c3c fd4a f63d
000001a0: 34fa 163c 4ceb b5bc eff5 a53d e397 a5bc
000001b0: 47fa 39bd 5442 c4bc 06a1 e9bc 5b9b 03be
000001c0: 234b 19be d525 dbbc 03f7 a83d 489d 9abc
000001d0: c912 c53d b678 cabd 1493 383e c1d1 023d
000001e0: 42d5 453d 6c58 a2bd 6085 5e3d 6232 e5bd
000001f0: 1248 b5bd abcb 4bbd 5ae9 253d 930c 3fbd
00000200: 8e7e 22be f0d7 713d 1a11 88bb 0003 88bd
00000210: 16a3 5bbd 5580 babc 56ae e63c fcdc b8bb
00000220: 3455 473c 64e4 65bd a473 60bd 6016 e6bd
00000230: d6aa 083d 134a 3c3d 2971 f9bd d9a5 0abd
00000240: 91f0 8ebd 6629 6dbc 738e 9cbc 74e7 643c
00000250: 27ed cfbc c412 e73d d4a5 723d 9814 523d
00000260: 4b17 dcbc 6ddd 903c c7bf 593d 7812 85bc
00000270: e7d9 b1bc f808 053d 0837 4c3c f26a b33d
00000280: ec68 17be 289d d7bd 140d ccbc ee7e 1fbc
00000290: cba4 fbbd b260 8b3d 1f91 2c3d 7ee9 7c3d
000002a0: 4cd5 d7bd ead5 673c acb4 33bd 884d 983c
000002b0: cf4f d8bc fd66 743e 669c 973c bb95 25bd
000002c0: 63d5 d9bd 8cf2 4cbd 3444 473d a47c 34be
000002d0: 1d7e c13d 25c1 d0bd 267c e8bd deb9 05be
000002e0: a5b6 72bd f0f6 203d c948 e23c b4cb 903d
000002f0: 7e51 dfbd aaf5 803d d464 e5bd 719c 08be
00000300: c55f 6ebd 04d5 83bd fbfe ba3d d89b 95bc
00000310: 6cf8 8cbb 7992 853d 772d 5f3e ecb0 1a3e
00000320: b6ac 8d3d ce7a debc 2f8c e6bc e222 573d
00000330: a06d bebd 57d4 40bc 6537 983d addb c53b
00000340: 1a13 ccbc c666 b03c ecaf 8e3d 94d2 73bd
00000350: 4a77 b3bd a2ab 50bd 576d 203d da16 9dbd
00000360: aed6 f43d df78 003d 2ae2 a7bc 511a 88bb
00000370: b0db c6bc 04b6 823d 85ad cd3d 70c8 473d
00000380: 352a 12bd 771d c43b 82d2 cfbd 2ce9 e63d
00000390: dbc5 c43c 5a85 e3bc 0eec 0a3d 86d8 ca3c
000003a0: 05e3 9d3d b174 a63c 520b ba3d 1362 c33d
000003b0: 08e1 a1bd 2e92 2abd 7eca 763d dbbb 5fbd
000003c0: 916f a43d c6d2 b5bd 1c9c dcbd e280 c8bc
000003d0: 0eae 8cbd af90 61bc 7898 ce3d 5345 463d
000003e0: b52c a73c 200a 6cbd 5a82 98bd 3208 143e
000003f0: 8d66 0abe 9793 dc3b 171c ec3d f452 bdbd

bias f4 [512]
0.027475337 0.022443615 0.069219366 0.062028863 -0.010640491 -0.029063562 -0.008012015 0.011815687
0.033102766 -0.008985054 -0.02566996 -0.033880714 0.032876354 -0.06349791 -0.07631151 -0.061798137
-0.016705263 -0.02897286 0.115956545 0.03163653 -0.04392282 0.0458037 0.07113878 0.066432536
0.017177932 0.066772245 -0.06983218 0.0647095 0.041417968 -0.040053617 -0.08042959 0.12391201
0.040765937 0.11920457 0.06123054 0.015371018 -0.015344308 0.03606119 0.02870947 -0.118593164
-0.062505305 -0.045505334 -0.016305804 0.04013563 -0.021633144 0.059847914 -0.022044107 -0.04017131
0.058550347 -0.010141441 0.083962716 -0.045214735 -0.056939133 0.14013335 0.038998842 -0.006022979
0.058152273 0.01815998 0.04506694 0.020387644 0.022923185 -0.068912886 0.044607364 0.08510406
0.05969931 -0.004815054 -0.04990196 -0.053280115 -0.06636118 -0.053023208 -0.06116619 -0.083916
0.030536406 0.010731432 0.040449914 0.078602895 -0.009777922 -0.03864388 0.027512062 -0.0291467
-0.029308686 -0.06570064 0.067866795 0.07674714 0.008255441 0.12406554 0.12608348 0.057089586
-0.10005924 -0.11323893 -0.07682715 0.00936757 -0.01990596 0.038657762 -0.021669019 0.06678594
-0.018804085 0.114967786 -0.044210527 -0.039686818 0.07850808 0.08173001 -0.031955235 0.11889492
-0.0021609452 -0.08226331 -0.025556892 0.022020485 -0.050349705 -0.10705565 -0.106090814 -0.041229863
0.08640715 -0.07893892 -0.0010969486 0.0034783618 0.06006458 -0.048087575 -0.049628347 0.072053775
0.057276446 0.07789179 -0.07799131 -0.057238147 -0.09014425 0.07650491 -0.020456066 0.0035465008
0.12604317 0.109469794 0.04749691 -0.032293662 0.05844193 -0.060235135 -0.022252511 -0.011942423
-0.13357016 0.038855683 0.08323338 0.010247688 0.0016811958 0.036817722 0.07823603 -0.03937151
-0.060082525 0.047159128 0.017468093 0.07061046 -0.010341 -0.017135207 -0.027371397 -0.050490934
-0.005831865 -0.027194148 0.017404715 0.031185163 0.0615384 0.08038412 -0.015174138 0.028946072
0.026134782 0.10012099 0.056423925 0.07757177 0.09145187 0.101114415 0.036037162 -0.019746091
0.041765336 -0.082770795 -0.030958926 0.01741287 -0.047543246 0.096480876 0.09887643 -0.05759514
0.08659511 0.016119758 -0.028449437 -0.09380096 0.05185763 0.13878596 -0.010027663 -0.028987931
0.016725268 0.039406933 0.02877903 -0.097668916 -0.032674823 -0.11205023 -0.026486523 0.039576404
-0.017840788 0.06360867 -0.036954623 -0.03689751 0.017766757 -0.02942773 -0.061280124 -0.059782133
0.11296213 -0.0584772 -0.09834567 0.017332092 0.05278029 -0.059046153 -0.009691075 -0.0022332272
0.026040988 0.0134344855 0.045122437 0.03324904 0.10869128 0.09448128 0.05019432 0.10315947
-0.025502117 -0.027929304 -0.040897705 -0.06960481 -0.12058184 -0.030507047 -0.041806653 0.034087565
0.0062221065 0.054699488 0.0132027455 -0.01585525 0.045132995 -0.059194345 -0.080980755 0.1140513
-0.07560714 0.03825714 0.06284493 0.024008838 0.10689216 -0.04366236 -0.04850464 -0.009656096
0.011614485 -0.02490638 0.02272419 -0.042543683 0.03113734 0.038375862 -0.008372291 0.071925536
0.01934652 -0.010174978 -0.025174597 0.032215584 -0.033510223 -0.032951936 0.04895248 0.05554699
00000000: f513 e13c acdb b73c e2c2 8d3d fa11 7e3d
00000010: 7455 2ebc b516 eebc d444 03bc 9596 413c
00000020: c496 073d 0c36 13bc cf49 d2bc 81c6 0abd
00000030: 5ba9 063d 310b 82bd 3549 9cbd 0b20 7dbd
00000040: 7ad9 88bc 7e58 edbc a07a ed3d 4e95 013d
00000050: 6ae8 33bd a99c 3b3d 35b1 913d c80d 883d
00000060: bcb8 8c3c e3bf 883d 2d04 8fbd 6a86 843d
00000070: e3a5 293d 430f 24bd 45b8 a4bd 94c5 fd3d
00000080: 2ffa 263d 8721 f43d e0cc 7a3d b9d6 7b3c
00000090: b166 7bbc e6b4 133d 1f30 eb3c f9e0 f2bd
000000a0: c802 80bd cd63 3abd c093 85bc 4265 243d
000000b0: fe37 b1bc 1623 753d d895 b4bc ac8a 24bd
000000c0: 7dd2 6f3d 4928 26bc a5f4 ab3d 1633 39bd
000000d0: 0239 69bd 1e7f 0f3e 40bd 1f3d 695c c5bb
000000e0: 1431 6e3d 3dc4 943c 1d98 383d fd03 a73c
000000f0: 67c9 bb3c 3322 8dbd 36b6 363d 0a4b ae3d
00000100: 4487 743d 9ac7 9dbb ff65 4cbd 403c 5abd
00000110: 5fe8 87bd dd2e 59bd 6689 7abd 27dc abbd
00000120: 7c27 fa3c e3d2 2f3c cfae 253d 8efa a03d
00000130: 9433 20bc 0c49 1ebd fa60 e13c 0fc5 eebc
00000140: c518 f0bc 0f8e 86bd bffd 8a3d 9b2d 9d3d
00000150: d441 073c 1316 fe3d 071c 013e c5d6 693d
00000160: dceb ccbd d0e9 e7bd 8e57 9dbd 707a 193c
00000170: d311 a3bc 9a57 1e3d 3a83 b1bc 11c7 883d
00000180: 060b 9abc 3b74 eb3d 1916 35bd a58e 22bd
00000190: d8c8 a03d 1062 a73d 7ee3 02bd 2e7f f33d
000001a0: a59e 0dbb ab79 a8bd b05c d1bc 4e64 b43c
000001b0: 7e3b 4ebd fe3f dbbd 2446 d9bd a5e0 28bd
000001c0: 3bf6 b03d baaa a1bd 7dc7 8fba 3af5 633b
000001d0: 4706 763d 7af7 44bd 1847 4bbd ee90 933d
000001e0: b59a 6a3d bb85 9f3d e8b9 9fbd 8c72 6abd
000001f0: 8c9d b8bd 9bae 9c3d 7b93 a7bc 696c 683b
00000200: 7611 013e b331 e03d 1f8c 423d 5c46 04bd
00000210: ce60 6f3d 1eb9 76bd e64a b6bc 27aa 43bc
00000220: 9ec6 08be 2327 1f3d 4376 aa3d ebe5 273c
00000230: 925b dc3a 2ece 163d 363a a03d 0544 21bd
00000240: 1819 76bd ee29 413d 3f19 8f3c 389c 903d
00000250: 4c6d 29bc 225f 8cbc fb39 e0bc 95cf 4ebd
00000260: 3b19 bfbb 43c6 debc 5594 8e3c 0778 ff3c
00000270: b00f 7c3d 6ea0 a43d f39c 78bc 5020 ed3c
00000280: 9c18 d63c 3c0c cd3d c61c 673d f3dd 9e3d
00000290: 1e4b bb3d 1315 cf3d b49b 133d 8ec2 a1bc
000002a0: 2112 2b3d bc83 a9bd 939d fdbc 6fa5 8e3c
000002b0: b5bc 42bd c497 c53d ba7f ca3d e2e8 6bbd
000002c0: c758 b13d 950d 843c cb0e e9bc b81a c0bd
000002d0: ab68 543d e81d 0e3e 114b 24bc 1978 edbc
000002e0: 6e03 893c 2a69 213d 00c2 eb3c a406 c8bd
000002f0: 09d6 05bd 977a e5bd 44fa d8bc de1a 223d
00000300: d826 92bc 4345 823d bb5d 17bd d821 17bd
00000310: 978b 913c 6c12 f1bc de00 7bbd 1cde 74bd
00000320: b058 e73d ca85 6fbd 7469 c9bd 08fc 8d3c
00000330: 2530 583d 61da 71bd 51c7 1ebc 565b 12bb
00000340: e953 d53c 511c 5c3c 4ed2 383d 2530 083d
00000350: 8999 de3d 677f c13d 8f98 4d3d 4645 d33d
00000360: d1e9 d0bc ffcb e4bc 5a84 27bd f78c 8ebd
00000370: 9df3 f6bd eae9 f9bc 743d 2bbd 679f 0b3d
00000380: d0e2 cb3b 920c 603d 5450 583c dfe2 81bc
00000390: 60dd 383d c575 72bd 3dd9 a5bd ba93 e93d
000003a0: ebd7 9abd 85b3 1c3d d8b4 803d 2fae c43c
000003b0: 47ea da3d 4ed7 32bd cdac 46bd 9a34 1ebc
000003c0: ae4a 3e3c 7708 ccbc 1528 ba3c 4942 2ebd
000003d0: bc13 ff3c 0230 1d3d ef2b 09bc b24d 933d
000003e0: 987c 9e3c f3b4 26bc f53a cebc 7df4 033d
000003f0: 0442 09bd 9cf8 06bd 6582 483d 3e85 633d

weight f4 [512, 128]
-0.003064381 -0.058362465 0.07419191 -0.032539096 -0.07999091 0.08828832 0.046003077 -0.122423306
0.00785234 -0.047419313 -0.07532597 -0.0020642898 -0.06938223 0.0053994902 0.079113506 0.022482896
-0.11766083 0.012231709 0.044353824 0.09281607 0.053634714 -0.04403468 0.00829026 0.004337527
0.108811505 0.11351539 0.016116519 0.079334185 0.13043152 0.0025377623 -0.048129264 -0.09435553
0.0136227645 0.099040784 -0.08808627 -0.005004078 0.12810168 0.018296136 0.051624566 0.032013938
0.11854919 -0.03944356 -0.028303865 -9.447138e-07 -0.08303128 -0.062059373 -0.03514816 0.052883517
0.04558295 0.0057462407 -0.07854777 -0.0240811 -0.07714549 0.09962074 0.0851422 0.020108376
0.003942852 -0.056084596 0.0010145102 -0.05819109 0.016128069 -0.08801665 0.06538747 0.03261235
-0.049053006 0.0950849 -0.041370556 0.015791452 -0.041630916 -0.03680541 0.007924869 0.015055268
-0.09858571 0.013964838 -0.040683717 -0.048996583 0.03304725 0.057218973 0.0023590703 -0.15940644
0.046296403 0.08054566 -0.058799367 0.0670265 0.03759988 -0.08564786 -0.05526148 -0.020345004
0.05706379 -0.014568941 0.006852566 0.059715044 0.023932766 0.013898718 -0.07349702 0.04605194
0.12858437 0.009725963 -0.016697707 -0.02510135 -0.09742694 0.0033906526 -0.033829752 0.058712866
0.070579804 0.00072367484 -0.018117659 -0.105402745 -0.051949665 -0.04259175 -0.062436428 0.06984318
-0.044301253 -0.064716004 -0.008647341 -0.09301412 0.013728347 -0.09455353 0.016187644 -0.043992106
0.03542466 0.021864539 0.12457999 -0.012199727 0.103952095 0.020093167 0.051233817 0.10509031
-0.084886946 0.018753946 0.0735108 -0.104092084 0.09967872 -0.05232011 0.086355284 0.057697758
0.077018514 0.045965903 0.04712682 -0.07819408 0.0004374972 -0.0015528629 0.041679174 -0.043647595
0.037962075 -0.066873305 -0.09171585 -0.065733604 -0.05932402 0.074014895 -0.06786723 -0.09970338
0.017974159 -0.096001886 -0.046583716 0.084586464 0.044171356 0.076592535 0.053109135 0.06984575
-0.059319586 0.011639797 -0.011213234 0.09392887 0.061945643 0.08576571 -0.060217742 0.06124871
-0.002981949 -0.08991065 0.005557958 0.09596789 -0.04865212 0.07610199 0.08699777 -0.018251434
0.03144399 0.005884174 -0.068338744 -0.08917143 -0.07257001 -0.07425288 -0.06842677 -0.0021068621
-0.0016294877 0.031548377 -0.07176607 0.098930046 -0.004187708 0.016035749 -0.0052757696 -0.05753207
0.07309293 -0.013167414 0.031815264 0.074949846 0.04204318 0.021326635 -0.036914136 -0.02202121
-0.045859423 -0.027526412 -0.10464817 0.020534895 0.018631205 -0.024772564 -0.03172678 -0.05454586
-0.0372836 -0.04789095 0.05763345 -0.024080561 0.0010667628 -0.051099543 -0.023129111 -0.01754085
-0.08484615 -0.030108295 0.05763623 -0.08593757 0.029660854 0.063150436 -0.066503815 -0.031572513
0.08099307 -0.0945813 -0.104280815 0.007199362 0.0146029005 0.030749695 -0.07031375 0.02634231
-0.099409744 0.03712783 -0.06786912 0.012488264 -0.0429061 -0.051660083 0.00051176746 0.016062897
0.009389794 -0.007855925 0.029172983 0.07309131 0.019890994 -0.081566565 0.02196385 -0.09304688
-0.018240105 -0.078114256 0.03840036 -0.08879806 -0.0548533 0.033360526 0.09458065 -0.029623281
00000000: c8d3 48bb 7b0d 6fbd eef1 973d b747 05bd
00000010: 46d2 a3bd 82d0 b43d b96d 3c3d 12b9 fabd
00000020: 1aa7 003c c13a 42bd 8144 9abd 0949 07bb
00000030: 4518 8ebd 35ee b03b 4306 a23d 0d2e b83c
00000040: 29f8 f0bd 8267 483c 5bac 353d 5a16 be3d
00000050: 13b0 5b3d b55d 34bd dfd3 073c d021 8e3b
00000060: 91d8 de3d c27a e83d ca06 843c f679 a23d
00000070: d78f 053e 9650 263b 3123 45bd 793d c1bd
00000080: 0432 5f3c e5d5 ca3d 9366 b4bd 40f9 a3bb
00000090: 162d 033e c7e1 953c 4874 533d 0c21 033d
000000a0: ebc9 f23d 928f 21bd 82dd e7bc 3d98 7db5
000000b0: 4e0c aabd f831 7ebd 84f7 0fbd 639c 583d
000000c0: 30b5 3a3d f64a bc3b a7dd a0bd ba45 c5bc
000000d0: 74fe 9dbd f505 cc3d 095f ae3d 52ba a43c
000000e0: 0a33 813b f6b8 65bd 50f9 843a c859 6ebd
000000f0: 031f 843c 1342 b4bd dee9 853d 8794 053d
00000100: ceeb 48bd dfbb c23d 2c74 29bd 135d 813c
00000110: 2e85 2abd 45c1 16bd 4fd7 013c 5faa 763c
00000120: 4ee7 c9bd c7cc 643c f8a3 26bd a4b0 48bd
00000130: 8e5c 073d 715e 6a3d a29a 1a3b 713b 23be
00000140: 4ca1 3d3d 1ff5 a43d 9bd7 70bd 3145 893d
00000150: 5502 1a3d 2568 afbd dd59 62bd 91aa a6bc
00000160: b8bb 693d 91b2 6ebc 7d8b e03b c397 743d
00000170: a60e c43c 73b7 633c 9b85 96bd f6a0 3c3d
00000180: 9fab 033e a559 1f3c a1c9 88bc 59a1 cdbc
00000190: c787 c7bd b635 5e3b 1191 0abd e77c 703d
000001a0: 258c 903d ffb4 3d3a 7c6b 94bc 65dd d7bd
000001b0: 2cc9 54bd b074 2ebd 57bd 7fbd f109 8f3d
000001c0: 3b75 35bd d389 84bd 94ad 0dbc 307e bebd
000001d0: dcec 603c 48a5 c1bd f39b 843c 1131 34bd
000001e0: 7319 113d 431d b33c cb23 ff3d 5de1 47bc
000001f0: d6e4 d43d 6d9a a43c 8dda 513d 9739 d73d
00000200: 35d9 adbd e0a1 993c d58c 963d 3b2e d5bd
00000210: 5b24 cc3d 9d4d 56bd 0adb b03d 7c54 6c3d
00000220: e2bb 9d3d be46 3c3d 0d08 413d 3824 a0bd
00000230: e15f e539 6f89 cbba c8b7 2a3d d2c7 32bd
00000240: 1f7e 1b3d dff4 88bd 85d5 bbbd 579f 86bd
00000250: befd 72bd 1f95 973d f9fd 8abd 4931 ccbd
00000260: 8b3e 933c a39c c4bd 91ce 3ebd ab3b ad3d
00000270: 06ed 343d 8cdc 9c3d f788 593d 4a0b 8f3d
00000280: 18f9 72bd d9b4 3e3c b6b7 37bc c85d c03d
00000290: b7ba 7d3d efa5 af3d e1a6 76bd eddf 7a3d
000002a0: cd6c 43bb 1323 b8bd 881f b63b d08a c43d
000002b0: 7247 47bd 5cdb 9b3d e32b b23d 0884 95bc
000002c0: 6acb 003d 07d0 c03b 2ff5 8bbd 839f b6bd
000002d0: 969f 94bd e511 98bd 5623 8cbd 4813 0abb
000002e0: 8994 d5ba df38 013d 17fa 92bd d69b ca3d
000002f0: 0a39 89bb 675d 833c 5de0 acbb bfa6 6bbd
00000300: bfb1 953d 23bc 57bc b950 023d 4e7f 993d
00000310: 7835 2c3d 32b5 ae3c 4733 17bd d365 b4bc
00000320: 17d7 3bbd 127f e1bc c851 d6bd cc38 a83c
00000330: 78a0 983c d5ef cabc f1f3 01bd 7b6b 5fbd
00000340: b0b6 18bd 4d29 44bd 0d11 6c3d 9944 c5bc
00000350: 9fd2 8b3a c14d 51bd 4379 bdbc d4b1 8fbc
00000360: d1c3 adbd aca5 f6bc f813 6c3d 0900 b0bd
00000370: 52fb f23c 0455 813d 2733 88bd 2e52 01bd
00000380: b2df a53d d7b3 c1bd 2e91 d5bd a0e8 eb3b
00000390: 0141 6f3c c9e6 fb3c a800 90bd d4cb d73c
000003a0: 5697 cbbd 5a13 183d f7fe 8abd 939b 4c3c
000003b0: 4fbe 2fbd 8699 53bd 2228 063a 5696 833c
000003c0: a7d7 193c 23b6 00bc 2efc ee3c e6b0 953d
000003d0: 70f2 a23c 5f0c a7bd 88ed b33c 5d8f bebd
000003e0: 466c 95bc 5efa 9fbd b249 1d3d c2db b5bd
000003f0: dbad 60bd 0ca5 083d 80b3 c13d 86ac f2bc

bias f4 [512]
-0.045177177 0.10309208 0.04365471 -0.021571094 -0.112346604 -0.02681455 -0.04287169 -0.02432281
-0.023498628 -0.117485 0.018673595 0.036064196 -0.10237571 0.022159986 -0.031375144 -0.021857444
0.0022203724 -0.035144005 -0.0028907876 -0.17608954 0.07311264 -0.03534156 -0.12513047 0.034381803
-0.10969524 0.04119983 -0.07124053 0.028705427 -0.08067804 -0.044863526 -0.044510506 0.007061108
0.040864248 0.02474393 -0.14392117 0.042106025 0.049791723 -0.016312292 0.059289273 -0.09992214
-0.023450647 -0.03515091 0.015165195 0.17099346 0.066916905 0.06662995 -0.043410838 -0.050819226
0.00519284 -0.0033541797 -0.016547063 -0.06186378 -0.043800984 -0.108633436 0.05087095 -0.1028651
0.1081858 0.02937077 -0.031824548 -0.09740058 -0.015177222 -0.01473486 0.09093974 0.07251725
0.009919511 -0.07203795 -0.07881318 -0.025482215 -0.04602373 0.09132016 0.02991673 0.07249664
-0.038660064 -0.07031066 0.001907901 0.028374346 0.04270864 0.0474147 -0.09914422 -0.09782587
0.028899336 0.069419175 -0.026796728 -0.06194972 -0.047257613 -0.034417808 0.030259436 -0.034774013
-0.07557991 0.066448234 0.11709335 -0.039967958 -0.07403206 0.1428871 -0.036015525 -0.044051122
-0.09671073 0.078788705 0.036055163 -0.08730028 -0.13876957 -0.008623685 0.05621264 0.09205537
0.07245828 0.0734947 0.09213329 -0.043973662 -0.048582662 -0.06091184 -0.016187608 0.083036825
-0.043469746 0.016078496 -0.060915224 -0.09559481 -0.06908656 -0.07700239 -0.107264176 0.100342765
0.03944016 0.047941327 -0.02786112 0.030461961 -0.046613075 -0.03553277 0.015057792 -0.051876366
-0.020671662 -0.046526425 -0.064122066 -0.112110004 0.049197 0.038420692 -0.016906843 -0.06381206
-0.032167584 -0.03712382 0.014814708 0.04768548 -0.23594369 0.09605448 -0.05516226 -0.06377898
0.07105788 0.028718371 -0.07688666 0.03950183 -0.011527751 -0.054310787 0.03027504 0.0061345464
0.023506306 -0.04852523 -0.030391537 0.046199366 0.05184339 0.018496936 0.08854554 0.022399286
-0.065182306 0.053406153 0.029980158 0.07009006 0.026118834 -0.12214921 0.029413743 -0.017894149
-0.025054036 0.12266789 -0.08023275 -0.09984088 -0.048075587 0.0044353013 0.038698275 0.030961111
-0.02749139 -0.06549628 -0.07031938 0.06481421 -0.11123174 -0.07412625 -0.025382578 0.031739704
-0.01703813 0.16414842 -0.008501626 0.08949842 0.0061551137 -0.001641899 0.09834231 -0.19743069
-0.029705727 -0.096178696 -0.07860347 -0.07380807 0.034272835 0.092957005 0.075585775 -0.023541702
-0.15812902 -0.004755678 0.08727695 0.10692477 0.06677799 0.017675092 -0.008688848 0.08026321
-0.06873481 -0.045775242 0.004237499 -0.0055867867 0.06054836 0.089598715 -0.001114314 -0.049330458
-0.09001853 0.05144132 -0.05046624 0.0086299665 -0.028000358 0.055340756 -0.024496796 0.0020232752
0.028768742 0.081015006 -0.095205136 -0.097976446 -0.07007415 0.0020543325 0.124984846 0.103605
-0.03747676 -0.093850166 -0.035952937 0.06474106 0.030794911 -0.007867632 0.04383144 -0.045312364
0.030900206 -0.04919742 0.009129291 0.0066339797 0.0644177 0.15683268 0.0014652956 -0.0775241
0.029881751 0.045907922 -0.023895606 0.0946723 0.0827035 0.03610161 -0.03867242 -0.10526788
00000000: b40b 39bd f121 d33d 48cf 323d ddb5 b0bc
00000010: fa15 e6bd 30aa dbbc 3a9a 2fbd a140 c7bc
00000020: 3280 c0bc fa9b f0bd 5ef9 983c 0db8 133d
00000030: 5baa d1bd dc88 b53c 3983 00bd 620e b3bc
00000040: ab83 113b 29f3 0fbd 5e73 3dbb d150 34be
00000050: 14bc 953d 50c2 10bd 3422 00be efd3 0c3d
00000060: e6a7 e0bd 27c1 283d 8ee6 91bd a527 eb3c
00000070: 873a a5bd d1c2 37bd a650 36bd de60 e73b
00000080: 4561 273d c8b3 ca3c 1260 13be 5e77 2c3d
00000090: 68f2 4b3d 5ba1 85bc 4fd9 723d fba3 ccbd
000000a0: 921b c0bc 67fa 0fbd 7077 783c e918 2f3e
000000b0: bb0b 893d 4975 883d 90cf 31bd d227 50bd
000000c0: b328 aa3b ccd1 5bbb b58d 87bc e064 7dbd
000000d0: a968 33bd 357b debd 0f5e 503d f0aa d2bd
000000e0: 8490 dd3d f89a f03c 755a 02bd f579 c7bd
000000f0: e2a9 78bc 7b6a 71bc 9d3e ba3d ed83 943d
00000100: 7285 223c a288 93bd ce68 a1bd 14c0 d0bc
00000110: 6183 3cbd 1006 bb3d ee13 f53c 1e79 943d
00000120: 045a 1ebd 09ff 8fbd 8912 fa3a 5171 e83c
00000130: 41ef 2e3d eb35 423d 200c cbbd ee58 c8bd
00000140: 4dbe ec3c a42b 8e3d d084 dbbc fdbe 7dbd
00000150: 3391 41bd b0f9 0cbd a3e2 f73c 326f 0ebd
00000160: a4c9 9abd 0316 883d a3ce ef3d 71b5 23bd
00000170: 1f9e 97bd ff50 123e 0485 13bd f36e 34bd
00000180: 4610 c6bd f95b a13d 94ae 133d 7dca b2bd
00000190: 9c19 0ebe 5b4a 0dbc 3a3f 663d 8787 bc3d
000001a0: 0265 943d 6484 963d 61b0 bc3d ba1d 34bd
000001b0: 9dfe 46bd b27e 79bd e09b 84bc 360f aa3d
000001c0: 550d 32bd 0db7 833c 3e82 79bd 36c7 c3bd
000001d0: 417d 8dbd 6eb3 9dbd 52ad dbbd 8280 cd3d
000001e0: 018c 213d 205e 443d 013d e4bc 5d8b f93c
000001f0: 5aed 3ebd cf8a 11bd f5b4 763c 507c 54bd
00000200: 9e57 a9bc 7e92 3ebd 6e52 83bd ee99 e5bd
00000210: cb82 493d 045f 1d3d 3880 8abc e6af 82bd
00000220: 28c2 03bd 260f 18bd 64b9 723c da51 433d
00000230: 399b 71be 36b8 c43d d2f1 61bd 8e9e 82bd
00000240: cb86 913d ca42 eb3c c176 9dbd accc 213d
00000250: e4de 3cbc fd74 5ebd 5c03 f83c 4e04 c93b
00000260: 4c90 c03c 64c2 46bd acf7 f8bc 8c3b 3d3d
00000270: bc59 543d e386 973c 5d57 b53d b57e b73c
00000280: 4d7e 85bd 69c0 5a3d f398 f53c 618b 8f3d
00000290: 2af7 d53c 5d29 fabd 17f5 f03c c096 92bc
000002a0: 1f3e cdbc 4d39 fb3d 1151 a4bd 6079 ccbd
000002b0: e8ea 44bd 0156 913b 1582 1e3d 28a2 fd3c
000002c0: a035 e1bc ea22 86bd 9b03 90bd 50bd 843d
000002d0: 77cd e3bd 81cf 97bd 20ef cfbc 7e01 023d
000002e0: 8c93 8bbc 8616 283e 674a 0bbc f34a b73d
000002f0: d6b0 c93b fd34 d7ba b167 c93d 452b 4abe
00000300: 6d59 f3bc 56f9 c4bd dbfa a0bd af28 97bd
00000310: ac61 0c3d 3e60 be3d b7cc 9a3d 87da c0bc
00000320: 93ec 21be 85d5 9bbb 42be b23d 60fb da3d
00000330: e6c2 883d 5bcb 903c ab5b 0ebc 0a61 a43d
00000340: d6c4 8cbd d27e 3bbd b8da 8a3b 5d11 b7bb
00000350: 8f01 783d 887f b73d 2c0e 92ba bc0e 4abd
00000360: a35b b8bd 22b4 523d b0b5 4ebd b464 0d3c
00000370: 0261 e5bc fdac 623d 81ad c8bc ed98 043b
00000380: 6dac eb3c 32eb a53d e9fa c2bd e0a7 c8bd
00000390: 0983 8fbd fba1 063b 0ef8 ff3d dc2e d43d
000003a0: 3b81 19bd 8434 c0bd 6343 13bd f696 843d
000003b0: 9c45 fc3c 3ee7 00bc 9988 333d 7599 39bd
000003c0: 6e22 fd3c 3c83 49bd 0693 153c db61 d93b
000003d0: 6ded 833d bf98 203e 290f c03a f5c4 9ebd
000003e0: 93ca f43c f209 3c3d b8c0 c3bc 8de3 c13d
000003f0: 7460 a93d 48df 133d f966 1ebd b096 d7bd

weight f4 [128]
0.97511613 1.0941397 1.0787137 1.0378797 1.1323065 1.1066036 1.0577441 1.0429528
1.0080603 0.86508423 1.060491 1.0510925 1.2564493 1.1527607 1.0060492 1.0998752
1.1803435 0.99520415 1.0787181 0.9963168 1.0137466 0.91478235 0.92530215 0.9646386
1.1362678 1.0910537 0.9772224 1.1471715 0.9685865 1.1229194 1.0070432 1.0701407
1.1882766 1.0458156 1.0288688 0.99697804 1.0233448 1.0742643 0.97086823 1.010819
0.9554048 1.0017607 0.9858502 1.0117236 1.1673213 0.9050134 1.0866971 0.88298947
1.0034022 1.0875897 1.1384107 0.9757542 1.0656639 1.0976833 1.0124519 1.1503965
1.0229862 1.0954609 1.0188844 1.1048044 0.99431276 1.0166503 1.1102147 0.9609681
1.153572 0.9454535 0.9817933 1.0088147 0.9374176 1.2053417 1.044206 0.9346964
1.1001158 1.0353103 1.0313652 1.1032563 0.9802993 1.0599803 0.9130832 1.0067102
1.0321926 1.0052627 0.93422467 0.9702167 1.1128697 0.99378777 1.0878421 1.3182424
0.8780804 1.0111946 0.9490901 0.97044206 0.94839627 1.1598103 1.041148 1.0540892
1.0010263 0.93875766 1.071436 0.94054276 1.0080625 0.92571396 1.0307771 1.2386508
1.1666983 0.9982666 1.0784643 1.0496839 1.0273575 0.87183315 0.91302186 1.0151744
1.1526005 1.0298418 0.97771674 1.1094695 1.0909024 1.1723242 1.0960736 1.0515776
1.051025 0.85582936 0.9729108 1.0223603 1.2448641 1.063908 1.0802623 1.0297953
00000000: 36a1 793f c50c 8c3f 4a13 8a3f 3ed9 843f
00000010: 6bef 903f 30a5 8d3f 2964 873f 7a7f 853f
00000020: 1f08 813f 2976 5d3f 2bbe 873f 338a 863f
00000030: 55d3 a03f aa8d 933f 38c6 803f b6c8 8c3f
00000040: 7f15 973f b3c5 7e3f 6f13 8a3f 9e0e 7f3f
00000050: 73c2 813f 2d2f 6a3f 9ae0 6c3f 8ef2 763f
00000060: 3971 913f a6a7 8b3f 3f2b 7a3f 84d6 923f
00000070: 49f5 773f d3bb 8f3f cbe6 803f 5ffa 883f
00000080: 7319 983f 49dd 853f f9b1 833f f439 7f3f
00000090: f6fc 823f 7e81 893f d28a 783f 8462 813f
000000a0: 6995 743f b239 803f ae60 7c3f 2980 813f
000000b0: c96a 953f f5ae 673f e418 8b3f 990b 623f
000000c0: 7c6f 803f 2436 8b3f 71b7 913f 07cb 793f
000000d0: ad67 883f e380 8c3f 0698 813f 3140 933f
000000e0: 36f1 823f 1038 8c3f ce6a 823f 3b6a 8d3f
000000f0: 488b 7e3f 9921 823f 841b 8e3f 0102 763f
00000100: 3fa8 933f 3e09 723f ce56 7b3f d720 813f
00000110: 9afa 6f3f a348 9a3f 8ba8 853f 4348 6f3f
00000120: 98d0 8c3f 0c85 843f c603 843f 8137 8d3f
00000130: e5f4 7a3f 6fad 873f d2bf 693f e1db 803f
00000140: e31e 843f 73ac 803f 5929 6f3f 1f60 783f
00000150: 8472 8e3f e068 7e3f 693e 8b3f 2bbc a83f
00000160: e1c9 603f d36e 813f 92f7 723f e46e 783f
00000170: 19ca 723f aa74 943f 5644 853f 65ec 863f
00000180: a121 803f 6c52 703f d124 893f 69c7 703f
00000190: 3108 813f 97fb 6c3f 81f0 833f 1c8c 9e3f
000001a0: 5f56 953f 668e 7f3f 1e0b 8a3f 0b5c 863f
000001b0: 7380 833f 7530 5f3f cdbb 693f 3cf1 813f
000001c0: 6a88 933f dbd1 833f a54b 7a3f 1903 8e3f
000001d0: b1a2 8b3f b80e 963f 244c 8c3f 189a 863f
000001e0: fd87 863f a217 5b3f af10 793f b4dc 823f
000001f0: b557 9f3f 232e 883f 0946 8a3f 55d0 833f

bias f4 [128]
-0.1994816 0.00315541 0.037358236 -0.15610449 -0.19393566 0.063046545 -0.10753519 0.06358385
-0.15050383 -0.1489555 0.09991392 -0.08125163 -0.08837769 -0.04012106 -0.039867654 0.1295671
0.11766423 -0.12542474 0.18618526 0.069600806 0.01660993 0.014718025 -0.10105816 0.15710713
0.17354858 0.023884341 0.046596177 -0.067881525 -0.08821305 -0.1588002 -0.08610402 0.14943175
0.094704434 0.059840217 0.009735715 0.07326494 0.05836959 -0.06880555 0.06774022 0.1569879
-0.08132842 0.10609523 -0.12700197 -0.059626132 -0.06227329 -0.16009806 0.06763784 0.058163658
-0.008580151 0.055951875 -0.010627838 -0.035833098 -0.14676863 0.04717919 -0.0621118 -0.07728389
-0.1137233 -0.12052355 -0.04292323 0.09441449 -0.017969888 -0.14052838 -0.06871172 -0.099341296
-0.13726906 0.05658185 0.08458744 -0.04817857 0.022339031 -0.09563561 0.085379146 0.14578514
0.011847885 -0.12515384 0.11653015 -0.09850424 0.05588141 0.06308827 0.04502688 0.0476165
0.019820703 -0.11904442 0.11512048 -0.04024929 -0.033175472 0.113347106 -0.107791536 -0.044102546
-0.027343327 -0.0678883 0.0153981615 0.036452405 0.006837372 0.08716669 -0.11880327 -0.100748315
-0.0030465696 -0.035142176 -0.006315567 -0.0034673854 0.07838796 0.06936427 -0.12983222 0.08443086
0.04900527 0.2477476 -0.19031282 0.071920805 -0.04341333 -0.066595934 0.011523509 -0.108142294
-0.094795756 -0.13680151 -0.0033244253 0.010039469 -0.011630725 -0.039088596 -0.04846459 -0.0383279
0.055662327 0.08681425 0.014803973 0.050789136 0.028255599 0.06537149 -0.18406963 -0.09300155
00000000: e844 4cbe ffca 4e3b f304 193d dbd9 1fbe
00000010: 1297 46be 8c1e 813d 693b dcbd 4038 823d
00000020: ad1d 1abe ca87 18be ab9f cc3d 4167 a6bd
00000030: 5dff b4bd fb55 24bd 444c 23bd 3dad 043e
00000040: f2f9 f03d 586f 00be 59a7 3e3e de8a 8e3d
00000050: 8c11 883c df23 713c 95f7 cebd b1e0 203e
00000060: b8b6 313e 18a9 c33c a2db 3e3d 7805 8bbd
00000070: 0ba9 b4bd 859c 22be 4e57 b0bd a304 193e
00000080: 66f4 c13d 041b 753d 8c82 1f3c ee0b 963d
00000090: f414 6f3d ede9 8cbd 62bb 8a3d 70c1 203e
000000a0: 848f a6bd 7548 d93d ce0c 02be 883a 74bd
000000b0: 4712 7fbd bff0 23be b585 8a3d 043d 6e3d
000000c0: c393 0cbc cb2d 653d 6220 2ebc bac5 12bd
000000d0: 844a 16be f73e 413d f168 7ebd 0447 9ebd
000000e0: c3e7 e8bd 0dd5 f6bd 45d0 2fbd 625c c13d
000000f0: 9635 93bc ace6 0fbe bbb8 8cbd 7373 cbbd
00000100: 4390 0cbe 5fc2 673d 2e3c ad3d e456 45bd
00000110: 5800 b73c 9adc c3bd 43db ae3d b348 153e
00000120: a21d 423c 5428 00be 5ca7 ee3d 97bc c9bd
00000130: e8e3 643d 6c34 813d 1b6e 383d 8509 433d
00000140: 075f a23c 90cd f3bd 49c4 eb3d 71dc 24bd
00000150: 01e3 07bd 8722 e83d cfc1 dcbd dfa4 34bd
00000160: 1dff dfbc 0509 8bbd 9248 7c3c 1e4f 153d
00000170: 090c e03b 7384 b23d 214f f3bd 2255 cebd
00000180: f5a8 47bb 3ef1 0fbd d1f2 cebb 133d 63bb
00000190: de89 a03d db0e 8e3d bdf2 04be 16ea ac3d
000001a0: c0b9 483d 8cb1 7d3e 5de1 42be 374b 933d
000001b0: 2dd2 31bd 7363 88bd 1acd 3c3c b579 ddbd
000001c0: 4724 c2bd b215 0cbe 9ade 59bb 967c 243c
000001d0: cc8e 3ebc 5d1b 20bd ce82 46bd b7fd 1cbd
000001e0: 2efe 633d abcb b13d 5d8c 723c 4508 503d
000001f0: 4978 e73c 7de1 853d c07c 3cbe 9977 bebd
