models/FreeSolv_Model_v1.0.pth (torch, 950816 bytes, 22 tensors)

bias f4 [128]
000000 a3 8e f6 3c d8 b5 c1 bd 69 0a 8a 3c de ee aa 3d
       0.030097311 -0.09458512 0.016850667 0.083463416
000010 70 1f 5b bd 7d dc 64 3d 60 38 23 bd e4 be fb 3c
       -0.053496778 0.055874337 -0.039848685 0.030730672
000020 fa 6c 18 bd 48 cc 74 3d 7a cd cf 3d e8 75 c6 3d
       -0.037213303 0.05976513 0.101466134 0.096904576
000030 39 d5 8c bd 1b df ba 3d ce ba 4c 3b 02 62 d4 bd
       -0.068766065 0.09124585 0.0031239274 -0.10370256
000040 d5 71 60 bd 1a 81 5e 3d 3d a5 7a 3d 29 8b a4 3d
       -0.05479606 0.05432234 0.06119274 0.08034355
000050 e6 5a fb bc 80 0c c8 3c 4f c0 c4 bd a6 ce 89 3d
       -0.030682992 0.024420023 -0.096069925 0.06728868
000060 a9 93 22 bd 57 82 83 3d bb b6 c7 bd 9e 0e d7 bc
       -0.0396916 0.06421345 -0.0975165 -0.026252087
000070 84 d6 69 3c 3a c5 02 be 84 ba 2c bd ac 24 b8 bd
       0.014272336 -0.12770548 -0.042170063 -0.089913696
000080 a0 bb 41 bd 2d d4 c3 3d 7e 56 f2 bd 9e e9 46 bd
       -0.047298074 0.09561954 -0.11832903 -0.04856264
000090 45 09 53 3d b1 7b cf bd e2 d3 56 bd 73 60 76 bd
       0.051522512 -0.10131014 -0.05244816 -0.060150575
0000a0 e1 8d a8 3d d1 81 b3 bd 5a c4 32 bd 43 2b 2c 3c
       0.08230186 -0.08764995 -0.043644287 0.010508361
0000b0 3b 08 70 bd 75 dd 39 3c d3 c1 49 bd a8 f7 ca 3d
       -0.0586016 0.011344303 -0.04925711 0.09910518
0000c0 49 83 f8 3c ba db 91 bc ef 2c f2 bd e2 91 b7 bc
       0.03033604 -0.01780497 -0.11824977 -0.02240843
0000d0 62 e1 01 be b5 f0 4e 3c 2b 42 79 bc 7f 98 07 bd
       -0.12683633 0.012630631 -0.01521353 -0.033104416
0000e0 6e dc d7 bc 0c b1 8f bd 86 79 14 bd 5f 0a 6a bd
       -0.026350226 -0.07016191 -0.036248706 -0.057138797
0000f0 af ff a2 3b c9 1a 53 3d 5c d8 e7 3b 16 ff 34 3d
       0.0049743275 0.051539216 0.0070753526 0.04418858
000100 be ef 97 bd e0 5c 5c bc 8f c1 50 3d 2e d0 dd 3d
       -0.07418774 -0.0134498775 0.05096584 0.10830723
000110 86 a6 a7 bd 41 dd 08 3c 8f 9a 85 bd e1 20 0c 3d
       -0.08186059 0.008353532 -0.0652362 0.034211043
000120 bb e2 d8 bd 6b e7 20 3d 44 c5 16 3c 4e 85 be 3d
       -0.105901204 0.039283197 0.009202305 0.093027696
000130 d5 3b e7 bd bc 02 8e 3d d3 13 18 be 6f 04 16 bd
       -0.11290709 0.06934115 -0.14851312 -0.036625322
000140 02 c4 8b bd b4 28 26 3c 5a 6e ad bd cf de f3 3c
       -0.06824495 0.01014154 -0.084683135 0.02976933
000150 20 b3 d3 bd b0 c5 ea 3d 72 ce 8c bc 0f c6 2b 3d
       -0.103369 0.11463487 -0.017188285 0.04193693
000160 75 9b 55 bd 6e 82 09 3d 54 73 04 3e 9e 4a c0 bd
       -0.05215021 0.033571653 0.12934619 -0.09389232
000170 25 5d ac bd 69 e4 95 3d 0d a0 51 3b 34 9e 85 3d
       -0.084162034 0.073189564 0.0031986267 0.065243155
000180 10 13 e1 3d ba 81 7f 3d d5 38 39 3d 55 8e 92 3c
       0.10989964 0.062379576 0.045220215 0.017890135
000190 71 87 73 bd 9f cf 51 bc 67 59 c3 3b af d4 c4 3d
       -0.05945534 -0.012805848 0.0059615853 0.09610879
0001a0 b7 23 ac 3d b2 f0 94 3c 7d 16 00 3e d4 d8 bd bb
       0.084052496 0.018181179 0.12508579 -0.00579367
0001b0 79 51 8d 3d 9b 21 1c bd ec f0 b7 bc b6 5d 00 3e
       0.06900305 -0.038117986 -0.022453748 0.12535748
0001c0 c1 bd c1 3d 98 76 9e 3d a1 1c f1 3d 6c 77 1f bd
       0.09460021 0.07737464 0.11773039 -0.03893225
0001d0 43 2c bd 3d 1f e9 bb 3d 7c ea 9b bc 85 bb fa 3c
       0.09236958 0.09175324 -0.01903271 0.030606994
0001e0 ab 4c 4d 3d e0 42 7e 3c bf ec e0 3d 4d b8 4a 3d
       0.050121944 0.015518874 0.10982656 0.04949217
0001f0 89 5f 29 3d ab ed 41 bd ee 0f 12 3c 09 56 c0 3d
       0.041350875 -0.0473458 0.008914931 0.0939141

weight f4 [128, 9]
000000 5f c7 57 be ec 8a 95 3e 89 4f 9a bd b3 31 61 3e
       -0.21072148 0.2920755 -0.075347014 0.21991615
000010 4b 8e 2c 3d 2d 00 27 3e f9 df c8 3d 3b 70 82 3d
       0.04212789 0.16308661 0.098083444 0.063690625
000020 e9 78 3a 3e 47 7c 19 3e 5c aa 67 3e ba 10 28 3e
       0.18210186 0.14988814 0.2262358 0.1641263
000030 34 cf 8c be f7 67 8a bd 00 30 35 bb 03 00 87 3c
       -0.27501833 -0.06758111 -0.0027647018 0.016479498
000040 74 75 ad bc 9a bd af bd 4d f3 8e bd 09 a1 99 3e
       -0.02117417 -0.085810855 -0.0698 0.30005673
000050 39 5e c1 bc d0 0c 74 3e 66 af 1d 3e 8a f6 a4 3d
       -0.0236045 0.23833013 0.1539894 0.08054836
000060 fa e0 82 be 52 78 98 bd 78 f0 19 3e 57 54 14 bd
       -0.25562268 -0.07444824 0.15033138 -0.036213245
000070 19 f7 8c be b5 0a 02 3d a4 4f 0c be 24 78 a4 bc
       -0.2753227 0.031748492 -0.13702255 -0.020076819
000080 50 b6 10 bc 8c 0b 18 3e 1e ae bb bd 69 30 2e be
       -0.008832529 0.14848155 -0.091640696 -0.17010655
000090 ae 8a 15 3e c0 4b 81 bd 63 a7 06 3e 9b 29 c5 bd
       0.14603683 -0.06313276 0.1314979 -0.09627076
0000a0 22 d0 27 be 36 85 b0 bd 5c 34 88 3d 67 4c 01 be
       -0.1638799 -0.08619158 0.06650612 -0.12626801
0000b0 a8 c0 91 3e fd 44 e1 bd 6c 36 e7 3d b1 7d 3d 3d
       0.28467298 -0.109994866 0.11289677 0.046262447
0000c0 ba 88 33 bd 95 f2 6c 3d 42 29 8e 3d 71 41 24 3e
       -0.043831564 0.05784853 0.06941463 0.16040589
0000d0 bc 64 84 bc 67 a1 4a 3d 42 a4 9b bd 45 69 35 3e
       -0.016161315 0.04947033 -0.07599689 0.17715938
0000e0 94 57 70 3e e5 27 50 bb 67 1b 11 3e 77 9f 27 be
       0.23470908 -0.003176206 0.1417061 -0.16369425
0000f0 cc f8 6f bd c8 bd e9 3d ab dd f8 3d 67 d3 5c 3e
       -0.05858688 0.11413151 0.12151655 0.21565019
000100 96 4c 9b bd 7c bd 4c bd 09 a0 4b be 65 78 9c bc
       -0.07582967 -0.049985394 -0.19885267 -0.019100377
000110 e6 6b 3a be ae dd 4f bd e1 c0 2b 3e d6 f4 48 bd
       -0.18205222 -0.05074852 0.16772796 -0.04906162
000120 30 20 84 3e cd af a9 bc ee ad ef 3d 1d 22 4d be
       0.25805807 -0.020713711 0.11703096 -0.20032544
000130 54 bc 92 be 76 9d 4a be 01 d4 cc bd b3 5a 54 be
       -0.28659308 -0.19786629 -0.10001374 -0.20737724
000140 00 13 15 be 89 29 6c bd 7e 49 00 3e 29 91 14 be
       -0.14558029 -0.0576568 0.12528035 -0.14508499
000150 f3 42 35 3e f1 36 ad 3d 51 b3 03 be 4a 43 85 bd
       0.1770132 0.08457745 -0.12861373 -0.06506975
000160 fa 08 75 3e 4a 0e 19 3c 94 7c a2 bb 59 22 66 3e
       0.23929206 0.009341786 -0.0049586985 0.2247404
000170 d5 74 66 bd c3 96 17 3c 36 1d 74 3c 55 17 ce bd
       -0.056263763 0.009252253 0.014899543 -0.10063044
000180 4a 82 eb bb d6 7a 14 be a5 ae 24 3e 26 ff f7 bd
       -0.0071871625 -0.14499983 0.16082247 -0.121092126
000190 ca 75 13 be fb 36 78 3e c1 af ae 3c fb af 3a bd
       -0.14400402 0.24239723 0.02132404 -0.045577984
0001a0 1c 30 88 bd 7c a6 b0 bc aa fb 5b 3e f0 f1 05 be
       -0.06649801 -0.021563761 0.21482721 -0.13080573
0001b0 b1 e3 af 3c 96 16 2c 3e 9d 36 23 be 80 08 80 3d
       0.021470876 0.16805491 -0.15938802 0.06251621
0001c0 23 bc 18 bd a0 55 7f bc 31 e4 a1 3d 55 a7 7e 3e
       -0.037288796 -0.015584379 0.07904852 0.2486852
0001d0 0b 90 40 3e 23 dc 6d 3c f0 12 01 be 84 63 38 3d
       0.18804948 0.014517817 -0.1260488 0.04501678
0001e0 4c bd a3 3c f0 8d 2d 3e 34 8b d8 bd 3e f7 43 be
       0.019987725 0.16948676 -0.10573426 -0.19137284
0001f0 43 db bb bd 5b c5 52 be b0 03 62 bd a8 a9 57 3d
       -0.0917268 -0.20583098 -0.055179298 0.05265203
000200 c6 68 b6 bd b5 cd ac 3d 8f 67 64 be bc 54 37 bd
       -0.08906703 0.08437673 -0.2230513 -0.044758543
000210 6b 74 f9 3d 3c d4 f7 bd 81 9d 16 bd 40 80 11 3e
       0.12180408 -0.12101027 -0.0367713 0.1420908
000220 cd bb 08 3f 71 fc 61 3d c6 ae 4b bd b5 34 9f be
       0.5341156 0.055172388 -0.049727224 -0.310949
000230 00 ce 82 3c e7 e1 08 3e cd 6f ba 3e 4d 10 d7 3d
       0.01596737 0.13367425 0.36413422 0.10501156
000240 db 85 81 3d 09 59 82 be d6 e6 0b 3d a4 53 59 3d
       0.06324359 -0.25458553 0.03415569 0.05305828
000250 71 00 25 3d 4a 8f 02 be cf 75 72 be 9e 3d 74 3e
       0.040283624 -0.12749973 -0.23677753 0.2385163
000260 ea cf 10 3e 9b 79 e5 bd a9 f5 71 3e 2c 9d 3d be
       0.14141813 -0.11204835 0.23628868 -0.18516988
000270 a0 ab 20 3e 87 f9 1c be a0 3b f2 bb 0b 05 4d bd
       0.1569047 -0.15329562 -0.0073923618 -0.050053637
000280 d9 4a dd 3d da 83 4a 3e e5 4f 8c 3d a0 80 a1 be
       0.10805292 0.1977686 0.06851176 -0.31543446
000290 75 8b 43 3d a2 9f 2c bd 7d 3d 7e 3a 05 f4 4c 3e
       0.04774042 -0.042144425 0.00096984935 0.20014961
0002a0 bd 1c 16 be f7 ad 3f bc f3 0c ee bd 79 90 2e be
       -0.146594 -0.011699191 -0.116235636 -0.170473
0002b0 2b fe 72 be 05 98 3f 3e f0 ac 99 bd 04 32 22 3e
       -0.2372977 0.18710335 -0.07503688 0.15839392
0002c0 00 25 69 bb 4e 6d 80 3d 1b 3f a7 bd 87 21 94 be
       -0.0035575032 0.06270848 -0.08166333 -0.2893183
0002d0 b8 7c 9b 3d a3 3c 55 bd e3 37 08 be fb 76 f5 3c
       0.075921476 -0.05205978 -0.13302569 0.02996396
0002e0 ba 11 77 be b0 ca 09 bd 04 d0 d1 3d 8b 89 56 be
       -0.24127856 -0.033640563 0.10244754 -0.20950906
0002f0 14 e6 ae bb 6b 1a a1 3d 66 00 08 bd 6c f3 b2 bb
       -0.005337486 0.07866367 -0.033203505 -0.005461147
000300 15 1f 01 3d 2f 89 33 3e f0 a5 03 3d 8f 33 79 be
       0.031523783 0.175328 0.032140672 -0.24336074
000310 32 a0 56 be 74 66 26 bd 75 11 18 bd 7e 8c 48 bd
       -0.20959547 -0.04062505 -0.037126023 -0.04896211
000320 35 ac 12 3e 3b bd f9 bb e0 b2 ba bd 7a 29 1c be
       0.14323504 -0.007621435 -0.09116149 -0.15250197
000330 0b c5 fc 3c 33 21 06 be 08 dc 82 3d c2 13 98 bd
       0.030855676 -0.13098602 0.06389624 -0.074256435
000340 fa 2f e8 3d c3 d5 58 bd 8f 7e de 3d 2d 1b 99 bd
       0.11337276 -0.052938234 0.10863983 -0.074758865
000350 99 45 c2 bd 31 59 38 3b 95 3a 08 3e 1b f9 31 bd
       -0.09485931 0.0028129334 0.13303597 -0.043450456
000360 bb 4e 0a be 3c 18 4b bd bd 4f b6 3c c8 8d 95 3d
       -0.13506596 -0.04958366 0.022254819 0.07302433
000370 16 fe 56 3c 17 98 45 3e a3 cd 08 3e 55 6e 96 3d
       0.013122102 0.19296299 0.13359694 0.07345263
000380 a8 eb 12 3e e0 be 47 bd 3f d5 b9 bd 3e 98 02 3e
       0.14347708 -0.048766017 -0.090738766 0.12753388
000390 5e 26 a8 bd 39 10 5c 3d a0 bf 5e bd e1 1b 89 bc
       -0.08210443 0.05372641 -0.054381967 -0.016736927
0003a0 9d 2a 4b bd 55 e4 04 be d9 18 bf bd 75 68 4f bc
       -0.049601186 -0.12977727 -0.09330911 -0.012659182
0003b0 55 7b 42 3e 6b d2 bc 3d 96 73 36 3e cd cd dd bd
       0.1899236 0.092198215 0.1781753 -0.10830269
0003c0 31 5e a7 3d fa e3 6b 3c d6 af e9 ba ef 3c 39 bd
       0.081722625 0.014397616 -0.0017828892 -0.045224126
0003d0 b0 2c a5 3e 6b 90 44 3e 9e 1e 26 bd 22 3b 33 3e
       0.32260656 0.19195716 -0.040556543 0.17503026
0003e0 95 cc 0b 3e 99 02 2a bd aa e7 b2 3d c0 17 2b be
       0.1365226 -0.041506384 0.08735593 -0.16708279
0003f0 ad 53 64 bd 50 55 f5 3d b4 76 c8 3d 13 9f 66 3e
       -0.055743862 0.11979163 0.09788266 0.2252162

att f4 [1, 4, 128]
000000 39 91 95 be 75 3e de bd 12 ae 44 be 01 22 02 3e
       -0.2921236 -0.108517565 -0.19207028 0.12708284
000010 ef 36 6c 3e 8d f4 06 be 19 f1 5e 3d 97 b8 d2 bc
       0.2306783 -0.13179226 0.054429147 -0.025722785
000020 77 cc 03 3e 1e 11 2b 3e fc 21 8e bd 94 a1 2b 3e
       0.12870966 0.16705748 -0.06940076 0.16760856
000030 3f 9f e2 3d a8 6e 74 3d 2d 1c 4d 3c 10 9d 82 be
       0.1106553 0.059675843 0.012518925 -0.25510454
000040 33 06 c1 3d 4a bc 9b 3d ea 2b 9a 3d e0 24 de 3d
       0.094250105 0.07604273 0.07527907 0.10846877
000050 94 3a 37 3d e8 48 0c 3d ec eb 63 3e 8e 72 05 be
       0.0447336 0.034249216 0.22257966 -0.1303198
000060 c7 55 05 3d ad 0b 83 be 6a 32 a6 be b5 f4 80 bd
       0.032552507 -0.25594845 -0.32460338 -0.06296674
000070 8d f0 6a bd ed 6e 08 3e ac ae 27 be 08 47 77 3d
       -0.057358313 0.13323565 -0.16375226 0.060370475
000080 0d fa c3 bd c7 1a 6f 3e ad f6 94 3c 08 d9 54 3e
       -0.09569178 0.23350058 0.01818403 0.20785916
000090 5b 3f 77 bd 9b db 9f 3d ce 2c 57 3d 51 fc 3b 3e
       -0.060363155 0.07805558 0.052532963 0.1835797
0000a0 13 05 e7 3d 51 1b 7f bc c0 92 06 3e 6f 11 5f 3e
       0.11280265 -0.015570478 0.13141918 0.21783994
0000b0 49 2e 01 be 35 da 82 3e de 25 05 be 36 e7 5f be
       -0.12615313 0.25557104 -0.13002726 -0.21865544
0000c0 a4 50 49 3d 58 fe 5c 3e 41 cd 9c 3e 64 ec 1b 3b
       0.04914917 0.215814 0.30625346 0.0023792023
0000d0 28 a6 b7 3d 3a 04 ed 3d dc 5e 7f 3e 8d c0 15 be
       0.08967239 0.11573072 0.2493853 -0.14624234
0000e0 74 59 3f 3e ea fc 35 bd 59 9f 22 3e 29 7a cd bd
       0.18686467 -0.04443065 0.15881099 -0.10033066
0000f0 98 a1 e0 3b b1 86 c2 3d 6e 00 5a be d7 df 38 be
       0.006855201 0.094983466 -0.21289226 -0.18054138
000100 9b 37 80 be 65 80 06 be fc 39 51 be f1 0f 9f be
       -0.25042424 -0.13134916 -0.20432276 -0.3106685
000110 30 1d 80 3d 04 aa 8d 3e 7b 59 15 be 6e a0 18 3e
       0.06255567 0.27668774 -0.14584915 0.14904949
000120 98 76 75 be 7e 40 04 be ac 32 87 be bc 2f f8 bd
       -0.23971021 -0.12915227 -0.26405847 -0.121184796
000130 86 55 5b be b8 0b 05 be 47 e1 d9 3d 3d 53 88 bd
       -0.21419343 -0.12992752 0.10638671 -0.066565014
000140 e8 52 32 be 2b 74 0f bd d8 f1 d6 3d 5a 19 58 be
       -0.17414439 -0.035022896 0.10495347 -0.21103421
000150 41 99 ce 3d 70 7c 32 3e 8a 01 62 be 54 53 e9 bd
       0.100878246 0.17430282 -0.220709 -0.11392847
000160 c3 19 ba 3e 02 01 bb 3e 98 4b a0 3e c2 02 f3 3d
       0.3634778 0.36524206 0.31307673 0.118657604
000170 47 da c5 bd eb d1 a2 3e b9 9b d7 bd 09 39 ab 3d
       -0.09660774 0.3180078 -0.105277486 0.08360488
000180 f9 62 1b 3e e4 bd 3c be 47 9c 08 3e 7e 59 40 3e
       0.15174474 -0.18431813 0.13340865 0.18784139
000190 da a8 44 3e 2e d9 5c 3e 4b 49 68 3e 4b 23 34 3e
       0.19205037 0.21567222 0.22684209 0.17591588
0001a0 6a 25 15 be a0 ba 5e be c6 82 44 be 75 7c e1 3d
       -0.14565054 -0.2175088 -0.19190511 0.110100664
0001b0 c1 ed 51 3e 4c 4d 89 bb 7f 13 77 3d 38 30 8e 3d
       0.20500852 -0.0041901227 0.060321327 0.06942791
0001c0 e9 fe 41 3d 88 d0 c5 bd 73 c8 3f 3d 64 94 c1 bd
       0.047362242 -0.09658915 0.046822023 -0.094521314
0001d0 9d c5 03 be 24 aa 51 be d0 26 67 be 3d 4a 4a be
       -0.12868352 -0.2047506 -0.225734 -0.19754882
0001e0 ff b8 93 bd ea f0 b2 bd 10 62 87 bd 6b 26 76 3c
       -0.072130196 -0.08737357 -0.06610501 0.015023808
0001f0 50 84 62 be 81 92 6b bc 9d db b5 3c e8 a3 2a bd
       -0.22120786 -0.014378191 0.022199446 -0.04166022
000200 95 69 5e be 4c 8f 13 3e 3d 18 60 3e 06 db be 3b
       -0.21719964 0.14410132 0.21884246 0.0058244495
000210 49 e4 f0 bd 4c 89 46 be c4 ef c3 3c 7d 9a 27 be
       -0.11762292 -0.19388312 0.02391804 -0.16367526
000220 64 90 58 3e 7a 09 d3 3d 57 83 83 bd f0 b8 64 3d
       0.2114883 0.10304542 -0.064215355 0.055840433
000230 cb 1f 50 3d 73 b7 79 3e d7 06 c7 bd c0 c8 1e be
       0.05081157 0.24386387 -0.097181015 -0.15506268
000240 65 49 68 be 4b ee 03 be 8e 2a 8f 3c cc 73 2c be
       -0.22684248 -0.1288387 0.017476346 -0.16841048
000250 65 08 c2 3e 2f 12 8e 3d a0 f2 3a be 34 c4 06 3e
       0.3789703 0.06937062 -0.18256617 0.13160783
000260 75 fb fd 3d dd c8 79 3e 7e 3c df bd b2 93 5d be
       0.12401477 0.2439303 -0.1090021 -0.21638373
000270 f8 a6 77 bd 09 ab 8d bd 29 26 f3 3e a3 18 7a 3d
       -0.06046197 -0.06917388 0.4749005 0.06105865
000280 aa 27 14 3e f8 8d 39 bc cc 9d 8e bd 75 84 ac be
       0.14468256 -0.011325352 -0.06963691 -0.33694807
000290 d6 90 30 be d4 a0 e4 3d 54 31 81 be 49 12 4e bd
       -0.1724275 0.11163488 -0.25232947 -0.050310407
0002a0 72 21 a3 bd 22 eb f5 bc ab 31 05 be 7f 18 bc bc
       -0.079653636 -0.030019347 -0.13007228 -0.0229609
0002b0 a4 fa f7 3d ce 2d 2f 3e b0 02 98 bd 45 22 b6 bd
       0.12108353 0.17107317 -0.074223876 -0.08893255
0002c0 a7 6c 31 3e 03 15 92 3e dc f7 02 be 67 e8 b2 3e
       0.17326604 0.28531656 -0.12789863 0.34942934
0002d0 c2 78 a0 bc 11 b1 59 be 82 e1 3c bc 0e f3 63 be
       -0.019588832 -0.21258952 -0.011528375 -0.22260687
0002e0 65 e8 8f be 84 74 1f be 48 92 ba 3e 40 1d 08 3e
       -0.2810699 -0.15571791 0.3643973 0.13292408
0002f0 f4 b0 81 bd 25 fc f1 bc 59 a9 9d bd 02 81 ef 3d
       -0.06332579 -0.029539177 -0.07698316 0.11694528
000300 7e 2c 77 be 90 9b 38 3e 33 2b b1 3e e2 8b 4a be
       -0.24138066 0.18028092 0.3460327 -0.19779924
000310 20 12 67 bd 1f 8f 92 bd 28 6b 88 be bb ce 9d bd
       -0.05641377 -0.071562044 -0.26644254 -0.07705446
000320 fc 32 f1 3d a8 33 66 3e 0e 5c 75 3e 0b 3c 84 bd
       0.117773026 0.22480643 0.23960897 -0.06456765
000330 ae 4d 50 3e 00 42 99 bd 5f 58 98 3e 3d d1 52 be
       0.20342132 -0.074832916 0.29754922 -0.2058763
000340 c0 e7 2c 3d 58 d3 29 3e 54 6d 8c be f1 63 ed 3d
       0.0422132 0.16584527 -0.2742716 0.11591328
000350 ba 1c 54 3d e7 69 88 be fa 42 de bd d6 7c 25 be
       0.05178521 -0.26643297 -0.108526185 -0.16160902
000360 c6 28 4e be 00 20 5a be 9d b4 b1 3d 41 96 aa bd
       -0.20132741 -0.2130127 0.086770274 -0.0832944
000370 5d 00 3d 3e 4e 91 95 3e 02 6e 9a bd fe 8b ae be
       0.1845717 0.2921242 -0.075405136 -0.3409118
000380 fb 8d 40 3e f3 cf 82 be 1f e3 8d bd 14 6b a4 bd
       0.18804161 -0.25549278 -0.069280855 -0.08028236
000390 2d f3 d0 bd ad 9f 02 be 8d 83 38 be 5c 91 54 bd
       -0.10202632 -0.12756224 -0.18018933 -0.051896438
0003a0 cf 94 8a 3d f7 07 6d bd ac 7a df 3d 6f 9a 86 bd
       0.06766664 -0.057868924 0.1091207 -0.065724246
0003b0 aa 6d a3 3d 43 49 7a 3d f1 b4 4b be 73 2d 29 be
       0.07979901 0.061105024 -0.19893242 -0.16521244
0003c0 e6 03 75 be c0 a5 aa 3e 97 b2 3c be 62 72 49 be
       -0.23927268 0.33329582 -0.18427502 -0.1967254
0003d0 31 3e 2d 3e 30 84 c6 bd 3d dd cf 3b de 8a a9 3d
       0.16918255 -0.096931815 0.0063435123 0.0827844
0003e0 d4 05 f0 bd da 9b 63 bd 96 d0 ee 3d 26 97 21 3e
       -0.117198616 -0.055568554 0.11660878 0.15780315
0003f0 37 2f 0c be 58 3f 15 be 66 b2 81 bd a3 3a 51 be
       -0.13689886 -0.14574945 -0.06332855 -0.20432524

bias f4 [128]
000000 9f 5e ea bc 43 0e 52 bc f6 15 2b 3d b2 f3 19 be
       -0.028609572 -0.012820783 0.04176899 -0.15034369
000010 7d 1e 86 3d d4 5e 06 3d 67 d1 cf 3d ca b7 8c bd
       0.06548784 0.03280528 0.10147362 -0.068709925
000020 9a b1 33 bd f0 b1 8b 3d ba 1e c2 3a 15 1f 74 3c
       -0.043870546 0.06821048 0.0014810183 0.014899989
000030 43 c1 a8 bd 5f 00 0c be 93 ee 02 3d 59 17 5a bd
       -0.08239987 -0.13672017 0.031965803 -0.053244922
000040 a4 48 76 bc 3d e0 bf 3d 35 f8 1b 3e 82 03 11 bd
       -0.015031967 0.09368942 0.15231402 -0.035403736
000050 96 16 8b 3d 56 68 83 bd b9 78 89 3d 9b e9 9e 3d
       0.06791417 -0.06416385 0.06712479 0.077594005
000060 a8 d9 bf 3d 6e 81 ae 3c f8 50 14 be cb d7 60 bb
       0.093676865 0.021301951 -0.14484012 -0.003430831
000070 f3 29 e0 3c 91 58 4f 3d 43 d0 22 be f1 e1 bc 3d
       0.027363753 0.050621573 -0.15899758 0.092227824
000080 9a 15 9c 3d 4e 0b bf bb 85 b9 a5 bd 99 2f 06 be
       0.07621308 -0.005830205 -0.08092026 -0.13104095
000090 60 c5 77 ba 8a a1 2c bd 6a f3 e2 3c 5e 64 42 bd
       -0.00094517134 -0.042146243 0.02770396 -0.047459
0000a0 af 52 5e bc c8 b7 79 3d 79 f6 a7 3d 3d a2 eb bb
       -0.013569518 0.060966283 0.08201308 -0.007190971
0000b0 ee 9b 6c 3d f9 d8 ed 3c 26 11 a8 3d 74 b0 83 3b
       0.057765894 0.029034125 0.08206396 0.0040188376
0000c0 f0 35 64 3d db f3 8e bd 17 b8 ee 3a 57 fb 48 bd
       0.0557155 -0.069801055 0.0018212822 -0.04906782
0000d0 8e 69 2a 3d 6d 8d 25 3e 33 92 87 bd b4 01 d1 bc
       0.04160457 0.16167231 -0.06619682 -0.025513507
0000e0 05 86 d4 bd 04 1d 94 3c bc b8 44 bd e5 54 5c 3d
       -0.10377125 0.018080242 -0.04802774 0.0537919
0000f0 72 e7 ad bd a8 4a de bc db b6 ce 3d ef a9 dc 3c
       -0.0849141 -0.027135208 0.10093471 0.0269365
000100 95 68 62 3e f4 98 87 3b 88 fd 22 3c 1c c7 9d 3c
       0.22110207 0.0041381065 0.009948142 0.019259982
000110 f6 d2 74 bd d0 2f 30 bc f8 5a bb bd f9 31 52 3d
       -0.0597715 -0.010753587 -0.0914821 0.05131719
000120 46 1d ac 3d 90 a8 88 bc ac ed 5e bd 62 05 7e 3d
       0.08404021 -0.01668194 -0.05442588 0.062016852
000130 77 40 0a be 5e 28 46 3e 35 13 7f 3d f4 cf 98 3d
       -0.13501154 0.19351336 0.062274177 0.07461539
000140 c3 b3 2f bd 3a 06 74 bc a8 d4 b4 3d c9 7e 94 bd
       -0.042896044 -0.014894063 0.088296235 -0.07250745
000150 5c 89 f1 3d ae 7f 19 3e 11 ed 53 3e 30 ce 0f bd
       0.11793777 0.14990112 0.20695902 -0.035108745
000160 ee 00 ee bc d5 d4 45 bd 7f 36 a0 3c bf 50 f7 3a
       -0.029053178 -0.048298676 0.019557236 0.0018868669
000170 3d 11 0d bc cf d4 56 3a 5c c5 06 3d 1a 3d 9c bd
       -0.008610067 0.0008195163 0.03290306 -0.07628842
000180 ba ea 84 bc e9 b7 84 bd 3c ed 69 bd df c8 d5 3c
       -0.016225208 -0.064803906 -0.05711101 0.02609676
000190 3e 2b 30 3d fa 18 1d bd 87 90 0b bd 23 8f ce bb
       0.04300999 -0.038353898 -0.03407338 -0.0063036843
0001a0 cd 64 d2 bd 13 37 ba 3b 02 c1 8d bd ec 32 24 bd
       -0.102731325 0.005682835 -0.06921579 -0.040087625
0001b0 b2 df 41 bd 44 0d 92 3d cf 51 2f bc 65 e4 44 3b
       -0.047332473 0.071314365 -0.010700657 0.003004336
0001c0 c4 41 64 3d ea 36 33 be e3 a8 0c 3d 64 bb 23 bd
       0.05572678 -0.17501417 0.03434075 -0.03997363
0001d0 8b 29 81 3e 48 c9 d9 3d 87 54 89 3d 8e e2 a6 3d
       0.25227007 0.106340945 0.067055754 0.081486806
0001e0 d4 f3 80 bc 3d 17 85 bc 60 01 52 3d f2 51 46 bd
       -0.015741266 -0.016246432 0.051270843 -0.048417993
0001f0 6e 51 98 bd 5e db 24 3c 50 d6 c0 bd ad df b0 3d
       -0.074374065 0.010062067 -0.09415877 0.08636413

weight f4 [512, 128]
000000 61 0f 0c bc a6 1d 23 3c 85 a3 60 bd 52 57 51 3d
       -0.0085485885 0.009955799 -0.054843444 0.051108666
000010 6e 08 66 3d ec dc 96 bc a5 ab c6 3d 11 61 30 bd
       0.056160383 -0.01841589 0.09700707 -0.04306132
000020 20 24 e9 bd ae 6b 45 bd 9c db 2a 3d a6 46 12 bd
       -0.113838434 -0.048198394 0.041713342 -0.035711907
000030 02 b1 a3 3d 26 5e 0a be 66 0d 05 be db ae bb 3d
       0.07992746 -0.13512477 -0.12993392 0.091642104
000040 07 c7 eb 3c 09 32 a0 bd d3 7f 98 3c a4 60 4c 3d
       0.028781427 -0.078220434 0.018615639 0.04989685
000050 cd fb 25 bd 30 02 ab bc ae a9 35 3d 71 a9 0f 3c
       -0.04052334 -0.020875067 0.044351272 0.008768425
000060 17 76 60 3d 27 5c 11 3b bc 47 ca 3d f3 95 04 bc
       0.05480012 0.0022180171 0.098769635 -0.008092391
000070 f8 d7 c6 3d e8 ac 04 bd f0 71 96 bc 94 1a e2 3d
       0.097091615 -0.03239146 -0.018364877 0.110402256
000080 42 8a bb bd 28 e6 18 3d a4 2b 31 bc ad ac aa bc
       -0.0915723 0.03732887 -0.010813627 -0.020834291
000090 b0 e6 ab bd 19 b6 bd 3b d2 0e 92 3d 2c 88 3c 3e
       -0.083936095 0.00578953 0.07131733 0.1841132
0000a0 29 f1 e2 bd f4 c4 ae 3b bd 17 b8 3c 74 0a aa 3d
       -0.11081154 0.0053335372 0.022472257 0.08302775
0000b0 96 e7 1f 3c d5 24 eb 3d 43 64 65 bd 03 ea 5a bc
       0.009759804 0.114816345 -0.05600382 -0.013361457
0000c0 9b a1 46 3d b2 70 8a 3c 20 51 1a 3d 23 1b b6 bb
       0.048493963 0.01689944 0.037675023 -0.005557434
0000d0 e1 15 cf 3d a7 a4 2a 3c 39 f2 49 bd c8 40 7b 3d
       0.10111595 0.010415233 -0.049303267 0.061341077
0000e0 77 ef a1 bd 93 f3 d5 3c c2 9b 08 be 75 e3 7e bd
       -0.079070024 0.026117122 -0.13340667 -0.06222864
0000f0 a4 76 bd bd 33 d0 f4 3c 9d a7 0f bd 8e 09 34 3d
       -0.092511445 0.029884433 -0.035071958 0.043954425
000100 bf 14 85 bd c4 be 16 3d ef 45 60 3d 56 40 1e be
       -0.06498098 0.036803022 0.054754194 -0.1545423
000110 62 b5 48 3d 74 f7 a2 bd 70 ad 64 bd ca 26 81 bd
       0.049001105 -0.07957354 -0.055829465 -0.063062266
000120 d7 30 3d bc 1a a8 c2 3d b5 f7 43 bd 8c 16 87 3c
       -0.011547289 0.09504719 -0.047843654 0.016490243
000130 c0 f7 15 3d 5e 8c e2 bd 5e 06 59 3d 0a 14 b6 bd
       0.036613226 -0.11061929 0.052984588 -0.08890541
000140 6b de b7 3d fa 95 85 3d df d8 0e ba 7c 94 3a bd
       0.0897797 0.065227464 -0.00054491864 -0.045551762
000150 4e 5e 89 3d 2d 68 da bd 45 14 18 bd 99 27 71 3d
       0.0670744 -0.10664401 -0.037128706 0.058875654
000160 b0 61 69 3c 15 38 3f 3d f8 8d 49 3d f1 f8 60 bd
       0.014244482 0.046684343 0.049207658 -0.05492491
000170 2b a9 ce 3d 49 87 6c bd 41 1d 29 3d d8 ae 67 bd
       0.1009086 -0.057746205 0.041287664 -0.05656323
000180 67 62 ea 3c e0 32 7c bd 4a c3 88 bd 1c 8d 45 bd
       0.028611375 -0.061571956 -0.066778734 -0.048230276
000190 89 48 be 3c e3 52 55 bc fc 41 0f 3d 84 43 11 3d
       0.023227947 -0.01302025 0.034975037 0.03546478
0001a0 18 b8 54 3b 13 09 b0 bc dc 54 9c 3d b5 be 98 bc
       0.0032458361 -0.021488702 0.07633373 -0.018645624
0001b0 4f cf 00 bd aa 10 72 bc 7d b3 e5 bc 9b 6d ee bd
       -0.031447705 -0.014774481 -0.028039688 -0.11641999
0001c0 31 ac 00 be dc f1 bb bc 73 a9 45 3d cf 32 0c bc
       -0.12565686 -0.022942476 0.048257302 -0.008557036
0001d0 62 39 61 3d 32 cd e6 bd b8 a3 1f 3e 36 72 56 3d
       0.054986365 -0.11269607 0.15589797 0.052355014
0001e0 0d 72 55 3d a3 b3 af bd 2f 7d a8 3c 0f 1c bc bd
       0.05211072 -0.08579185 0.020567505 -0.09185039
0001f0 35 2d a8 bd 0d 6b 57 bd 62 96 5c 3d 9b 90 77 bd
       -0.082117476 -0.052592326 0.053854354 -0.06044064
000200 d6 eb 0b be c9 cc cd 3c 62 bb 89 bc 62 70 4b bd
       -0.13664183 0.025122063 -0.016812984 -0.049667723
000210 eb ba 83 bd ba d6 96 bb 0c ad 81 3c d2 48 0c bd
       -0.06432136 -0.004603234 0.015829585 -0.034249134
000220 46 98 35 3b 59 5f 5e bd 2f 57 72 bd 16 78 d4 bd
       0.002770917 -0.05429015 -0.059165176 -0.10374467
000230 30 fd 9c 3c fb f2 40 3d 64 30 e0 bd d0 f9 11 bd
       0.019163698 0.047106724 -0.1094673 -0.03563863
000240 0b 29 cb bd fc 56 1e bb 0c e0 33 bd 1a a8 a9 3c
       -0.09919938 -0.0024160733 -0.04391484 0.02071004
000250 78 80 ba bc 8b e6 c6 3d f7 9c 78 3d f2 3d 76 3d
       -0.022766337 0.09711941 0.06069657 0.06011767
000260 57 05 66 bc 82 4e c0 3c 35 f1 3b 3d d7 4d d3 bc
       -0.014039359 0.023474935 0.04588433 -0.025793953
000270 52 36 dd bc a1 fc 09 3d 35 70 9d 3c cb 4f c5 3d
       -0.027003441 0.03368819 0.019218544 0.0963436
000280 6e db 01 be ec f7 a7 bd 72 1d a4 bc d3 40 80 bc
       -0.12681362 -0.08201584 -0.020033572 -0.01565591
000290 67 93 c6 bd 1c 57 79 3d af 7f e8 3c 3a 43 08 3d
       -0.096960835 0.06087409 0.028381197 0.033267237
0002a0 33 32 a4 bd 7b ba 3a 3c c5 41 30 bd 80 6e b2 39
       -0.08017387 0.0113969995 -0.043031473 0.00034033135
0002b0 9e 82 56 bd 2e 37 26 3e 2b d4 e4 3c 50 94 3c bd
       -0.05237066 0.16231987 0.0279332 -0.04603988
0002c0 2a 40 fd bd fa d3 7b bd e5 fb f3 3c 36 58 17 be
       -0.12365754 -0.061481453 0.029783199 -0.14779744
0002d0 71 30 b5 3d 81 15 a2 bd 39 cb bb bd bf c8 02 be
       0.0884713 -0.07914258 -0.09169621 -0.12771891
0002e0 8c 0b 11 bd 80 1c 1b 3d db c1 1a 3d 45 67 59 3d
       -0.035411403 0.037868977 0.03778253 0.053077
0002f0 dc 9c d2 bd 28 70 c0 3c d8 a8 d7 bd fb 92 d9 bd
       -0.10283825 0.02349098 -0.10530251 -0.106237374
000300 05 34 37 bd ba 44 93 bd 6f 85 b9 3d 84 b0 0f bc
       -0.044727344 -0.07190843 0.090586536 -0.008770112
000310 3e ae 1d bc e3 20 6a 3d 95 d8 26 3e 91 76 16 3e
       -0.009624062 0.05716027 0.16293557 0.14693667
000320 b1 1b 96 3d ab e9 87 bc 7a 75 86 bc 5d 65 6a 3d
       0.073295005 -0.016590914 -0.016413439 0.057225574
000330 7b 91 89 bd f7 5a 77 3c ec 93 82 3d 10 05 92 3b
       -0.06717201 0.015097371 0.0637587 0.00445617
000340 5a 19 13 bd ff 11 e0 3c 4f 5c 4b 3d 93 d7 2f bd
       -0.03591285 0.027352331 0.04964858 -0.042930197
000350 ba ed c4 bd 55 c7 1c bd 4d cc 10 3c 56 0c 35 bd
       -0.09615655 -0.038276035 0.008837772 -0.044201218
000360 b2 15 cd 3d 11 2f 2e 3c 97 6a 22 bc 55 74 f2 bb
       0.10013904 0.010631339 -0.009913108 -0.0073991218
000370 5e 25 47 bd 92 c9 5c 3d 8b 25 b3 3d b3 aa 81 3d
       -0.04861962 0.05390317 0.08747395 0.063313864
000380 50 a0 17 bd 54 1b 31 3c b1 20 99 bd 69 1f d2 3d
       -0.03701812 0.010809738 -0.074769385 0.10259897
000390 85 6a 19 3c 81 4f 0d bd 5f 64 9f 3c d4 dd 8b 3c
       0.009363775 -0.03449965 0.01945704 0.01707355
0003a0 23 df 97 3d 22 26 90 3c 9c 8b a5 3d ce 64 c4 3d
       0.07415607 0.017596308 0.08083269 0.095895395
0003b0 02 2a 62 bd e5 aa 01 bd 35 be 0c 3d 4f 21 3a bd
       -0.055215843 -0.03165712 0.034361083 -0.04544192
0003c0 e8 f7 9e 3d 81 9a b1 bd 20 cc cc bd a5 c0 86 bc
       0.07762128 -0.086720474 -0.09999871 -0.016449282
0003d0 71 56 8e bd a3 79 04 bc d6 56 8d 3d fe 88 40 3d
       -0.06950081 -0.008085641 0.06901328 0.047005646
0003e0 b0 41 17 3d c2 19 38 bd 07 bb 89 bd 60 34 02 3e
       0.03692788 -0.04494644 -0.06725126 0.12715292
0003f0 9d 20 f9 bd 3a e8 d5 ba ac f3 e0 3d 42 11 4a bd
       -0.121644236 -0.0016319819 0.10983977 -0.049332865

bias f4 [512]
000000 11 81 ba 3c 11 f7 4b 3c 73 63 17 3d 0b f6 78 3d
       0.022766622 0.012449042 0.036960077 0.06078152
000010 6c 07 f7 bc 67 65 20 bd e4 0d ce bc 8a 3e 99 3c
       -0.030154906 -0.039159205 -0.025153108 0.018706579
000020 23 3d 86 3d 3d c2 2c bc f3 bc 6a bd ba 90 9e bb
       0.0655463 -0.010544357 -0.057309102 -0.00483903
000030 99 62 d4 3c b4 75 69 bd d7 fc ad bd dd 0a 3e bd
       0.025925921 -0.056997016 -0.08495491 -0.04639708
000040 3d 08 1c bb 5d c4 4f bd ed ff b3 3d 52 49 e3 3c
       -0.0023808621 -0.050724376 0.08789048 0.027744923
000050 28 44 51 bd 73 4d 44 3d e0 61 93 3d 5d f4 81 3d
       -0.05109039 0.047925424 0.071964025 0.06345437
000060 92 48 1b 3c 20 61 7d 3d 49 ea 9b bd 70 ad 88 3d
       0.009477751 0.061860204 -0.07613046 0.066737056
000070 83 ac 2f 3d a4 87 3d bd 03 67 8b bd 42 d4 cb 3d
       0.04288913 -0.046271935 -0.06806757 0.09952594
000080 6f 5c 13 3d 84 ee cd 3d ab 38 43 3d aa 89 90 3b
       0.035976823 0.10055259 0.047661465 0.004410942
000090 e9 3a 23 bd 60 b8 28 3d b3 01 26 3d 8b 4e d0 bd
       -0.039851103 0.04119146 0.040528964 -0.10171231
0000a0 e2 ca 86 bd d2 9d 3f bd f4 f2 a1 bb cc 28 16 3d
       -0.065816656 -0.04678137 -0.0049422923 0.03666
0000b0 61 8a 74 3c a3 a6 81 3d 21 f0 5c bd 69 4d 1b bd
       0.01492557 0.063306116 -0.053939942 -0.03791562
0000c0 6d 99 6d 3d c9 76 37 bc 4e e4 c0 3d 74 94 0e bd
       0.058007646 -0.011197754 0.09418546 -0.034809545
0000d0 82 de 80 bd b2 54 c7 3d f8 9f 16 3d b9 83 9d bc
       -0.0629244 0.09732951 0.03677365 -0.01922785
0000e0 08 41 64 3d 78 5a ce 3c e6 d6 75 3d 8e 00 1e 3d
       0.05572608 0.025189623 0.060019396 0.038574748
0000f0 8b a0 d3 3c 4d 06 72 bd e6 9b 46 3d 3f 9e 97 3d
       0.025833389 -0.05908804 0.04848852 0.0740323
000100 ea 05 42 3d 15 93 df bc da f5 3d bd af 11 1f bd
       0.04736892 -0.027291814 -0.04637704 -0.038835224
000110 75 bc a0 bd 3e ab 5b bd e4 64 91 bd 3d d2 86 bd
       -0.07848445 -0.053630106 -0.070993215 -0.065830685
000120 b7 34 8c 3c 3d 51 db 3c b6 85 28 3d 75 48 87 3d
       0.01711498 0.026772136 0.04114314 0.06605617
000130 44 a7 c9 bb 37 2d cb bc 28 80 0d 3d 06 c4 38 bd
       -0.006153973 -0.024801834 0.034546047 -0.045108818
000140 ca ad 3f bd 63 1a 96 bd 2c ba a1 3d 81 97 9e 3d
       -0.046796598 -0.073292516 0.078968376 0.07743741
000150 89 6c 03 bd c9 d2 d6 3d 26 c0 05 3e 0d b8 36 3d
       -0.03208593 0.10489423 0.1306158 0.04460912
000160 03 47 cc bd 1b 5e bf bd 0f 1c 9b bd a9 c6 09 3c
       -0.09974482 -0.09344121 -0.07573711 0.008409181
000170 f7 d3 3f bc 57 f0 41 3d e8 bf e1 bc fb 89 6e 3d
       -0.011708251 0.047348347 -0.027557328 0.058237057
000180 45 d5 01 bd 08 1c d0 3d 95 00 10 bd 02 ce 41 bd
       -0.03169753 0.101615965 -0.035156805 -0.047315605
000190 09 60 98 3d 55 0f 8a 3d 76 18 22 bd e6 53 d9 3d
       0.07440192 0.067412056 -0.03957411 0.106117055
0001a0 44 7c 3f 3c 7e be c0 bd ae 00 14 bd df 52 e3 3c
       0.011687342 -0.094113335 -0.03613346 0.027749477
0001b0 b3 3a 66 bd a6 e2 b8 bd 71 c6 ae bd 8b 36 2c bd
       -0.056208324 -0.09027605 -0.085339434 -0.042044204
0001c0 90 7c 8e 3d 66 e8 3f bd 94 f1 7a bc ff d9 47 3c
       0.06957352 -0.04685249 -0.015316386 0.01219797
0001d0 03 8d 79 3d fe 41 67 bd 67 8a 4e bd 24 3a 88 3d
       0.060925495 -0.05645942 -0.05042496 0.066517144
0001e0 92 23 8c 3d b2 b0 95 3d 52 71 a1 bd ee 0c 89 bd
       0.06842722 0.073090926 -0.07882942 -0.06691919
0001f0 67 c6 83 bd 9e 7d 5c 3d d4 4c fd bc a4 0e e6 bc
       -0.064343266 0.053830735 -0.030920424 -0.028083153
000200 83 c0 f4 3d a3 b9 d7 3d aa 4d f1 3c 07 29 33 bd
       0.11950781 0.10533454 0.029455978 -0.0437403
000210 1a 43 9e 3c 9d ee 83 bd 9c 4d cd bc e8 ab 8d bc
       0.019319106 -0.06441996 -0.025061421 -0.017293885
000220 ba b6 ce bd 81 36 05 3d 9d 46 a6 3d 59 b8 20 3c
       -0.10093446 0.032522682 0.08118937 0.009809577
000230 ee a3 48 bc 16 5e 46 3d d5 58 8d 3d 2c 3f 44 bd
       -0.012246115 0.04842957 0.06901709 -0.047911808
000240 7a b4 75 bd 40 64 ee 3c 77 92 c9 bb 87 78 bf 3d
       -0.05998657 0.029100537 -0.006151493 0.09349161
000250 e4 2a 10 bc a5 94 85 3c 7d 17 49 bd dc bc 88 bd
       -0.008799288 0.01630623 -0.049094666 -0.06676647
000260 44 6b 8c bc 92 a5 e3 bc 1b a9 12 3c 09 6e f7 3c
       -0.017140992 -0.027788911 0.008951451 0.030203836
000270 77 64 5f 3d f0 f8 a5 3d 27 15 52 bc 8f 02 f2 3c
       0.05453917 0.08104122 -0.012822426 0.029542236
000280 4d 6a c1 3c ae 20 ca 3d 5d e5 05 3d c0 a7 bc 3d
       0.023610258 0.098695144 0.03268944 0.09211683
000290 58 24 9c 3d c6 a7 a0 3d b0 1d 01 3d 27 5b d1 bb
       0.076241195 0.078445 0.031522453 -0.00638904
0002a0 bc 56 2b 3d b5 9a 96 bd 90 6a 0d bd 9c 6d e8 3c
       0.041830763 -0.07353727 -0.034525454 0.028372578
0002b0 19 d5 df bc b6 ca ca 3d 80 cc aa 3d 3d 0a 68 bd
       -0.027323293 0.09901945 0.083397865 -0.05665039
0002c0 fd fe af 3d 3a a5 54 bc 3b cb c5 bc 5b 0a 98 bd
       0.08593557 -0.012978846 -0.02414476 -0.0742385
0002d0 b7 c7 81 3d b7 35 c0 3d ed 9a bb bc fe 30 53 bd
       0.06336921 0.09385245 -0.022901023 -0.051560394
0002e0 0c 25 f5 3a 52 4e 21 3d 56 07 db 3c fc 69 c0 bd
       0.0018703057 0.039381333 0.026736896 -0.09395215
0002f0 07 76 f2 bc a5 ad c4 bd 79 36 cf bc 35 e0 9d 3c
       -0.029597295 -0.096034326 -0.02529453 0.01927195
000300 61 a2 01 bd cc 33 3a 3d e7 97 48 bd d2 d2 31 bd
       -0.031648997 0.045459554 -0.04897299 -0.043413945
000310 bf 9c 41 3c d6 ad a0 bc d8 5e 49 bd dd 5d 4f bd
       0.011817156 -0.019614141 -0.049162716 -0.050626624
000320 40 70 b4 3d 50 e0 8f bd 29 51 e0 bd db 69 e7 ba
       0.088104725 -0.07025206 -0.1095298 -0.0017655449
000330 00 37 84 3d ea c8 48 bd 20 c6 92 ba 41 f3 3a 3c
       0.06455803 -0.04901973 -0.0011197962 0.011410535
000340 85 70 0d 3c 61 4a e6 3b 95 38 3d 3d a0 7f b3 3c
       0.008632784 0.0070279096 0.04619654 0.021911442
000350 4e 43 c9 3d 6f 31 ae 3d b6 88 fc 3c 0a 80 a1 3d
       0.098272905 0.085055225 0.030826908 0.0788575
000360 c4 1f 30 bd 2e 80 03 3d 44 4c 05 bd 84 12 5b bd
       -0.042999044 0.032104664 -0.032543436 -0.053484455
000370 25 9b db bd 5c 0f b0 bc 35 87 25 bd 0a 69 08 3d
       -0.10722951 -0.021491699 -0.040412147 0.033303298
000380 b7 66 42 bb 65 80 f5 3c 0e be 6f 3c c2 51 02 bd
       -0.0029663274 0.02996845 0.014632715 -0.03181625
000390 3c 8a 23 3d 93 2f 3d bd ee 36 a7 bd 6e 38 b7 3d
       0.039926752 -0.04618795 -0.08164774 0.0894631
0003a0 d3 71 89 bd d2 33 08 3d 58 f9 6f 3d 38 e6 51 3c
       -0.06711163 0.033252545 0.058587402 0.012811236
0003b0 61 8f ea 3d 9b 89 a3 bc 9e d4 82 bd 13 42 fc bb
       0.114531286 -0.019963076 -0.0638821 -0.0076983063
0003c0 c0 cc 58 3b 8d 16 70 3c fb 35 8c 3c 97 a3 d2 bc
       0.0033081025 0.014653814 0.017115584 -0.025712771
0003d0 f7 ac d9 3c f0 61 04 3d 29 13 50 bc 71 3b f7 3c
       0.026571734 0.032319963 -0.012699881 0.030179711
0003e0 09 7d eb 3c 8d 46 55 bc b5 f5 64 bc 6f 50 00 3d
       0.028746145 -0.013017309 -0.013974597 0.031326707
0003f0 c8 65 98 bc 9d 57 53 bd 4c d6 79 3d 8a 15 22 3d
       -0.01860322 -0.051597226 0.060995385 0.039571323

weight f4 [512, 128]
000000 a2 8e 17 bc 2f 2e ac bc 3c 68 5a 3d 00 40 1f bd
       -0.009250315 -0.021018116 0.053322062 -0.038879395
000010 47 54 9f bd ac 91 a9 3d ee aa 8e 3c 19 55 f3 bd
       -0.077797465 0.08279738 0.01741549 -0.118814655
000020 4d d7 8b 3c 05 70 90 bd f4 80 a1 bd bb 1f b7 bc
       0.017070437 -0.07052616 -0.07885924 -0.022353997
000030 5f 54 5e bd 96 6d c1 bc a2 06 e2 3d 54 13 cc 3c
       -0.05427968 -0.023611825 0.11036421 0.02491156
000040 8b 79 12 be ea 14 2f 3c 53 56 36 3a 6a 4e ae 3d
       -0.14304177 0.010686139 0.00069556123 0.0851105
000050 99 1b 88 3d 15 20 a7 bd b9 7b e7 3c fe 18 de ba
       0.06645889 -0.08160416 0.028257238 -0.0016944704
000060 02 2d cc 3d 10 50 cc 3d ed e4 ea 3b cb 33 8c 3d
       0.09969522 0.09976208 0.0071684034 0.06845816
000070 56 d4 00 3e 2d a1 03 3d 77 0e 2c bd a9 a4 a6 bd
       0.12581 0.03213613 -0.042005982 -0.08136875
000080 8b 30 ee 3c 97 7e aa 3d 52 41 91 bd 99 ce 7a bc
       0.029075881 0.08324926 -0.07092537 -0.015308046
000090 b6 21 97 3d 96 c3 0b 3d 7c 03 0b 3d 32 b1 0a 3d
       0.07379477 0.034122072 0.03393887 0.033860393
0000a0 1f a7 f5 3d df 7d b3 bc b8 05 03 bd 05 96 08 bd
       0.119947664 -0.021910606 -0.031987876 -0.033346195
0000b0 57 36 ec bd 57 bb 7a bd 24 06 ea bb 21 40 6c 3d
       -0.11533802 -0.061213817 -0.0071418453 0.057678346
0000c0 a0 22 24 bc 43 95 9a 3a 02 ec b4 bd 2f 31 39 bd
       -0.010018021 0.0011793751 -0.088340774 -0.04521292
0000d0 e7 09 a5 bd 14 d5 a0 3d 4f 1b 97 3d 11 53 15 3b
       -0.08058529 0.078531414 0.073782556 0.0022785107
0000e0 d0 63 36 3d 0c 74 49 bd 59 c2 51 3c 5b f1 2b bd
       0.044528782 -0.049182937 0.012802684 -0.04197822
0000f0 cd 46 04 3c c9 c2 dd bd 66 ae 69 3d c2 d0 a0 3c
       0.008073521 -0.10828168 0.057051085 0.019630793
000100 cc 73 a0 bc 0c b1 aa 3d 5d ae 53 bd 58 a5 eb ba
       -0.019586466 0.0833455 -0.051679958 -0.0017978353
000110 45 fa 8f bc 6d ed 5f bd c0 38 4c bb bd 44 3b 3b
       -0.017575392 -0.054669786 -0.0031161755 0.0028574907
000120 01 c7 9b bd 41 bd fa 39 34 ba 07 bd f4 3c 5b bd
       -0.07606316 0.0004782472 -0.03313656 -0.053524926
000130 51 c3 9d 3d 28 30 7c 3d 8e fd b3 3c 1f af 18 be
       0.07703269 0.061569363 0.02197149 -0.14910553
000140 93 48 05 3d 2b ac 96 3d 15 1d 92 bd 4a b8 e1 3d
       0.032539915 0.07357057 -0.07134453 0.110214785
000150 c1 01 29 3d c6 86 be bd cf a1 cc bd 28 7d 24 bd
       0.04126144 -0.0930305 -0.099918 -0.04015842
000160 80 88 38 3d 50 33 3c bd 56 1b ea 3b cc 80 9e 3d
       0.04505205 -0.045947373 0.007144372 0.0773941
000170 19 45 24 3d b0 81 e2 3a 79 c9 86 bd 09 fa 2a 3d
       0.04010496 0.0017281082 -0.065813966 0.04174236
000180 dd 4b c5 3d 6e a8 3e 3d 11 6e 00 3c 7e b7 5d bd
       0.096336104 0.046547346 0.007838742 -0.05413007
000190 83 ba b6 bd 3f 50 11 3c 43 d8 8e bd e0 bc 4a 3d
       -0.08922293 0.00886923 -0.069748424 0.04949653
0001a0 ea bf 38 3d 54 18 6e bc ff 65 f9 bc aa bb b0 bd
       0.0451049 -0.014532167 -0.030444143 -0.08629544
0001b0 96 20 f1 bc 14 8a 6e bb d7 2c 92 bd 3d d5 67 3d
       -0.029434483 -0.003639822 -0.07137459 0.056599844
0001c0 bf 1a 77 bd dc d6 aa bd cd 95 ce bb ee 47 8a bd
       -0.06032824 -0.083417624 -0.0063044787 -0.06752001
0001d0 19 83 12 bc 18 df a7 bd 2e 3b df bb 4a b1 59 bd
       -0.008942389 -0.08196849 -0.0068124747 -0.05314759
0001e0 e5 8c df 3c b6 86 07 3c 5f 17 d4 3d 04 6e 38 bd
       0.027288863 0.008271864 0.1035602 -0.045026794
0001f0 79 07 bf 3d 50 de 09 3d 44 15 48 3d d4 1f dd 3d
       0.09327597 0.03365928 0.048848405 0.10797086
000200 52 52 c7 bd 65 b5 d2 3c 5d c9 56 3d 3e 6d bf bd
       -0.09732498 0.025721261 0.05243813 -0.09347008
000210 ea 7b b2 3d a2 64 4a bd 0b 70 9a 3d fd 93 84 3d
       0.08715041 -0.049412377 0.07540902 0.06473539
000220 1b de 93 3d cc 8d 45 3d 79 36 2e 3d ad 17 97 bd
       0.07220098 0.04823093 0.042532418 -0.07377563
000230 65 26 5e bc 19 62 e6 3b b3 93 23 3d a8 b0 62 bd
       -0.013558959 0.007030737 0.03993578 -0.055344254
000240 d0 4d e1 3c 79 77 76 bd c0 f3 b5 bd b2 33 52 bd
       0.027502924 -0.06017253 -0.08884382 -0.05131883
000250 67 5a 8d bd 28 2d 90 3d 1b 81 9b bd bd fe c5 bd
       -0.069020085 0.07039863 -0.07592984 -0.09667728
000260 7b 0f 03 3c c1 71 b0 bd e0 e3 68 bd 9a c4 a7 3d
       0.007999296 -0.08615447 -0.056857944 0.08191796
000270 b0 cb 2c 3d 82 25 a0 3d d2 65 21 3d 94 2a 87 3d
       0.04218644 0.07819654 0.039403744 0.06599918
000280 26 66 83 bd 69 30 c7 3c 2b d6 87 bc 82 a1 a7 3d
       -0.06415968 0.024315076 -0.016581615 0.08185102
000290 30 bb 50 3d b2 1d b2 3d d9 a8 9a bd 93 21 86 3d
       0.050959766 0.0869707 -0.075517364 0.065493725
0002a0 8c 00 97 3b c1 46 b6 bd bd 19 a9 3b 09 e1 a6 3d
       0.0046082195 -0.08900214 0.005160539 0.08148391
0002b0 68 55 87 bd 30 77 b8 3d 91 bb c0 3d f5 cd 06 bc
       -0.06608087 0.09007108 0.094107755 -0.008227815
0002c0 a6 a3 f9 3c 77 b5 0f 3c 38 76 86 bd 69 72 c1 bd
       0.030473541 0.008771292 -0.06565517 -0.0944565
0002d0 0f 24 9a bd 6e e5 ae bd d8 6e 8a bd d7 2b 65 bc
       -0.07526409 -0.08539854 -0.06759423 -0.013987503
0002e0 b0 fa bf bb 5a c3 0d 3d 1c dd 74 bd 3e a9 b9 3d
       -0.0058587417 0.03461013 -0.05978118 0.090654835
0002f0 2c aa 5d bc 83 26 f0 3c 07 d3 32 3c ca 43 99 bd
       -0.013529342 0.029315239 0.010914571 -0.07483633
000300 29 df 6f 3d 01 85 cd bc ce b4 0e 3d 77 b4 9e 3d
       0.05856243 -0.025087835 0.034840398 0.07749265
000310 b6 30 3e 3d 1c 81 1c 3c d9 2d 20 bd 11 54 51 bc
       0.046433173 0.009552266 -0.039106224 -0.012776391
000320 a3 2c 25 bd 4d 64 9c bc 50 3a af bd 20 06 d8 3c
       -0.040325772 -0.019090796 -0.08556044 0.026370108
000330 cb 58 9c 3c 9a 57 a3 bc f5 f7 20 bd 37 39 42 bd
       0.019085309 -0.019939233 -0.03929897 -0.047417846
000340 c7 eb 20 bd 97 34 21 bd 2d 29 50 3d be 58 82 bc
       -0.039287355 -0.039356794 0.05082052 -0.015911456
000350 95 ca 24 3b 02 8b 2e bd b7 8f 53 bd c4 aa 37 bc
       0.0025145162 -0.042613037 -0.05165073 -0.011210147
000360 3c 70 af bd 5c 0b 16 bc 27 1b 85 3d 96 78 b9 bd
       -0.08566329 -0.009157982 0.064993195 -0.09056203
000370 67 e2 d5 3c c4 9f 51 3d da 66 95 bd 82 c7 94 bc
       0.026108934 0.051177755 -0.07295008 -0.018161539
000380 94 d4 9a 3d 35 83 ab bd 63 e2 c7 bd 39 e5 c7 3c
       0.07560077 -0.08374635 -0.09759977 0.024401294
000390 f8 56 a8 39 97 58 a6 3c 3d c3 8b bd 4f fd e9 3c
       0.00032108254 0.020305915 -0.06824348 0.02856317
0003a0 0b 95 c8 bd 96 73 60 3d 08 85 a3 bd 29 7c 02 3d
       -0.09794053 0.05479773 -0.07984358 0.03185669
0003b0 9a ac 03 bd 3a b7 47 bd 0b a8 7b 3c f4 b5 ae 3c
       -0.032147028 -0.048758723 0.015359889 0.021326996
0003c0 ed 3a 91 3c 89 7e d9 bb fa 9d 1c 3d 33 e7 bb 3d
       0.017728293 -0.0066373986 0.038236596 0.09174957
0003d0 bd 95 80 3c d6 7b 9b bd 57 a6 a8 3c dc 0c d4 bd
       0.0156964 -0.07591979 0.02058713 -0.10354015
0003e0 f9 52 94 bb 4e 3c 96 bd 3a a7 20 3d 3e fb ab bd
       -0.0045264927 -0.07335721 0.03922198 -0.0839753
0003f0 52 bf 66 bd a7 90 bb 3c b8 5d a9 3d 63 2a 7e bc
       -0.0563348 0.022896124 0.082698286 -0.0155130355

bias f4 [512]
000000 d9 a1 6b bd 8b c3 ba 3d e5 c7 75 3d 64 b6 18 bd
       -0.057527397 0.09119328 0.060005087 -0.037283316
000010 dd 42 be bd 50 12 1f bc 5f 2d 15 bd 75 49 0e bb
       -0.09290097 -0.009708956 -0.036420222 -0.0021711264
000020 68 e6 c2 bc 6f e0 e2 bd ff db f8 3c 05 f3 c2 3c
       -0.023791507 -0.110779636 0.03037834 0.023797521
000030 18 0d 6c bd ad 83 f5 3c f0 2c ba bc fd bb f9 bc
       -0.057629675 0.029970014 -0.022726506 -0.030485148
000040 fe e0 a9 3c fc 9b 72 3b 6f ea 98 bc 0b 98 0f be
       0.020737167 0.0037019243 -0.018666474 -0.14022844
000050 41 52 83 3d 8c d2 38 bc 3c 85 dd bd b0 11 29 3d
       0.06412173 -0.011280667 -0.10816428 0.041276634
000060 8a c1 c1 bd 7a 4d 1f 3d a0 9b 7e bd 1d e4 90 3c
       -0.09460743 0.038892247 -0.062160134 0.017686898
000070 a6 f5 b5 bd 6d a4 16 bd b4 5e cb bc 2b 56 1e bd
       -0.08884744 -0.036777902 -0.024825431 -0.038656395
000080 2c c9 54 3d 01 2f be 3c 9d 3a f9 bd 7f 74 4f 3d
       0.051949665 0.023215773 -0.12169383 0.05064821
000090 a6 85 e9 3c f3 14 1a 3c 81 48 0c 3d 1d a6 cc bd
       0.028506111 0.009404409 0.034248833 -0.09992621
0000a0 d0 47 7b bd 20 2a 06 bc c6 3f f0 3c a0 b5 11 3e
       -0.061347783 -0.008188754 0.029327285 0.1422944
0000b0 47 c8 9e 3d f8 a5 92 3d c1 01 5e bd 45 62 df bc
       0.077530436 0.07160562 -0.05420089 -0.027268538
0000c0 95 37 3c bc c0 9b c3 bc 08 9a 75 bc 8f d2 d4 bd
       -0.011487861 -0.023877978 -0.014990337 -0.10391723
0000d0 7d b5 03 bd 38 79 00 be 32 a9 ae 3c 95 58 c3 bd
       -0.032155503 -0.12546241 0.021320913 -0.0953838
0000e0 8c 99 e1 3d 85 aa 1f 3d a8 5d 02 bd e0 25 a7 bd
       0.11015615 0.03898098 -0.0318276 -0.08161521
0000f0 8d 55 be bc f1 66 1c bd c3 58 6c 3d 08 4b 57 3d
       -0.023234153 -0.03818411 0.057701837 0.05256179
000100 83 ed 36 bc ab 74 88 bc 76 e0 6c bd 1c c6 ff bc
       -0.011165026 -0.016657194 -0.05783125 -0.031222396
000110 82 f1 1f bc f6 cc b7 3d c3 10 b6 3c c1 69 99 3d
       -0.00976217 0.0897464 0.02222479 0.07490874
000120 a2 4c 1e bd a3 09 88 bd 15 f0 a7 bc 7d 93 5f 3d
       -0.0386473 -0.06642463 -0.020500222 0.054584015
000130 5d 1a 60 3d f4 96 f9 3c cd b1 85 bd e8 a7 6f bd
       0.054712642 0.030467488 -0.065280534 -0.058509737
000140 c3 ce dd bb f8 6e 73 3d c2 eb 83 bc 0c a6 42 bd
       -0.0067690327 0.059432 -0.016103629 -0.047521636
000150 d6 3e b7 bc b3 7f cf bc cd ea f7 3c cc 34 29 bd
       -0.02236883 -0.025329446 0.030263329 -0.041310117
000160 50 7f 92 bd 2e b7 9e 3d 58 5b f7 3d 9a b3 af b9
       -0.07153189 0.077497825 0.12077969 -0.00033512415
000170 3a c3 63 bd f0 ef f0 3d 5e 58 18 bd 46 ac 11 3b
       -0.055606104 0.117645144 -0.03719365 0.0022227927
000180 42 1f c0 bd 03 91 91 3d 33 ec 05 3c 08 53 97 bd
       -0.09380962 0.07107737 0.00817399 -0.07388884
000190 1f 8a c2 bd 11 b3 f3 3b d9 6e 0b 3d 8d 7b 89 3d
       -0.09499001 0.007437118 0.03404126 0.067130186
0001a0 e5 56 9e 3d 74 bb dd 3c 61 4a 1c 3d 8f 46 61 bd
       0.077314176 0.027066924 0.03815687 -0.05499893
0001b0 cb 3d 72 bd ed 61 6e bd fc 8f 9b bc 19 93 cb 3c
       -0.05914096 -0.058198858 -0.018989556 0.024850415
0001c0 59 ec 1e bd 00 a9 83 3c f5 85 8b bd 02 35 98 bd
       -0.038799617 0.016071796 -0.0681266 -0.074319854
0001d0 2c e8 9b bd 2d d3 94 bd 44 0b a1 bd 3e 47 ac 3d
       -0.07612643 -0.07266841 -0.07863477 0.08412026
0001e0 27 6b 9a bb f6 1e 60 3d 39 77 81 bc 90 12 8b 3d
       -0.0047124806 0.054717027 -0.01580392 0.0679065
0001f0 df d2 84 bd 97 c3 5f 3c 88 4f e1 3c 42 03 31 bd
       -0.06485533 0.013657472 0.027503744 -0.043215998
000200 0e 02 b0 3c 76 5c 52 bd db 11 39 bd c9 22 ba bd
       0.021485355 -0.05135771 -0.045183044 -0.09088666
000210 b8 d1 43 3d d3 80 5e 3d ee 7a 7f bd aa 7b 94 bd
       0.047807425 0.054322075 -0.062373094 -0.072501495
000220 4f 7a 80 bc 89 e1 6b bc f0 e1 52 3c dc cb 0e 3d
       -0.015683321 -0.0143970335 0.0128712505 0.034862384
000230 f5 b8 51 be 86 d3 bf 3d f0 75 2f bd c2 2e ba bd
       -0.20480712 0.09366517 -0.042837083 -0.090909496
000240 82 d7 a1 3d c9 54 c3 3d df 5d 94 bd 86 28 1a 3d
       0.07902433 0.09537656 -0.07244467 0.037636302
000250 94 ee 14 bc d2 bf 8a bd cb cc da 3c e1 43 b7 bb
       -0.009090085 -0.06774868 0.026708981 -0.0055928086
000260 2e c4 75 3c 38 32 28 bd ea 2d 50 ba f1 cc 0b 3d
       0.015000386 -0.041063517 -0.0007941412 0.034130994
000270 b0 4c 28 bd be fe 8b 3b 97 82 80 3d b5 69 d1 3c
       -0.04108876 0.004272311 0.06274908 0.0255631
000280 21 93 94 bd 4b 74 59 3d 2c b0 76 3c 87 1b df 3c
       -0.07254625 0.05308942 0.015056651 0.027234806
000290 50 ec ae 3c b7 9e b9 bd a6 00 29 3d 38 02 b2 3c
       0.021352917 -0.090634756 0.041260384 0.021729574
0002a0 e8 2c 5e bd 93 97 bd 3d be c3 6e bd 3a d2 c7 bd
       -0.054242045 0.09257426 -0.058292143 -0.097568944
0002b0 d4 21 1b bd ed 23 f0 3b 2d 3d 10 3d 83 fc 4c 3d
       -0.037874058 0.0073285014 0.03521459 0.0500455
0002c0 71 96 f4 bb c6 d3 2b bd a6 7f 85 bc 91 4d 5b 3d
       -0.007464223 -0.04195001 -0.01629622 0.05354077
0002d0 89 3a bb bd ae 8e ef bc d5 47 79 bc 35 de 2b 3d
       -0.09142024 -0.02924284 -0.01521488 0.04195996
0002e0 81 f7 ac bc 68 1d ff 3d 40 e6 95 bc ed 1b e2 3d
       -0.021114113 0.12456781 -0.018298268 0.11040483
0002f0 a8 00 f3 3c f1 43 19 bd fc de b5 3d 9d e0 18 be
       0.029663399 -0.03741831 0.088804215 -0.14929433
000300 28 06 0c bd c6 b1 b4 bd f4 00 74 bd 1a 83 70 bd
       -0.03418556 -0.0882297 -0.05957122 -0.05871878
000310 2e 2c 2f 3d 21 8b 99 3d ac 24 b6 3d 54 06 f3 bc
       0.042766742 0.0749724 0.08893713 -0.029666103
000320 a1 e8 fc bd 8e 99 1a 3d 94 ef 9e 3d 82 37 db 3d
       -0.12349058 0.037744097 0.0776054 0.10703947
000330 8d e7 80 3d b1 70 8f 3b 6b e8 13 bc 71 ba 83 3d
       0.06294165 0.0043774475 -0.009027581 0.06432045
000340 1e 20 00 be c6 8e 68 bb fe 0c d5 bc 29 44 34 bc
       -0.12512252 -0.003548549 -0.026007172 -0.011002579
000350 7e ff 77 3d 96 a5 b0 3d 66 9d 93 ba a6 7a 3b bd
       0.06054639 0.08625333 -0.0011262118 -0.045771264
000360 2f f1 8e bd eb 45 18 3d 93 94 82 bd 36 22 ef ba
       -0.06979596 0.037176054 -0.063759945 -0.0018244449
000370 a8 6d 9c 3c b2 5e 3e 3d 0c 4b 40 3b 17 9f 37 bc
       0.019095257 0.046477027 0.0029341606 -0.011207364
000380 23 6e fa 3c dc da 7c 3d c8 78 f1 bd 9c 72 96 bd
       0.030570095 0.061732158 -0.11790615 -0.07346079
000390 52 33 9d bd 2e 04 2d ba b6 76 b9 3d 6d cf c0 3d
       -0.07675804 -0.0006600049 0.090558454 0.09414563
0003a0 97 16 fc bc 23 e9 8b bd 8b c6 3f bd de c9 77 3d
       -0.03077249 -0.06831577 -0.046820205 0.06049525
0003b0 a2 2b 2f bc f5 94 53 3b d7 d1 8c 3d 2b 72 da bc
       -0.010691555 0.003228483 0.06875961 -0.026665768
0003c0 12 22 8f 3c 7a 9e 49 bd ff 89 16 bb e7 4c e4 bb
       0.0174723 -0.0492234 -0.0022970436 -0.0069671753
0003d0 54 ec 13 3d 7c f5 36 3e 47 21 42 3c e9 03 64 bd
       0.036114052 0.17867082 0.011848754 -0.05566779
0003e0 f6 ea cd 3c 7a ee 30 3d 64 6e 0b bd 4c 2a a3 3d
       0.025136452 0.04319618 -0.034040824 0.07967052
0003f0 c2 ec 80 3d ce 89 af 3d 5d 85 31 bd f8 f2 8f bd
       0.06295158 0.08571206 -0.043340076 -0.070287645
