models/FreeSolv_baseModel.pth (torch, 280065 bytes, 11 tensors)

bias f4 [128]
000000 d2 88 4e 3d df 36 b3 bd c4 33 13 3d 50 05 a5 3d
       0.05042345 -0.087507 0.03593804 0.08057654
000010 9c e6 0e be 8c e4 7d 3d b5 22 6e 3a 29 0f b4 bc
       -0.13955158 0.061985537 0.0009084151 -0.021979885
000020 98 f3 70 bd fa 28 94 3d 36 27 14 3e 5f 9d f0 3d
       -0.05882606 0.07234378 0.14468083 0.11748766
000030 3e c2 3e bd f7 e3 c4 3d c1 c1 4d 3c 0d 21 58 be
       -0.046571963 0.09613793 0.012558402 -0.21106358
000040 a1 d6 8f ba b8 b4 06 3e 06 3c e4 3d 5a c8 dd 3d
       -0.0010973999 0.13154876 0.11144261 0.1082923
000050 46 e5 af bc b2 f6 11 bc aa 4a 49 bc 12 35 a6 3d
       -0.02147163 -0.008908914 -0.012285868 0.08115591
000060 4c a0 34 bd 25 ed 1e 3d b2 e0 a7 bd 7e 6d 5c bc
       -0.044098184 0.038800377 -0.08197154 -0.013453839
000070 f2 bf 93 3c 62 3e 18 be 22 fa 59 3c 08 11 87 bd
       0.018035863 -0.14867547 0.013304265 -0.06595045
000080 6e fd ac 3c f0 1a 81 3d 30 99 fa bd 92 df db bc
       0.021116938 0.06303966 -0.122362494 -0.026840005
000090 ff 37 90 3d dd a0 0a be 7d de 41 bc a9 ca 93 bd
       0.070419304 -0.13537927 -0.0118328305 -0.07216389
0000a0 17 d8 b5 3d 7d 81 c0 bd 1b 0c 9e 3b 2e f2 78 3d
       0.088791065 -0.09399698 0.0048232204 0.060777836
0000b0 d9 86 55 3c 2d 8b 61 bc 8a 48 a8 bd 50 b2 d5 3d
       0.0130326385 -0.013766092 -0.08216961 0.10434401
0000c0 2b d1 9f 3d ca db cc bc e0 5f c0 bd 3d 55 cf 3c
       0.078035675 -0.025007147 -0.09393287 0.0253092
0000d0 72 77 18 be c6 f5 7f 3d 48 b3 8e 3c 2f c1 15 3d
       -0.14889315 0.062490247 0.017419472 0.036561187
0000e0 53 aa 1e bd c9 00 93 bd a0 0d df 3d b8 05 4a bd
       -0.038736653 -0.07177884 0.10891271 -0.04932186
0000f0 f4 82 87 3c 82 e1 8b bc 87 e9 6c 3d b5 b3 73 3d
       0.016541936 -0.017075304 0.057839897 0.059497554
000100 2a 96 0c bd 2d bf 0e 3d 99 da 7c 3d fb c1 d8 3d
       -0.034322895 0.03485029 0.06173191 0.10583874
000110 0f 78 2e bd 14 2c 83 3c b5 c1 44 bd c0 fe 08 bd
       -0.042594966 0.016012229 -0.048036296 -0.033446074
000120 6c 80 9b bd ff 71 51 3d e9 63 2f bd 56 e9 9c 3d
       -0.07592854 0.051134106 -0.04281989 0.07661693
000130 3e dc 84 bd 13 bf 95 3d 0f 40 06 be ec 7a 84 bd
       -0.0648732 0.07311835 -0.13110374 -0.06468758
000140 74 86 5d bd ef 2b d7 3c 38 83 e3 bd 30 29 ca bb
       -0.054083303 0.026266066 -0.11109012 -0.0061694607
000150 c4 1d 3f bd b0 f1 1b 3e 8c fd 11 3c be 63 a4 3d
       -0.046659246 0.15228915 0.008910548 0.08026837
000160 9a fb 42 bd a7 fd b8 bc d5 c3 c1 3d d9 74 47 bd
       -0.047603227 -0.022581888 0.0946118 -0.04869542
000170 f6 ad cf bd 16 46 12 be 31 ca 94 bd 42 8d 05 3e
       -0.10140602 -0.14284548 -0.072651275 0.13042167
000180 58 59 51 3d 20 48 a8 3c 00 51 b1 3c 04 3a 60 3b
       0.051110595 0.020542204 0.02164507 0.0034214268
000190 0c 26 d8 bc 5b fd c7 bc 55 fb 24 bc d6 31 9f 3d
       -0.02638533 -0.024412801 -0.010069688 0.07773177
0001a0 ca 7f f7 3d dc 9a 30 3d 4c bc b0 3e 0b 3a 31 bd
       0.12084921 0.043116435 0.3451866 -0.043268245
0001b0 f5 95 46 3d ef 21 66 3b bd 16 70 bd 3a d5 d7 3d
       0.048482854 0.003511544 -0.058615435 0.105387166
0001c0 a9 0f 3e be 0f f7 0e 3e f1 fd a3 3d c4 33 90 bd
       -0.18560661 0.13961433 0.0800742 -0.070411235
0001d0 91 18 92 3d 3a 1d 59 3d 5d 67 9b 3c 3b e2 ea 3b
       0.07133592 0.05300639 0.018970186 0.007168082
0001e0 c5 e7 52 3d a3 12 8b 3d 50 ea be 3d 1d 6b d1 bb
       0.051490564 0.06790664 0.09322035 -0.0063909427
0001f0 db f4 39 3d f9 6e 7d bd 35 2a 9e bb c5 7f 9b 3d
       0.045399528 -0.06187341 -0.004826809 0.075927295

weight f4 [128, 9]
000000 e5 81 6a be 85 78 1f 3f df b9 31 bd 1b 2c 66 3e
       -0.22901113 0.62293273 -0.04339015 0.22477762
000010 d7 37 c8 bd 2d 00 27 3e 62 b8 f0 3d c8 96 33 3e
       -0.097762756 0.16308661 0.11753918 0.17537987
000020 ea 52 63 3e d4 8a 0d 3e 92 5b 72 3e 51 02 3d 3e
       0.22199598 0.1382249 0.23667744 0.18457915
000030 48 ed 84 be 35 2b 02 bc 00 30 35 bb c8 3a 04 bd
       -0.2596228 -0.007944872 -0.0027647018 -0.03228262
000040 3d 00 8a 3b 7f 2c a5 3c 27 ae 05 be 8b e3 11 3e
       0.004211454 0.020162819 -0.13054715 0.14246957
000050 45 6a 43 3c 2b 87 71 3e f0 57 7e 3e 8a f6 a4 3d
       0.011927192 0.23586719 0.24838233 0.08054836
000060 6d c2 8f be 3a 42 30 bd b9 13 2b 3e fd 94 14 bd
       -0.28078023 -0.04303191 0.16706742 -0.0362749
000070 d9 3d b5 3e 61 6e b4 bb 86 6e d8 bd f6 24 e5 bd
       0.3539875 -0.0055063223 -0.10567956 -0.1118869
000080 50 b6 10 bc 56 0c 7f 3e 66 43 0d 3e 11 5c fc bd
       -0.008832529 0.2490705 0.13795242 -0.12322248
000090 05 b2 d9 3d b5 f3 d6 be 9e 9c 2d 3e 5f f6 22 be
       0.10629658 -0.4198281 0.16954276 -0.15914296
0000a0 a1 f3 55 bd 36 85 b0 bd a7 19 5c bd 20 12 a2 be
       -0.052234296 -0.08619158 -0.0537354 -0.31654453
0000b0 82 7b 44 3e c6 07 fe bd ed ec 31 3e 9d bc c4 3d
       0.1918774 -0.124038264 0.17375536 0.09606288
0000c0 a3 1a 3c bd 5a 94 b9 bd 42 29 8e 3d 17 94 82 3e
       -0.04592384 -0.09061499 0.06941463 0.2550361
0000d0 ac 4d 18 be 40 04 04 3d ff 91 e2 bd 9a 78 d4 3d
       -0.1487338 0.032230616 -0.11063003 0.103745654
0000e0 e8 b1 a7 3e c1 27 04 3d 5a 98 94 3e 77 9f 27 be
       0.3275292 0.032264475 0.29022485 -0.16369425
0000f0 70 19 8f bd e5 54 26 3e 7a 07 57 3e 89 14 59 3e
       -0.06987274 0.16243322 0.20998946 0.2119924
000100 8d 68 05 3e 0c d3 15 be 83 5e 58 be a8 86 bb bc
       0.13028164 -0.14631289 -0.21129803 -0.022891358
000110 e6 6b 3a be 27 87 81 bd b6 a4 79 3e 4f a2 b9 bd
       -0.18205222 -0.063246064 0.24379238 -0.09064161
000120 ce a1 69 3e 04 2e d4 be cf 02 0a 3e 2e 37 5a be
       0.2281563 -0.41441357 0.13477634 -0.21310112
000130 ef 63 22 be 76 9d 4a be 80 ee 19 be b9 8f 9b be
       -0.15858434 -0.19786629 -0.15032387 -0.3038309
000140 4b 2b 6c be d8 3d d6 bd d7 97 bf 3e ec 4c 08 be
       -0.2306339 -0.104610145 0.37420532 -0.13310593
000150 62 6a 3f 3e d4 3e db bd 51 b3 03 be 48 74 bd bd
       0.18692926 -0.10705343 -0.12861373 -0.092506945
000160 56 fc cf 3e e9 db 55 3e 91 46 ff bb 5f 56 2e 3e
       0.40622205 0.2088467 -0.0077903946 0.17025135
000170 d6 d7 22 be cf 66 51 3d 43 99 1d bd 55 17 ce bd
       -0.15902647 0.051123437 -0.03847624 -0.10063044
000180 da 8d ea 3c 3e 00 30 3c 19 33 e6 3d 91 13 09 be
       0.028632093 0.010742245 0.11240215 -0.1338637
000190 a5 4f 0f 3e 7c 50 9f 3e 61 43 33 3d fe e6 cd bd
       0.13995226 0.31116092 0.04376543 -0.10053824
0001a0 1c 30 88 bd 02 36 0f bd d6 b4 7f 3e 69 2d c2 bd
       -0.06649801 -0.034963615 0.24971327 -0.094813175
0001b0 26 db 20 ba 38 28 ec be 1a 4e 6d be aa 4a 67 3d
       -0.0006136171 -0.46124434 -0.23174325 0.05646769
0001c0 0b 7a 95 3d a0 55 7f bc 0d 71 a6 3d cc f2 05 3e
       0.072986685 -0.015584379 0.081270315 0.13080901
0001d0 28 8a 9c 3e 8f de 92 bb 10 70 6d 3e 1a e4 8b 3d
       0.30574155 -0.0044820975 0.2318728 0.06830616
0001e0 9f 37 42 3d e8 37 5e 3e 34 8b d8 bd 72 71 60 be
       0.047416326 0.21701014 -0.10573426 -0.21918276
0001f0 63 6a 76 bd 8b 40 4a be cf 32 fc bc 5a 81 43 3e
       -0.060160052 -0.19751184 -0.030785946 0.19092312
000200 ab 98 c8 bd 11 7c ab 3d b9 79 ca be bc 54 37 bd
       -0.09794744 0.08373273 -0.39545992 -0.044758543
000210 ad 95 24 3e c4 d0 3b be 7e d6 19 bd 4e cc b2 3d
       0.16072722 -0.18341357 -0.03755807 0.08730374
000220 02 dc 08 3e 6b e7 bd 3d 6b b9 28 be db 78 76 be
       0.13365176 0.09272655 -0.16476981 -0.2406954
000230 00 ce 82 3c 5f f1 fa 3d a2 b0 fa 3d c9 27 74 be
       0.01596737 0.12253069 0.12240721 -0.23843302
000240 16 19 a2 3d 10 16 c3 be fa e2 81 3c 26 e4 ab 3d
       0.07914941 -0.3810277 0.015855301 0.08393125
000250 24 a9 1a bd 4a 8f 02 be 3b bf 9d be f2 1c 9f 3e
       -0.03775896 -0.12749973 -0.3080996 0.3107677
000260 32 53 9e 3d d5 ac 25 be d6 20 11 3f 51 40 96 bd
       0.07730712 -0.16179211 0.5669073 -0.07336486
000270 3d 17 64 3e 66 bd 1f be a0 3b f2 bb 8b 6c 96 bd
       0.2227449 -0.15599594 -0.0073923618 -0.07344922
000280 6b f4 13 3e 0d d0 4c 3e 4d 5b 6d 3d 8f 7a 81 be
       0.14448707 0.2000124 0.0579484 -0.25288817
000290 ae a6 97 3d 07 09 25 3c 32 2c 7f bd 05 f4 4c 3e
       0.074048385 0.010072953 -0.062298007 0.20014961
0002a0 fd aa 71 be e6 78 18 3e ec bf da bd a1 30 73 be
       -0.23600383 0.14889869 -0.106811374 -0.23749019
0002b0 f1 c4 40 be c2 98 83 3e 69 e0 b0 bc 53 b5 96 3e
       -0.18825127 0.25702482 -0.021591382 0.29435214
0002c0 00 25 69 bb 37 12 8b 3d 0c 2f f1 3d f7 05 1f be
       -0.0035575032 0.067905836 0.117765516 -0.15529619
0002d0 9c 45 67 3d 14 be 6a 3e 7d 2b 53 be 1d 2c a1 3c
       0.05646287 0.22924072 -0.20622058 0.019674355
0002e0 00 9a c6 be b0 ca 09 bd c3 f3 01 3e 78 b5 5e be
       -0.38789368 -0.033640563 0.12690644 -0.21748912
0002f0 d0 a2 64 bd f1 36 b4 3d 6c 44 df bd 1c 0c 61 3c
       -0.055819333 0.08799542 -0.10901722 0.013735797
000300 fc fa bd 3c ca d6 73 3e f0 a5 03 3d ad ba 90 be
       0.023190968 0.23812404 0.032140672 -0.28267422
000310 b5 1d 96 be 9b 44 ae bd ef 3e bc bd 6a 9d a3 bd
       -0.2931954 -0.08509179 -0.09191691 -0.07989009
000320 5a 5b 34 3e b8 af 4c 3d 58 c6 4e be 7a 29 1c be
       0.17612973 0.049972266 -0.2019285 -0.15250197
000330 cd c9 2b 3d f8 68 49 be 20 50 35 3e 39 2f bc bd
       0.0419405 -0.19668949 0.17706347 -0.091886945
000340 e3 55 99 3e 04 00 c0 bd a4 7a 03 3e 89 ac a8 be
       0.2994834 -0.09375003 0.12839752 -0.32944134
000350 99 45 c2 bd 0f 48 32 3d 30 ce 89 3e 5e d1 26 3d
       -0.09485931 0.04352575 0.2691512 0.04072701
000360 1d 84 11 be 51 19 4a bf de fc d6 3d 51 29 50 3d
       -0.14210553 -0.7894488 0.10497449 0.050820652
000370 4b c1 88 3e 17 98 45 3e 13 90 0e 3e 1a 75 92 3d
       0.2670997 0.19296299 0.13922147 0.071512416
000380 7f 35 bf 3e d1 10 8f bd fd 61 f6 be c8 71 5b 3e
       0.37345502 -0.06985629 -0.48121634 0.21430123
000390 cd 00 a3 bd 2f 53 b1 3e a0 bf 5e bd 1c 56 3f 3d
       -0.07959137 0.34633777 -0.054381967 0.04671298
0003a0 bd bc cc bd 0a bc 26 bb de 09 11 be 30 72 63 be
       -0.099969365 -0.002544167 -0.1416392 -0.22211528
0003b0 c1 5a 83 3e 0a be ae 3d f6 c7 63 3e cd cd dd bd
       0.25655177 0.08532341 0.22244248 -0.10830269
0003c0 c7 c0 a1 3d 6a f2 db be 78 bc 26 be 0c e8 7c bd
       0.078980975 -0.42958385 -0.16282833 -0.061744735
0003d0 c5 ec 83 3e a3 d2 59 3e 22 de 9b bc 91 de 9c 3e
       0.25766578 0.21271758 -0.01902682 0.30638555
0003e0 95 cc 0b 3e e7 5c a9 bd 50 b1 23 3e 54 13 92 be
       0.1365226 -0.08269673 0.15985608 -0.2853037
0003f0 9f bb 8a bd eb 2c b7 3e 21 44 ab 3d bd 14 45 3e
       -0.06774067 0.35776457 0.08362604 0.19246192

bias f4 [128]
000000 15 09 96 bb c7 30 34 bb 31 10 62 bd 6e 2d 53 bc
       -0.0045787194 -0.0027494894 -0.055191223 -0.012889249
000010 1d e0 52 3d c6 82 1d 3d 79 9f 02 be 9a 89 33 3d
       0.051483262 0.038454793 -0.12756146 0.0438324
000020 ca 3f 4e 3d e3 cc b5 3d f0 c5 51 bd 70 c3 00 3e
       0.050353803 0.0887697 -0.05121416 0.12574553
000030 a7 bf c6 3d 78 c8 cc 3a c7 13 99 bd c2 69 bd bd
       0.097045235 0.0015623709 -0.07474475 -0.09248687
000040 b1 d4 2b 3d 32 38 dc bd 87 57 3d bd 10 09 ce 3b
       0.041950885 -0.10752906 -0.04622605 0.0062877014
000050 53 ec 8f 3b 4d 5b 13 3d 1d 4c e6 bd 96 cc 6b bd
       0.0043921857 0.035975743 -0.11244986 -0.057568155
000060 05 29 b8 bd 74 31 06 bd ba c3 9f 3d 77 71 59 bd
       -0.08992199 -0.032762006 0.07801004 -0.053086724
000070 ee 1f 81 bd 51 66 37 3c 2e 0b 9b ba 6a 63 03 bd
       -0.06304918 0.011193828 -0.0011828893 -0.03207723
000080 2a 03 33 3d 0e 2a be bd 77 a5 8e bc 83 24 2c bb
       0.04370419 -0.09285365 -0.017412884 -0.002626688
000090 37 90 cd 3c 86 c9 83 3d 28 40 0d bd 23 60 9a bc
       0.025093181 0.06434922 -0.034485012 -0.01884467
0000a0 07 de 37 3d f7 6c 00 3d de 78 29 3c 95 ca 43 bd
       0.044889476 0.031353917 0.010343758 -0.04780062
0000b0 61 fb fd bc 33 8f 61 3d 79 a9 72 bd b6 2c 6c 3d
       -0.031003656 0.055068206 -0.059243653 0.057659827
0000c0 07 91 0e 3c a7 5e a3 3c e8 ad 84 bd 32 80 96 bc
       0.008701569 0.019942595 -0.064784825 -0.018371675
0000d0 8e 40 b6 3b 24 cb 6f 3d 2a ea 8b bd 16 15 1b 3d
       0.0055618947 0.05854334 -0.068317726 0.037861906
0000e0 72 0b 07 3d 6d 53 1a bd 73 cd aa bd a7 9a 94 3c
       0.0329699 -0.037677217 -0.083399676 0.01814015
0000f0 be 88 08 bb 02 95 8b 3c 35 d2 55 3c 71 6d 07 3d
       -0.0020833458 0.017038826 0.013050606 0.033063356
000100 ca 37 ee bd f3 e1 0e 3d 55 72 ff bd 58 e3 20 3d
       -0.11631735 0.03488345 -0.12472979 0.039279312
000110 6e 6e d1 bc 88 40 26 3d 6a 6d 0d be 6c 8c 78 bc
       -0.025565352 0.040588886 -0.1381127 -0.015170198
000120 85 ea cb 3c b0 64 29 bb 2e 46 4c 3d 2b 11 d5 3c
       0.024892101 -0.0025847368 0.049871616 0.026009163
000130 b6 3c 8a bd 18 ec 2a bd 38 0a b3 bd 18 f7 66 bc
       -0.06749861 -0.041729063 -0.087421834 -0.014096998
000140 dd ec 27 ba f9 66 b8 bc 69 09 9a 3c 4e 5b 85 3d
       -0.000640584 -0.022510039 0.018803315 0.065115556
000150 44 2e 59 3d 86 2f 2f 3c 7f 0f ff 3c 8c 26 35 3d
       0.053022638 0.010692483 0.031135319 0.044226214
000160 f3 69 9d 3d 5c b3 38 bd bf 00 25 3d 70 b4 0d bd
       0.07686224 -0.045092925 0.040283915 -0.034595907
000170 6d 74 a1 bc 32 1e 01 bd 23 84 30 bd 79 58 48 bd
       -0.019708836 -0.031522937 -0.043094765 -0.0489125
000180 57 44 b1 bc 24 2f d7 bb 60 0f 6e bd 7b 12 c2 3c
       -0.021639032 -0.006566899 -0.05812013 0.023690453
000190 d7 4a 66 3d b7 9b 7a bd c4 cb 82 bc 25 51 5b 3d
       0.056223717 -0.061183657 -0.015966304 0.053544182
0001a0 da de 8b bc c7 7e dc 3b f1 05 bb 3d d4 58 20 3d
       -0.017074037 0.00672898 0.091319926 0.039147213
0001b0 d3 1f 5f 3c e8 d5 b9 3a 1c f8 22 3c 63 b0 27 bd
       0.013618427 0.0014178129 0.009946849 -0.0409397
0001c0 65 2f a6 bd 25 25 21 3d 35 1b e1 3d 7f 43 13 bd
       -0.081145085 0.039342064 0.109915175 -0.03595304
0001d0 9c c9 52 bd b9 3a 2f 3e f0 7a 9d bd 9f 20 15 bd
       -0.0514618 0.17112245 -0.07689464 -0.036408063
0001e0 9a e3 89 bc c2 8f 74 3d 51 8c da 3a 05 1b e5 3c
       -0.016832162 0.05970741 0.0016673898 0.027966985
0001f0 f1 95 b1 3c 52 ce 7d 3c a3 27 cb 3d 3f d5 d7 bd
       0.021677943 0.015491085 0.099196695 -0.1053872

weight f4 [128, 128]
000000 90 0d 39 be be 49 b5 bd 3f 54 0a be 9d 1a 0d be
       -0.1807158 -0.08851956 -0.135087 -0.13779683
000010 b5 33 5c be b5 8d 22 be ec fe e3 bd a1 1c 9c 3d
       -0.215041 -0.1587437 -0.11132607 0.07622648
000020 7a e9 4f bd ee b7 29 bd 34 96 0b 3e a1 6c c0 bc
       -0.05075977 -0.041435175 0.13631517 -0.023489298
000030 9e 20 20 3e c3 af 3d 3e 0e 59 a9 be 68 06 75 bc
       0.15637442 0.18524079 -0.33075756 -0.014955141
000040 14 e2 98 3e 08 42 83 bd ab 92 21 3e de f0 8e 3d
       0.29859984 -0.06409079 0.15778606 0.069795355
000050 e8 80 91 be 0f 7c 5a 3e 12 43 b8 be 7e 37 bb 3d
       -0.2841866 0.21336387 -0.3598867 0.09141444
000060 7c bd 07 3e 74 51 0a 3d 6d db 87 bd f2 ee 1a 3e
       0.13255876 0.033769086 -0.06633649 0.15130213
000070 e0 04 47 be 3e 29 02 be 7e be 38 be c5 f3 02 3e
       -0.19435453 -0.12711045 -0.18041417 0.12788303
000080 75 61 ad bd 5d cd bb 3e ad ad 1e 3d ab 20 19 bc
       -0.08465854 0.36680117 0.03873985 -0.009346168
000090 93 10 c5 bc 40 d1 c6 bd 31 8e 17 be 5f 4e d8 3e
       -0.024055755 -0.0970788 -0.14800335 0.42247292
0000a0 8c 87 5d bd 03 2a 11 bb 82 36 be 3d 35 8d 21 3d
       -0.054084346 -0.0022150285 0.0928774 0.039441306
0000b0 83 63 32 3e a5 7a a7 3e 4b dd 34 3e dd 3d 9e 3e
       0.17420773 0.32710758 0.17662542 0.30906573
0000c0 24 27 68 3d 91 33 23 3e 3b 1c 29 3d 88 bf 49 3e
       0.056677952 0.1593764 0.04128669 0.1970197
0000d0 9e 3b 76 3e de 7f f6 be 8a 45 bc bc 98 31 d5 bd
       0.2404618 -0.4814443 -0.022982378 -0.1040985
0000e0 be ff b9 bd 1b c5 7a be f1 08 47 3d 8c 4d df 3d
       -0.09081982 -0.24489252 0.04859251 0.10903463
0000f0 b1 f1 1e be 64 53 00 3e 1c 85 44 be b9 a7 fb 3c
       -0.15521885 0.12531811 -0.19191402 0.030719625
000100 11 10 24 be 11 d1 8a 3d 8d 31 e1 3d 81 87 3e be
       -0.16021754 0.067781575 0.10995779 -0.18606378
000110 26 3e 3b 3e e0 b4 a7 bd 45 18 26 3e 78 b7 b1 3e
       0.18285426 -0.08188796 0.16220196 0.34710288
000120 68 32 6e 3d cb ee 23 3a 70 c5 2d be 43 f3 2e bd
       0.05815354 0.00062535395 -0.16969848 -0.04271246
000130 5d 34 6a 3e 15 80 49 3e f3 3d a2 bd 4c f0 a1 3e
       0.22871538 0.19677766 -0.07921972 0.31628644
000140 82 84 89 3e 0b 39 ee 3d 1d c3 e2 3c 9e e1 7b be
       0.26858908 0.11631974 0.027680928 -0.24597785
000150 81 05 cc bd 6c 24 1f be ac e6 b2 bc 8e b7 1c be
       -0.09961987 -0.15541238 -0.021838509 -0.15304396
000160 f8 6e 6b 3e 5e 96 cc 3e cc 94 8a bc 08 cc 86 3b
       0.2299155 0.3995847 -0.016916655 0.004113678
000170 a3 cf 81 3e 57 52 0d 3e 28 b7 22 bd 5d 53 8c bd
       0.25353727 0.13800941 -0.039725453 -0.06851838
000180 b4 6c 68 3d 0f 38 98 be 44 ad 7f bd 75 35 5f 3d
       0.056744292 -0.2973027 -0.0624211 0.05449434
000190 2e a7 61 bd 10 9d ef bd 4a ef 33 3e 86 3c 63 be
       -0.055091076 -0.11699879 0.1757175 -0.22191057
0001a0 b7 b4 9b 3c 97 55 f3 3d 42 e6 9a bd d9 cb 09 3f
       0.01900707 0.11881559 -0.075634494 0.5382667
0001b0 8d 69 17 be a6 75 34 3d 3b 99 39 3f e8 ae 65 3e
       -0.14786358 0.04405751 0.72499436 0.22430003
0001c0 0b 28 c0 3d 0f 0d 1f bd 0d 03 1e be 0a 82 19 3e
       0.093826376 -0.038830813 -0.15430851 0.14991012
0001d0 82 70 1e bd e8 21 44 be ec 64 ba bd af 3e 1a be
       -0.038681515 -0.19153559 -0.091012806 -0.15062974
0001e0 62 06 a4 bd 8a ff 57 bd 59 9b 99 bd 94 df 29 ba
       -0.0800903 -0.052733935 -0.07500333 -0.0006480154
0001f0 0d eb 59 3e 0b fa d5 3d 61 31 6d bd ca 14 a9 3d
       0.21281071 0.104480825 -0.05790842 0.08255918
000200 90 ae b9 bd 0f b3 ad 3d c5 34 7e 3d 0b 9c 9f 3e
       -0.09066498 0.08481418 0.062062044 0.3117374
000210 ef d7 ce 3c fe 2b a8 bc 9e bb ed 3d d7 0f 14 bb
       0.02524945 -0.02052879 0.11608051 -0.002259245
000220 96 5d f6 3d bc 3d 8e bd 58 ab 31 be 17 06 12 3e
       0.12029569 -0.06945369 -0.17350519 0.14260136
000230 d1 6e 25 be 45 65 14 bd c4 8e 78 be e5 88 d2 3d
       -0.16155554 -0.03622939 -0.24273211 0.10280017
000240 42 65 28 bd 7a d7 ae be 99 f0 98 be e5 02 24 bd
       -0.041112192 -0.3414877 -0.2987106 -0.040041823
000250 b7 69 2a be 91 fe ad 3d e7 f7 a6 3d 4f 55 d9 bd
       -0.1664189 0.0849582 0.08152752 -0.106119744
000260 83 32 f1 3d 5d 39 c0 3e fa 9e 82 3e 07 b7 bf 3e
       0.117772125 0.37543765 0.25511914 0.37444326
000270 a4 0e b5 be ca fa 4e 3c 52 00 7e be 16 8b 98 3e
       -0.35362732 0.012633035 -0.2480481 0.29793614
000280 cc 28 95 be 6f 6c 90 bd 8e 05 59 3d 33 a4 94 3e
       -0.29132688 -0.07051932 0.052983813 0.29031524
000290 74 db d7 3c 94 23 f4 3d ed 49 20 be a7 6e d2 bd
       0.02634976 0.119208485 -0.156532 -0.102750115
0002a0 8c d8 79 bd de 4c d6 bd 23 a8 2b 3d e0 df 8b bd
       -0.06099753 -0.1046388 0.041908395 -0.0682981
0002b0 ff 47 7f 3e d7 25 4c 3d ef e6 55 3e 80 d2 ba bd
       0.24929808 0.049840774 0.20888875 -0.09122181
0002c0 bc fa 1a 3e 27 47 0d be 97 d6 13 3e 93 7e bf bd
       0.1513471 -0.13796674 0.14437328 -0.09350314
0002d0 95 11 53 3e 7c df 9d be 70 6e 18 3d 77 4e 06 bd
       0.20612176 -0.30834568 0.037214696 -0.032789674
0002e0 69 ee 5c 3e 5e b4 14 be 75 58 07 be 83 38 bb 3d
       0.21575321 -0.1452193 -0.13217337 0.09141638
0002f0 36 b0 f0 3c 17 02 3a 3e dd 6c ec bc 8e 89 9c be
       0.029380899 0.1816486 -0.028860504 -0.30573696
000300 94 c2 b3 bd bd 45 9c be d4 39 05 3e 68 a1 a7 bc
       -0.08777347 -0.30521956 0.13010341 -0.020462707
000310 4f dc 27 be d8 c8 91 3d 99 d5 9b 3e 03 8e a4 3e
       -0.16392635 0.07118386 0.304364 0.32139596
000320 9d 4f 10 3e 06 66 90 3d 97 62 c6 3e d5 e7 07 3d
       0.1409287 0.070507094 0.38747093 0.033180077
000330 b6 8a 49 be b4 5b 4f 3d fa db 0d 3e ed d0 52 3d
       -0.1968182 0.050624564 0.13853446 0.05146878
000340 8a f4 c4 3e 76 67 dd 3a ef 92 6c 3e bc a1 8c be
       0.38467818 0.0016891796 0.23102926 -0.27467144
000350 35 6d a0 3b 84 bb e5 3b 82 10 fc 3c 46 ac 47 be
       0.004895831 0.007010879 0.03076959 -0.19499311
000360 14 d2 6d bd 36 04 1a 3e b9 06 e7 be e7 e9 2f bc
       -0.058061674 0.15040669 -0.45122316 -0.010736919
000370 c3 0c 7e bc 07 1b d1 3d 5c b4 1b be 20 83 02 be
       -0.015505972 0.10210233 -0.1520552 -0.12745333
000380 42 45 fa 3d 92 4d 3c bb 21 fc 04 be b2 67 88 3d
       0.12220241 -0.002873276 -0.12986805 0.06660403
000390 6c f3 c0 bd 00 6e 59 be ff 2f c3 3e 17 6e 99 be
       -0.09421429 -0.21233368 0.38122556 -0.29966804
0003a0 ca 65 3d bd f0 22 75 3c 67 83 ee bd 0c df 3d 3e
       -0.04623965 0.014961943 -0.11646157 0.18542117
0003b0 ab 2f 36 be 21 7b 55 3d 57 c5 ae 3d 98 04 09 3e
       -0.17791621 0.052119378 0.08533733 0.13380659
0003c0 10 ea cb 3d 71 58 ab 3d c4 36 af be 82 ec 93 3e
       0.09956753 0.08366478 -0.3422147 0.2889138
0003d0 7a 62 9a bd 95 dc 98 be af a6 8b 3c b5 d3 ef 3d
       -0.07538314 -0.2985579 0.017047254 0.11710302
0003e0 cf 4a 1d bb e7 cb 48 bd 7b 36 5c bc c5 f6 3d 3e
       -0.0024000888 -0.04902258 -0.0134407235 0.18551166
0003f0 8f 5a 13 3e a8 b2 24 be 7c e1 7e 3e 18 3f eb 3c
       0.14390014 -0.16083777 0.24890703 0.028716609

bias f4 [128]
000000 be ac 23 be a5 8b 14 bb cb 2d 38 3e 06 70 a4 bd
       -0.15983865 -0.0022666242 0.17986219 -0.08029179
000010 0b 9b 90 bd 0d aa c8 3c 0b d5 15 bd b2 23 00 bd
       -0.07060822 0.024495149 -0.036580127 -0.03128404
000020 c4 5f 15 bd 96 81 21 bc 75 a6 e0 bb f9 08 aa 3c
       -0.036468282 -0.009857556 -0.0068557807 0.020756232
000030 56 92 1b 3e c8 a7 d8 bd 3b 5c 4d bd d1 46 6b bd
       0.15192541 -0.10578877 -0.050136786 -0.057440583
000040 39 33 c4 bc fb 9c 5f 3d 23 67 14 be 28 db 9d 3c
       -0.023950206 0.054593068 -0.14492469 0.01926954
000050 67 72 70 3b 07 01 b5 bc 32 b5 2e be 24 af a5 bd
       0.0036689283 -0.022095216 -0.17061308 -0.08090046
000060 d7 1a ad 3d 9b 32 fa bd 54 0c 84 3c 84 5e c3 bc
       0.08452385 -0.122166835 0.01611916 -0.02384878
000070 ff 5e b3 bc 5d ec 36 3c 64 b6 6b bd 45 e1 0e bc
       -0.021895884 0.011164752 -0.057546988 -0.008720701
000080 68 5b a0 bd 00 3c 34 bd 3d 8e 1d bd 56 b8 3b be
       -0.07829934 -0.044002533 -0.038465727 -0.18332037
000090 15 96 15 be d0 97 cc 3c cb b7 fc 3d 8a c6 7b bd
       -0.14608033 0.024974734 0.12339743 -0.06146864
0000a0 b2 ca be bb e2 cb a8 3d 09 7a f8 bb a4 2d 12 bd
       -0.005822503 0.082420126 -0.007582907 -0.035688058
0000b0 b5 4b 8a 3b 2a 51 79 3c 43 b2 8e be cb 7a 01 be
       0.0042204508 0.015217105 -0.27870378 -0.12644498
0000c0 70 9d 56 3c 31 13 10 3d c1 17 67 ba b4 83 49 3d
       0.013099059 0.035174552 -0.00088154903 0.049197868
0000d0 9a af 0f 3d 88 23 ec 3d e8 a8 7d be 3b ad bf bd
       0.035079576 0.115302145 -0.24771464 -0.09359213
0000e0 cd 4f 16 bd 5a db 29 3d ae 87 1d 3d 31 00 6c bd
       -0.036697198 0.041468956 0.038459472 -0.05761737
0000f0 c1 9d b5 3c 0f 2e 8d bd d0 ba 62 bd 18 e8 2b 3e
       0.02216995 -0.068935506 -0.05535394 0.16787755
000100 51 f7 83 3c 96 c7 9d bd de 19 71 3d 37 3d 03 3d
       0.01610914 -0.077040836 0.05886256 0.0320408
000110 84 33 9d bd f1 c2 eb bc c0 63 a3 bc 57 c4 a3 bd
       -0.076758415 -0.028779479 -0.019945025 -0.07996433
000120 14 bd 37 3d cc a9 aa bd 40 fd 09 bd ac 57 6a bd
       0.044858053 -0.083331674 -0.033688784 -0.057212517
000130 4b 67 c8 3d b2 b2 1b bc 4d c6 2c bd 67 fe 1f 3d
       0.097853266 -0.0095030535 -0.0421813 0.039060976
000140 cb 9d c8 3d 19 9e 71 bd 81 2d 06 3d 05 1b 34 bc
       0.097957216 -0.058988664 0.03275824 -0.01099277
000150 75 4e d9 bd f1 d9 66 be ff d5 9e bb 5d 6a a7 bd
       -0.106106676 -0.22544076 -0.0048472877 -0.08174584
000160 aa 3c c9 bd cb df e6 3d e3 3d 0b 3d 53 74 92 3c
       -0.09826024 0.11273154 0.033994567 0.017877733
000170 1d d0 65 3d e7 f8 8e bd 4b 0f 26 bd 1f e4 32 3d
       0.056106675 -0.06981068 -0.04054193 0.043674584
000180 38 70 95 bd 9c 17 ed 3d 9c c3 43 3c 70 7b 33 bc
       -0.07296795 0.11576769 0.011948492 -0.010954723
000190 25 8c f9 3d 64 45 ce 3a 49 38 c2 3d 44 26 aa bc
       0.121849336 0.0015737233 0.09483392 -0.0207702
0001a0 f3 3a 01 3c 38 ca dd 3c eb 8f a6 bd e7 41 9a bb
       0.00788759 0.027073964 -0.08132919 -0.004707563
0001b0 80 11 eb 3d eb d5 86 3c 98 b5 38 3d 4e e3 1d 3d
       0.11477947 0.016459426 0.045095056 0.038546853
0001c0 3c 78 ca 3d ce 3a 51 3d 79 20 0b 3e a0 91 06 bc
       0.09886214 0.05108147 0.13586606 -0.008213431
0001d0 89 58 5c 3d 99 8c 5a 3c 63 61 e7 3c af 73 a1 bb
       0.05379537 0.013339185 0.02824468 -0.0049271206
0001e0 bf 65 62 3c f5 f1 e2 3d 21 2d 25 3c 52 e9 8a bd
       0.0138182035 0.11081306 0.01008156 -0.067827836
0001f0 5d db d4 3d ab 15 90 bc a2 83 c8 bd 5a 25 36 bc
       0.10393403 -0.017588457 -0.09790732 -0.011117304

weight f4 [128, 128]
000000 33 f3 29 3e ec 5e 37 be 8e 23 82 3e 78 b3 4b be
       0.1659668 -0.17907304 0.2541775 -0.1989268
000010 ca b7 61 be 7b 4c 8a be 53 ba 88 3d f4 e5 3f be
       -0.22042766 -0.27011475 0.066761635 -0.18740064
000020 46 3c 28 bd 16 22 d0 be 6b e6 42 3e 85 5e 45 3e
       -0.041073106 -0.40651006 0.1903321 0.19274338
000030 25 7c 91 be 19 33 2d 3c 5c 7e 88 bd ab 3f 98 bb
       -0.28415027 0.010571265 -0.06664726 -0.0046462617
000040 1f 3e a3 be 0f e3 a1 bd 34 8b 25 be 25 cd 76 3e
       -0.31883332 -0.07904636 -0.16166383 0.24101694
000050 2d c2 66 bc aa 8e 0a 3d f3 38 08 3e a2 66 81 3e
       -0.014084381 0.03382746 0.13302974 0.25273615
000060 d7 3c cc bc 93 1b ec 3d 8c 7d f1 bd b0 37 84 3e
       -0.024931354 0.11528697 -0.11791524 0.25823736
000070 f7 6e 75 be 77 97 2f be 00 d0 49 3e b3 48 4a 3e
       -0.23968111 -0.17147623 0.19708252 0.19754295
000080 90 6d 0a be b8 71 de 3d be 2b 68 3d f3 a3 82 be
       -0.13518357 0.10861534 0.05668234 -0.25515708
000090 e1 29 41 3e 12 b6 8a bd 52 1c 2b 3e 68 73 53 3e
       0.18863632 -0.067730084 0.16710022 0.20649493
0000a0 f2 39 17 3d 0e 35 fc bd 9b f8 55 be c2 b0 d9 3d
       0.036920495 -0.12314807 -0.20895617 0.10629417
0000b0 3d 81 0e bc 45 d9 91 be c2 13 4c be 91 cb 49 3d
       -0.008697805 -0.28486076 -0.19929412 0.0492664
0000c0 7d 81 c4 bc 2b f4 de bd 7a f3 09 bd bc 92 30 be
       -0.023987526 -0.10886415 -0.033679463 -0.17243475
0000d0 43 12 0e bd 57 c9 bf 3d cf a5 47 bd 3a 74 1d 3e
       -0.034685384 0.093645744 -0.04874211 0.15376368
0000e0 5d d8 1e 3e 47 c3 e9 bc a9 35 3e 3e 97 fd d8 bd
       0.15512224 -0.028535498 0.18575157 -0.105952434
0000f0 da 90 98 bd 10 a0 01 be 2b 28 a4 bd bb 6b a9 3d
       -0.07449503 -0.12658715 -0.08015474 0.08272501
000100 3e c0 89 3d 9a e0 e7 bd 3f 7b a0 3e 41 ea b0 bd
       0.067261204 -0.11322136 0.3134403 -0.086384304
000110 23 04 bc 3c d2 30 1d 3e 0b 99 85 bd 5d 82 92 bc
       0.022951191 0.15350655 -0.06523331 -0.017884428
000120 7b 09 08 3d 11 45 80 3e 7e 79 b7 3b 03 49 c5 be
       0.033212166 0.25052693 0.0055992 -0.38532266
000130 d4 4b cb 3d a6 b9 ce bd 28 b8 2b be a4 69 88 bd
       0.099265724 -0.100940034 -0.16769469 -0.06660774
000140 dc be 8d 3e 53 20 0c bd b1 ed 34 3e da 34 5a 3d
       0.27684677 -0.034210514 0.17668797 0.05327306
000150 a8 77 50 3e 08 c3 65 be bc 2b a2 3d 93 eb f9 bd
       0.20358145 -0.2243768 0.07918498 -0.12203135
000160 ba 2f b8 bd ea a0 e6 bd a9 fe 7e be 46 69 9c 3e
       -0.08993478 -0.11261161 -0.24901833 0.30549067
000170 db f3 2c 3e 98 0e 4c be 95 a1 88 3e d0 cc 65 3d
       0.16889898 -0.19927442 0.26685777 0.056103528
000180 45 82 6f bd 50 30 7a 3c 07 64 44 3e e2 d7 87 bd
       -0.058473844 0.015270308 0.19178782 -0.06632973
000190 c9 d1 14 3e 0b 7b 2d be 27 7f e1 3d 27 eb a9 bd
       0.14533152 -0.16941468 0.110105805 -0.08296805
0001a0 a6 82 f2 3d 1d 92 fc bd a2 06 9b bb 98 78 28 3d
       0.118413255 -0.123325564 -0.0047310153 0.041130632
0001b0 9b ea ea bd 21 f1 0b be c3 fd 26 be b6 1e 2e be
       -0.11470529 -0.13666202 -0.1630774 -0.17003903
0001c0 5a 2f 7b bc e6 eb ad 3d 00 94 97 3d 5d 2a b7 bc
       -0.015331114 0.0849226 0.07401276 -0.022359068
0001d0 2b 7c 88 3e d7 9c b3 3d 86 61 d7 3e a5 67 af bd
       0.26657233 0.08770149 0.42066592 -0.085646905
0001e0 d0 2c e7 bd c4 ff 27 be 0d 3d d3 3b b2 c8 1c be
       -0.11287844 -0.1640616 0.006446487 -0.15310934
0001f0 3d 67 5b 3e bc 35 f5 3c 33 4c 34 be 4e 68 3c 3e
       0.21426101 0.02993285 -0.17607193 0.18399164
000200 a3 4f 50 3c 5a 24 21 be 17 f6 94 3d 5d 5a 71 3d
       0.012714299 -0.15736523 0.072735004 0.058924068
000210 e5 e1 2b 3c 0c ea f9 bd 8e 9a a0 3e a4 6a 08 bd
       0.010490869 -0.12202844 0.31367916 -0.033304825
000220 e8 6c ec bb 98 21 9e bd 84 fb c5 3c 58 ee dd be
       -0.007215131 -0.07721251 0.024167784 -0.43345904
000230 20 8c 33 be 4d bf a9 bd 6c 75 72 39 f7 30 37 3e
       -0.17533922 -0.08288441 0.00023122662 0.17889772
000240 d6 25 59 3d ce 60 8a 3e bc f4 c8 3d 0e f8 48 3e
       0.0530146 0.2702698 0.098123044 0.19625875
000250 9b c6 21 3e 48 d9 98 3b 13 98 be bd 6f 32 04 3e
       0.15798418 0.004664574 -0.093063496 0.12909864
000260 af 73 45 be 3d 48 39 3e d6 29 84 3d ea d0 6d 3c
       -0.19282411 0.18093963 0.06453292 0.014515141
000270 71 20 4a 3e 15 30 7a 3d a5 d1 13 bd 16 cc a0 3e
       0.19738938 0.06108101 -0.036088604 0.31405705
000280 2c ac 19 be c9 27 1a be 8b 73 e7 3d 19 c9 d3 be
       -0.15007085 -0.1505424 0.11301335 -0.41364363
000290 85 7a 0c 3e bd 0c 75 be b5 0d 52 bd 9d 28 8b be
       0.13718612 -0.2393064 -0.051282603 -0.27179423
0002a0 f5 ea fa bd b3 85 86 3e 04 1b 54 bf 9e 59 af 3c
       -0.12251846 0.2627388 -0.8285372 0.021405037
0002b0 cb 9a 5b bd e0 50 9b 3c f0 ea ba bd c7 1c 0d be
       -0.05361442 0.018959463 -0.09126842 -0.13780509
0002c0 72 b3 b1 3d c6 df 35 3e a4 ff 07 3e a2 b1 81 3d
       0.086768046 0.17761144 0.13281113 0.06332709
0002d0 bb db 23 3e a1 f0 87 bc 67 2f f3 3c 54 85 e7 bd
       0.1600179 -0.016594233 0.02968569 -0.11304727
0002e0 de cb 01 bd 0b 52 c4 bd db 90 82 3d fe 47 21 be
       -0.031688564 -0.09585961 0.06375285 -0.15750119
0002f0 a7 9e eb 3d 97 82 43 3d 8a 6f c2 3d b8 d6 e3 bd
       0.1150487 0.047731962 0.09493931 -0.11124939
000300 6a 32 6a 3d fb 2b 52 3e 26 13 40 3e 51 e3 51 3e
       0.057176985 0.2052459 0.18757305 0.2049687
000310 24 f6 3a 3e be 61 23 3e 3e c2 41 3f d2 41 09 bd
       0.18257958 0.15955254 0.75687015 -0.033510037
000320 44 b4 ba bd fa b8 f1 bd 2f c6 03 3e f5 e2 df be
       -0.09116414 -0.118028596 0.1286857 -0.43727842
000330 75 f8 90 3d 9c d5 35 3e 3b bd 35 3e b3 1d d5 bc
       0.070786394 0.17757267 0.17747967 -0.026015138
000340 3b 74 af 3d 0f 8e 4d be 58 ff df bb 87 a3 b1 be
       0.08567091 -0.20073722 -0.0068358593 -0.34695074
000350 a6 9c 5e be 9a 1d 7b 3c f9 a8 c2 3d cd d3 b5 be
       -0.21739444 0.015326882 0.09504885 -0.35513154
000360 f6 77 96 bd bb f4 86 3e 42 db 6a 3e 19 9e 27 3e
       -0.073470995 0.2635859 0.22935203 0.16368903
000370 29 a6 fc bd 5f 26 ef bd 91 22 58 be 33 44 33 bd
       -0.1233638 -0.116772406 -0.21106936 -0.04376621
000380 a7 b3 64 bd 9d e5 31 be d7 bc 0d be 75 66 3f bf
       -0.055835392 -0.17372747 -0.13841568 -0.7476571
000390 8b b1 34 bf 8e f9 b6 bd d1 2c dc 3d 7e 96 cc bd
       -0.7058341 -0.089343175 0.107507356 -0.099896416
0003a0 5b b5 32 3d 6f 5f 20 be 1d b5 61 be 66 8f 4c be
       0.043629985 -0.15661405 -0.22041745 -0.19976577
0003b0 44 d2 1c 3e 6a bf 2b 3d 60 1e 41 be 57 0a c9 be
       0.15314585 0.041930594 -0.18859243 -0.392657
0003c0 eb f9 3c 3d b7 f0 2e be 54 3c e5 bc fc 4c e7 be
       0.046136778 -0.17084013 -0.027982868 -0.45175922
0003d0 c2 0f 46 bc ce 56 02 bf b5 6b 01 3e 1d bf e6 3c
       -0.012088718 -0.50913703 0.12638743 0.028167302
0003e0 85 af 93 3e 8f 99 23 bd e3 d0 c9 bc f6 17 18 be
       0.28844848 -0.039941367 -0.024635738 -0.1485289
0003f0 88 32 02 be 81 4b 5f 3e 95 39 9f be f9 b4 85 3e
       -0.12714589 0.21806146 -0.3109862 0.26114634

bias f4 [128]
000000 5a 8d b2 bc ab 39 61 3d df 02 1a 3c 1a af 85 3d
       -0.021795917 0.054986637 0.009400099 0.065275386
000010 a3 e7 45 bd 08 67 a8 3d 01 70 56 ba db 95 32 be
       -0.04831661 0.08222777 -0.0008180142 -0.17439978
000020 01 cc d7 3d b3 60 ed 3d 43 0c 97 3d 2e 7d 8b bc
       0.105369575 0.115907095 0.073753856 -0.017027464
000030 2c 00 6a ba 99 99 d0 3d 1f 45 0f bd 9a 02 0e 3d
       -0.0008926417 0.101855464 -0.03497803 0.03467045
000040 74 8b f1 3d 4f a7 c2 bc 3c bc 86 bd 0c 95 3f 3e
       0.11794177 -0.02376142 -0.065788716 0.187092
000050 3b 58 b6 3d 67 d5 08 bd 03 9c ee bc ba df 1a bd
       0.089035474 -0.03340664 -0.029127127 -0.03781102
000060 b6 6f fd bc ab ae bd 3d ec aa 64 be 44 6e f4 3d
       -0.030937057 0.09261831 -0.22330827 0.11935094
000070 dc fa 39 3d ac fc 5f 3d 22 bb af b9 11 c0 0b 3e
       0.045405254 0.054684326 -0.00033518026 0.13647486
000080 c7 14 5c bd fb 22 38 bd 38 ca 38 be c2 5f ee 3d
       -0.053730752 -0.044955235 -0.1804589 0.11639358
000090 7e ba b0 bc 2e bd 4d bd a1 ea 34 bd a1 22 96 bd
       -0.021573301 -0.050229244 -0.044169072 -0.07330824
0000a0 b8 74 10 3d 56 7f 74 bd f7 a4 8d bd 1b ef b3 bc
       0.03526756 -0.05969175 -0.0691623 -0.0219646
0000b0 5b f0 09 3b 17 e4 a3 bc 68 81 73 3e b1 dd 78 3e
       0.0021047804 -0.020006223 0.23779833 0.24303319
0000c0 33 33 b2 3b a1 60 3f 3d fb b4 37 3e ac 2d 3c bc
       0.0054382323 0.046723012 0.17940132 -0.011485498
0000d0 0b e4 36 bd a8 07 b4 3c 7f fc e8 3d 1c 49 6b 3d
       -0.044651072 0.021976307 0.11376285 0.05744277
0000e0 5d 07 4f 3d 1b d5 cd bc 2a a3 1a 3e 26 8f a6 bd
       0.05054413 -0.02512603 0.15101305 -0.08132772
0000f0 5b a7 a6 bd 97 18 be 3d 91 a2 86 3c 60 87 7c bc
       -0.08137389 0.09282034 0.01643494 -0.015413135
000100 1b 33 21 bc bf 72 a7 bd 04 6b 1f 3d 8b f8 14 bd
       -0.009838845 -0.08176183 0.038920417 -0.03636984
000110 73 3c 1e 3e bb 47 e6 bd 3e 9c 7d bb cb 45 ff bc
       0.15452747 -0.1124415 -0.0038697864 -0.03116121
000120 e6 31 95 bd 16 b2 9d b8 57 d9 a4 bd e7 8c 37 bc
       -0.07284908 -7.5195145e-05 -0.08049267 -0.011203027
000130 ca 01 8a 3e a8 be 69 3e f8 09 b9 bd 91 e5 1f bd
       0.2695449 0.22826636 -0.090351045 -0.03903729
000140 cc bf 6b bd 63 a5 be bc 49 70 33 3e e2 15 3a be
       -0.05755596 -0.023272222 0.17523302 -0.1817241
000150 d4 c6 7b bd 3a 6f 50 bc 88 a0 86 3b a6 7d 46 bc
       -0.061468914 -0.012721831 0.0041084923 -0.012114918
000160 cd 1d d9 3d 07 2d 13 bc 30 00 53 bc 7e 34 be bd
       0.10601387 -0.008982903 -0.012878463 -0.09287356
000170 bb 62 c5 bc f9 3c 49 be 8f 85 9c 3c 8b 47 af bc
       -0.02409493 -0.19652165 0.019106654 -0.021396419
000180 30 4c d6 bc e9 71 b6 bd cd 0f 35 3d 87 6e e2 bd
       -0.026159376 -0.089084454 0.044204522 -0.11056238
000190 65 f3 4b bd f9 38 0d be 25 cd 8d bd 60 95 43 3e
       -0.049792666 -0.13791265 -0.06923894 0.19099951
0001a0 79 d9 e2 3c f7 eb 4e 3e 9e 88 25 3e 03 38 a5 bb
       0.02769159 0.20207201 0.16165397 -0.0050420775
0001b0 fe 63 a2 bd 91 de cb bd 41 3c 93 bd 17 01 3a bd
       -0.07929228 -0.099545605 -0.07189227 -0.045411196
0001c0 ce 3c 60 3c 82 71 04 bd c5 ea f0 3c 0e b8 6b bd
       0.013686372 -0.032334812 0.029408822 -0.057548575
0001d0 dd 62 86 3d c5 1f 3f bd e9 64 a2 3d 08 74 8a bd
       0.065618254 -0.046661157 0.07929403 -0.067604125
0001e0 4a ea c5 3c 54 04 09 3d e5 51 7b 3e 22 78 a1 3d
       0.02415957 0.033451393 0.24542959 0.07884242
0001f0 fb a7 aa 3d 2a b9 cc bd e7 ef f4 3d c5 a8 2c 3d
       0.08332821 -0.09996255 0.1195982 0.04215314

weight f4 [128, 128]
000000 53 7a af 3d 06 42 5e be 64 f6 04 be 2a 3a b8 bc
       0.08568253 -0.21704873 -0.12984616 -0.022488672
000010 07 00 36 bd 6d 8d 2c be a4 1a 46 3d c0 3d 6f bc
       -0.04443362 -0.16850825 0.04836525 -0.014602125
000020 c1 a0 75 bd d8 ca 47 be f3 a6 85 3d e3 67 49 3e
       -0.05996776 -0.19510972 0.06525984 0.19668536
000030 f8 a2 f3 bd 04 50 dd 3d 65 77 0c be d4 12 aa bc
       -0.11896318 0.108062774 -0.1371742 -0.020760931
000040 61 db 38 3e f6 75 6e be e9 d3 98 3c 42 e1 ac bc
       0.18052436 -0.23287186 0.018655734 -0.021103505
000050 bc 51 fd 3d 41 b5 50 be f8 a6 10 bd 3c 6a 96 bd
       0.12369105 -0.20381643 -0.035315484 -0.07344481
000060 49 4c 2f 3e da 7f 92 3e ee a3 c8 3e b8 70 08 be
       0.17118944 0.28613168 0.39187568 -0.13324249
000070 b9 5f 3f be 59 0f 37 be e1 ca f5 bd 56 d7 94 3d
       -0.18688859 -0.17876948 -0.12001587 0.072676346
000080 b0 1d f0 3d 7b 99 f5 bd 6d cd 14 be 6e 2c f4 3d
       0.117244124 -0.11992165 -0.14531489 0.11922537
000090 b4 3f 8f 3d 38 04 8c be 00 04 99 be a8 e1 c8 3d
       0.06994572 -0.2734697 -0.29885864 0.098086655
0000a0 1a 68 bf bd 7d 55 76 3d e0 1b ed bd 97 69 6c be
       -0.09346028 0.06014012 -0.11577582 -0.23087154
0000b0 02 3f 61 3e ce 28 09 be e9 d4 1b bd a9 08 57 bc
       0.21996692 -0.13394472 -0.038044844 -0.013124623
0000c0 09 9c ad bd 68 be 1d 3e dd 82 d1 bd 35 c5 4a 3e
       -0.08477027 0.15404665 -0.10230038 0.19801791
0000d0 6f 99 4b 3d e5 ed d0 bd f3 c8 1a 3e 2a a8 88 3d
       0.049706873 -0.10201625 0.15115719 0.066727
0000e0 b4 4d 38 3e e0 70 fa be 32 dd 2c 3d ee 19 f4 bd
       0.17998391 -0.48914242 0.042203136 -0.11919008
0000f0 ac 68 b2 bc e6 4f 87 bb e7 ee 5f bd a4 33 55 be
       -0.021778427 -0.0041293977 -0.054671194 -0.2082048
000100 7f 75 bf be e0 47 89 bd 92 fa 95 3e 75 85 28 3d
       -0.3739433 -0.06703162 0.29292732 0.0411429
000110 8a c5 a4 3d 2c 7d 77 bd bd b1 8e bc d7 5a 77 3d
       0.0804549 -0.060422108 -0.017418737 0.060389366
000120 8d 02 3a be d4 50 79 3d 54 05 f7 3d 3d 35 3c 3a
       -0.18165036 0.0608681 0.12061563 0.0007179564
000130 0f 22 7f 3e 06 be fd bc 77 82 29 bd 1e da 82 be
       0.24915336 -0.0309744 -0.041384187 -0.25557035
000140 e1 e3 7e be c7 9c cc 3c d3 3d 6f bd 23 34 1d be
       -0.24891616 0.024977101 -0.05840857 -0.1535192
000150 a2 45 31 3e f6 75 58 3d 18 90 c1 3d 71 7d 33 3e
       0.17311719 0.05284687 0.09451312 0.17528321
000160 7e 42 68 3e f1 42 30 be ec 79 39 3e 01 a8 12 be
       0.22681615 -0.17213036 0.18112916 -0.14321901
000170 18 53 c9 3d 65 c1 a8 3d c8 a2 a5 be 26 bd 5f bd
       0.09830302 0.08240012 -0.32350755 -0.054623745
000180 88 ee 3a 3e 71 6e 06 be f4 56 e1 3d 06 a0 dd 3d
       0.18255055 -0.13128068 0.11002913 0.10821538
000190 1d 83 d2 bd 6d 1d 06 be 31 c8 6c be c7 60 10 3d
       -0.10278914 -0.13097163 -0.23123242 0.035248544
0001a0 b8 e9 7f 3e 70 91 04 3e ca b6 6d be 43 bd 95 bd
       0.249915 0.12946105 -0.2321426 -0.073114894
0001b0 f1 1c 3d be 6d b1 fc 3c ab 8b 84 3d 50 ae 96 bd
       -0.18468072 0.030846322 0.06471952 -0.07357466
0001c0 8b e5 86 be 81 23 2e bd 4d a2 c5 bd 92 83 ba be
       -0.26347002 -0.042514328 -0.09650097 -0.36428505
0001d0 4f e2 5d bd b1 82 42 3e fb fc 8d be 19 a2 8b 3d
       -0.054170903 0.18995167 -0.2773207 0.06818027
0001e0 d1 9a de 3d d4 79 08 bd 47 38 ec 3c 96 12 7b bc
       0.10869373 -0.03331931 0.028835429 -0.015324255
0001f0 7c e7 e3 3c e9 76 db 3c 5c b0 4e 3e 17 68 2b 3d
       0.027820341 0.0267901 0.20184463 0.041847315
000200 20 94 3a be b5 c3 a6 be 48 83 88 bc 10 45 62 3e
       -0.18220568 -0.32571188 -0.016664162 0.22096658
000210 e1 48 71 bc 6d c8 01 bb 77 31 79 bd e7 e6 1b bc
       -0.014726848 -0.00198033 -0.06083819 -0.009515501
000220 55 bb 06 be ff b0 97 bd 89 4d 10 3e 71 79 a5 bd
       -0.13157399 -0.07406806 0.14092077 -0.08079804
000230 c2 cf 15 be 7b 85 0a be 23 a5 43 be b7 d7 ae 3d
       -0.14630035 -0.13527481 -0.19105963 0.08537238
000240 39 4a 54 3e 7d e7 8f bc d1 5c df 3d ad ea d2 bd
       0.20731439 -0.017566437 0.10906375 -0.10298667
000250 51 ce 9b bc 92 22 f6 3d 94 50 b3 bc 31 30 b5 be
       -0.019019278 0.120183125 -0.021889009 -0.3538833
000260 fe 8c 18 3f a6 90 f2 3d 5d 6e 37 3e 40 60 8c be
       0.59590137 0.11843996 0.17913194 -0.27417183
000270 d2 6d a1 bc cb 0a a2 3e 30 78 62 be 3d d0 13 3e
       -0.019705687 0.3164886 -0.2211616 0.14434905
000280 a3 fe 7a 3e 57 fe 4b be 32 78 20 be 36 f9 a6 ba
       0.24511199 -0.19921242 -0.15670851 -0.0012739066
000290 91 98 c2 bd f7 86 45 3e 64 5d 33 bb 2e 2e 2c be
       -0.09501756 0.19289766 -0.0027368898 -0.16814491
0002a0 8b a3 c4 3d 65 ac 09 3e ff 4e 5f 3d 09 66 76 bd
       0.09601506 0.1344467 0.054518696 -0.060155902
0002b0 16 12 8f 3e 1b fd e0 3d 06 66 16 3d 7d 8e e3 bd
       0.27943486 0.10985776 0.03671839 -0.11111162
0002c0 97 03 61 bf 07 72 05 3e df cb 6e bd 27 77 81 be
       -0.878961 0.13031779 -0.058299895 -0.2528622
0002d0 79 50 9a be 9b 08 95 bd 24 21 4c bb e4 c9 ed be
       -0.3013952 -0.07277032 -0.0031147683 -0.46443093
0002e0 4e 8e 1e be 33 b5 cd bc 5b 82 ee bd 89 92 5d 3e
       -0.15483972 -0.025110817 -0.11645957 0.2163793
0002f0 ef f4 8f be ef ae cd bc ea 8d 71 be 4a 11 91 bb
       -0.28116557 -0.025107829 -0.23589292 -0.00442711
000300 ab 1b 86 3e 4b d8 6b 3e 05 f0 fc 3c 57 be c6 3e
       0.26192984 0.23031728 0.030876169 0.38817093
000310 6d 84 24 3d 80 d5 c0 3d dd 0b 8c 3e f6 f0 dc bd
       0.040165354 0.09415722 0.273528 -0.10788147
000320 6c 62 a1 3d d4 73 c1 3d 75 d2 fe bc b3 77 11 3e
       0.078801006 0.094459206 -0.031106213 0.14205818
000330 a3 6d 92 3e 94 f5 33 be 80 3d 2c be a9 28 8f 3d
       0.2859927 -0.1757415 -0.16820335 0.06990177
000340 80 81 85 3d fb a6 0a bd 7a e3 73 be f0 76 08 bc
       0.06518841 -0.03385065 -0.23817244 -0.008329138
000350 b6 8f 32 be 6e d7 72 3d c4 83 ed 3d 39 c7 82 3c
       -0.17437634 0.05928748 0.11597398 0.015964137
000360 ab 9f b8 3d a7 4f 5e bd 34 6a 37 bd ed 41 6c be
       0.09014829 -0.05427518 -0.044779018 -0.23072024
000370 9f 60 6b 3e d7 3f 53 bc c4 14 a9 be 90 01 27 3e
       0.22986077 -0.012893639 -0.33023655 0.1630919
000380 f9 6a f4 3e d6 1a a7 bd 0f 48 84 bd d5 d3 9d 3d
       0.47737864 -0.081594154 -0.064590566 0.077064194
000390 12 3a 5a be b1 40 54 3e 6e 6a 29 bd fb ca 25 3e
       -0.21311215 0.20727803 -0.041361265 0.16190712
0003a0 d4 47 20 3e 89 41 b8 3a a8 42 1f be 4d ac 93 3e
       0.156524 0.0014057617 -0.15552771 0.28842393
0003b0 2d ae af bd b2 12 34 be 9e b2 84 3e 7c 4b c7 3d
       -0.08578143 -0.17585257 0.25917524 0.097311944
0003c0 62 80 03 be ff 2b bb bc c8 37 0f 3e db 83 f5 bd
       -0.12841943 -0.022848127 0.13986123 -0.1198804
0003d0 db b8 a4 be 8a 5a 16 3d 51 2b e9 3d a5 e9 5b 3d
       -0.32172284 0.03670744 0.11385215 0.053689618
0003e0 ea 78 27 3d 9b c4 21 3d 00 71 a0 3d 98 f4 37 3c
       0.040886797 0.03949414 0.07834053 0.011227749
0003f0 f7 1d 21 be c4 12 39 bc 9b d8 29 3d eb a2 6d be
       -0.15734087 -0.011295978 0.041466337 -0.2320668

bias f4 [128]
000000 7d 17 12 be 74 a1 9c bd 90 36 95 3e 1f 06 d1 bd
       -0.14266773 -0.07647982 0.2914319 -0.10206246
000010 81 fb 36 3e 01 90 80 3e a9 f1 b3 bd c5 57 30 bd
       0.17869379 0.25109866 -0.087863274 -0.043052454
000020 6f fb 6a 3d cc 15 d6 3d 2d 78 11 3d 22 78 05 3d
       0.057368692 0.10453376 0.035515 0.03258527
000030 f9 63 e6 3b 39 14 28 3e e6 58 ae 3d 9b f3 b8 3c
       0.0070309606 0.16413964 0.0851305 0.022577098
000040 27 fb 2d be 14 39 9b bd 77 2a 6f 3c 2f 40 2d 3e
       -0.16990338 -0.07579246 0.014597527 0.16919015
000050 1d 2e 63 3d 84 81 cc 3a b4 36 4f 3e bb 32 c2 3c
       0.0554639 0.0015602564 0.20235711 0.02370583
000060 f1 53 d6 3d 02 23 41 3e ec d6 7f bc c1 4c 28 3e
       0.10465229 0.1886101 -0.015615206 0.1643553
000070 79 9d 60 be 92 7e 83 3d 3c 31 2b 3e ec c4 2c be
       -0.21935071 0.06420626 0.16718 -0.16871995
000080 66 c7 7d bd bd 8d cd 3d cb 3f 52 3d d4 bb 92 3e
       -0.06195774 0.100368 0.05133037 0.28658926
000090 27 17 e5 bd 3e 3e ac 3b 8b e0 8d bd d0 ff fe bd
       -0.111860566 0.0052564433 -0.06927594 -0.12451136
0000a0 27 5a d8 bd eb 06 24 3e 55 83 06 3c 23 3c 08 3d
       -0.1056407 0.16018264 0.008210023 0.033260476
0000b0 32 e4 a9 bd be df a0 3e b6 2d a0 3d ee d4 12 3d
       -0.08295478 0.31420702 0.07821219 0.035847597
0000c0 de ad 82 3d 26 88 db 3c dc c9 bf bd 83 ef 7b 3b
       0.06380819 0.02679832 -0.093646735 0.003844232
0000d0 eb 9b 01 be b0 e2 04 be 68 03 8e 3c 25 1b 94 3e
       -0.12657134 -0.129771 0.017335609 0.2892696
0000e0 33 8a 34 be 53 da be 3d 11 fc cd 3d 61 78 d2 3b
       -0.17630844 0.09318986 0.100578435 0.0064230417
0000f0 cc 37 04 38 6a 98 85 3c c7 e9 aa 3d 17 39 e3 bd
       3.1523217e-05 0.016308028 0.08345371 -0.110948734
000100 85 f4 c4 3d b1 95 30 3d 33 6e 8b 3e 92 90 e9 bd
       0.09616951 0.043111507 0.27232513 -0.11404528
000110 31 ff 68 be 0c 77 ff 3c d5 21 3e bc 09 cb cf 3d
       -0.22753598 0.031184696 -0.011604746 0.10146148
000120 67 ba 62 be d6 70 76 3e 7b ad 95 3d 11 61 16 be
       -0.2214142 0.24066481 0.073084794 -0.14685465
000130 2a e1 35 be 8a a9 2d bc 5c 80 37 be 17 38 d7 3d
       -0.17761675 -0.010599503 -0.17920059 0.10508745
000140 59 ad 72 3b 5f 0f c5 bc d3 a6 49 3d 1d 11 d8 bd
       0.0037029593 -0.024055181 0.04923136 -0.10550139
000150 06 f6 ca bd 95 f5 66 3d 37 93 1f be 3e 55 3a 3d
       -0.099102065 0.05638655 -0.15583502 0.04549145
000160 56 40 fa bb 15 b3 35 ba 43 39 c8 bb 51 6e 76 bb
       -0.007637064 -0.00069312874 -0.0061103418 -0.0037602375
000170 49 23 e5 bd 63 6d 80 bd af d2 df bd 52 f5 d6 bd
       -0.11188371 -0.06270864 -0.109288566 -0.1049601
000180 0d 71 f9 bd 7b d0 5a 3e f8 5a d8 bc a9 bd 3d 3e
       -0.12179766 0.21368591 -0.026410565 0.18529381
000190 54 e9 db bc 9a 8b 29 be 53 f7 b0 bc e6 11 53 3e
       -0.026844658 -0.1655716 -0.021602308 0.20612296
0001a0 3e 3e 9e 3e 03 b5 fa 3c 36 25 d9 bb 47 6c 60 3d
       0.30906862 0.030603891 -0.0066267503 0.05479076
0001b0 f4 71 40 be 71 dc 94 3d 25 fc 2b be 36 c9 31 3c
       -0.1879347 0.07268608 -0.16795404 0.010851195
0001c0 55 8e da 3d 43 e6 97 bd 71 04 11 3e 8d f8 b3 3c
       0.10671679 -0.07416966 0.1416185 0.021969104
0001d0 8f 26 a1 bd f6 c7 08 be c6 c8 22 bb 36 96 4c bd
       -0.078686826 -0.13357529 -0.0024838909 -0.04994794
0001e0 78 b5 ba bd b8 e6 94 bc a6 15 9e 3e 92 75 aa 3c
       -0.09116644 -0.018176422 0.3087589 0.020808015
0001f0 61 22 95 bb 9d 75 53 bd 41 8c 4b 3e 43 c0 fa 3b
       -0.0045512174 -0.051625837 0.19877721 0.007652314
