models/FreeSolv_Model_v5.0.pth (torch, 950816 bytes, 22 tensors)

bias f4 [128]
0.024375435 -0.08709689 0.0147841275 0.10731783 -0.04539885 0.06695728 -0.0399848 0.027910981
-0.04576528 0.041504193 0.13185044 0.09540987 -0.07854762 0.106088266 0.015395782 -0.12287871
-0.06885935 0.04427962 0.07238187 0.10718152 -0.047837373 0.03985206 -0.104981266 0.08037507
-0.03740648 0.08748311 -0.118091226 -0.028003799 -0.004213 -0.14488831 -0.049924094 -0.11787121
-0.06534992 0.10805216 -0.1446961 -0.050214015 0.05742018 -0.12501775 -0.060876597 -0.0761465
0.11346865 -0.09309615 -0.03515049 0.0045839585 -0.060555376 0.022620993 -0.055791076 0.11581827
0.0156014655 -0.0205307 -0.14937833 -0.025511194 -0.12944153 0.016436694 -0.0043137926 -0.034559797
-0.023283469 -0.07882852 -0.16859484 -0.07310868 0.008932453 0.06537055 0.016771404 0.053201295
-0.1031411 -0.035558544 0.07004083 0.1550108 -0.104856506 -0.028443992 -0.06346379 0.060109057
-0.12675357 0.04574894 0.019604148 0.10944817 -0.1491205 0.05367001 -0.16411205 -0.04120291
-0.063114345 0.023115195 -0.085256405 0.028912222 -0.1315341 0.13963814 -0.008849288 0.05864068
-0.06787476 0.046469454 0.13539618 -0.11012175 -0.099058054 0.25071612 0.0004554518 0.08161938
0.13697122 0.07715982 0.061145045 0.028317716 -0.092648074 -0.012403601 0.023588043 0.09916085
0.11736981 0.03254711 0.3495718 0.0010912991 0.0725454 -0.044458 -0.033192664 0.14297988
0.10714105 0.07406137 0.12474935 -0.02482239 0.09750341 0.11804326 -0.019626508 0.058957137
0.05897894 0.034495246 0.11209665 0.05481273 0.03960411 -0.06570699 0.0115003465 0.11102415
00000000: feae c73c db5f b2bd 2039 723c 73c9 db3d
00000010: 25f4 39bd e620 893d 1ac7 23bd 92a5 e43c
00000020: 6074 3bbd 4d00 2a3d cd03 073e 4066 c33d
00000030: 93dd a0bd ce44 d93d 973e 7c3c d5a7 fbbd
00000040: 2206 8dbd 8c5e 353d f23c 943d fc81 db3d
00000050: 1ff1 43bd ea3b 233d 6b00 d7bd af9b a43d
00000060: 8a37 19bd 582a b33d d0d9 f1bd 3968 e5bc
00000070: 350d 8abb 9a5d 14be 357d 4cbd 7666 f1bd
00000080: 2ed6 85bd 734a dd3d 372b 14be 36ad 4dbd
00000090: 6c31 6b3d a704 00be bd59 79bd b2f2 9bbd
000000a0: 4062 e83d 32a9 bebd f6f9 0fbd 0835 963b
000000b0: ea08 78bd a94f b93c 2f85 64bd 2132 ed3d
000000c0: 4a9d 7f3c 0030 a8bc a2f6 18be dafc d0bc
000000d0: 528c 04be 3fa6 863c b75a 8dbb 938e 0dbd
000000e0: f9bc bebc d970 a1bd 20a4 2cbe 01ba 95bd
000000f0: 6c59 123c ffe0 853d 2f64 893c 9ae9 593d
00000100: a43b d3bd d6a5 11bd 9171 8f3d 27bb 1e3e
00000110: 02bf d6bd 6003 e9bc 4ef9 81bd ea34 763d
00000120: b0cb 01be 3e63 3b3d e198 a03c 5d26 e03d
00000130: 0bb3 18be 16d5 5b3d fd0c 28be 62c4 28bd
00000140: 1842 81bd 145c bd3c e99a aebd 53d9 ec3c
00000150: e0b0 06be 4dfd 0e3e 9bfc 10bc 3631 703d
00000160: ec01 8bbd c156 3e3d 4ca5 0a3e 8387 e1bd
00000170: f3de cabd dd5d 803e b5c9 ee39 1028 a73d
00000180: 2f42 0c3e f805 9e3d 3a73 7a3d 8efa e73c
00000190: 46be bdbd 7938 4bbc b63b c13c d814 cb3d
000001a0: 955f f03d 1e50 053d 13fb b23e ec09 8f3a
000001b0: af92 943d 9819 36bd 08f5 07bd 5169 123e
000001c0: c46c db3d 7dad 973d 967c ff3d 5358 cbbc
000001d0: deaf c73d aac0 f13d c5c7 a0bc 0a7d 713d
000001e0: e793 713d e34a 0d3d ee92 e53d 5083 603d
000001f0: eb37 223d 6391 86bd f36b 3c3c a160 e33d

weight f4 [128, 9]
-0.22126997 0.3376608 -0.08640375 0.23296465 0.04588839 0.16308661 0.108063176 0.06915149
0.19099157 0.15977578 0.30277368 0.1843605 -0.29436707 -0.06890342 -0.0027647018 0.015684007
-0.015893014 -0.072239116 -0.059177138 0.42101794 -0.031445626 0.2559905 0.16914748 0.08054836
-0.28110093 -0.10373563 0.15137167 -0.017916502 -0.2774978 0.043197073 -0.14612757 -0.0297639
-0.008832529 0.14848499 -0.07804709 -0.1270902 0.10768678 -0.13616773 0.118752934 -0.11409626
-0.14618233 -0.08619158 0.06625192 -0.17134939 0.25114006 -0.087722056 0.22556064 0.02088712
-0.044691227 0.01762596 0.06941463 0.17075312 0.015354364 0.0692024 -0.06442131 0.2255008
0.26523274 0.0011570327 0.1562308 -0.16369425 -0.06302563 0.08552824 0.19169983 0.22158957
-0.09787258 -0.048883755 -0.21163179 -0.018588677 -0.18205222 -0.05549894 0.17745127 -0.04830355
0.2758118 -0.034937102 0.12161217 -0.20996092 -0.32496595 -0.19786629 -0.10678927 -0.21252972
-0.139055 -0.053747814 0.18732055 -0.16826804 0.18707958 0.10961253 -0.12861373 -0.07852891
0.25471938 -0.057347056 -0.0058817007 0.4166347 -0.046342935 0.004211613 0.02828279 -0.10063044
-0.014154037 -0.19057068 0.18975076 -0.122835614 -0.14693196 0.24404141 0.021022473 -0.088230066
-0.06649801 -0.04185531 0.25096202 -0.12529795 0.008525096 0.17064947 -0.18171293 0.062209655
-0.024944425 -0.015584379 0.09048959 0.26624146 0.17129828 0.021680208 -0.10298882 0.0436507
0.027201151 0.17051448 -0.10573426 -0.21598335 -0.06375427 -0.20134027 -0.056581378 0.059173726
-0.07722124 0.09633314 -0.23732536 -0.044758543 0.14446478 -0.11895099 -0.034675162 0.10922061
0.60659605 0.038277846 -0.06321164 -0.31272537 0.01596737 0.13043979 0.35199526 0.1722421
0.070352346 -0.33731854 0.050448813 0.06454905 0.05394092 -0.12749973 -0.25484237 0.22687313
0.15186946 -0.09984453 0.383093 -0.16021049 0.17341137 -0.15089479 -0.0073923618 -0.03033425
0.111884415 0.20697728 0.06376361 -0.40920216 0.07830176 -0.036660966 0.016061813 0.20014961
-0.16365476 0.023300147 -0.080238186 -0.16732271 -0.2710933 0.20037436 -0.06799097 0.17379235
-0.0035575032 0.06489516 -0.055370532 -0.32260168 0.07329612 -0.122850835 -0.14354028 0.028607214
-0.26753214 -0.033640563 0.1156206 -0.23221247 -0.016762212 0.081103556 -0.047432203 -0.007957446
0.044094644 0.19951896 0.032140672 -0.27781412 -0.23236561 -0.031666912 -0.03123491 -0.0600951
0.16061458 -0.014398887 -0.12560664 -0.15250197 0.034531023 -0.20823206 0.07328993 -0.07033804
0.117733315 -0.049860355 0.11739822 -0.065949686 -0.09485931 -0.0014797428 0.15432161 -0.0636721
-0.13369317 -0.058466695 0.004352137 0.07672961 -0.0122815715 0.19296299 0.14919347 0.0699445
0.13473794 -0.03337038 -0.07874425 0.139748 -0.07753236 0.017523976 -0.054381967 -0.020123461
-0.028491108 -0.10480683 -0.10896148 -0.09796478 0.22651418 0.09648677 0.2789467 -0.10830269
0.09254523 0.029426483 0.059456483 -0.038101535 0.40740383 0.18451945 -0.04770983 0.18103573
0.1365226 -0.061108354 0.07317993 -0.16074233 -0.06634434 0.14192937 0.11891887 0.23984687
00000000: 9894 62be e0e1 ac3e 73f4 b0bd 498e 6e3e
00000010: 77f5 3b3d 2d00 273e 3a50 dd3d 4c9f 8d3d
00000020: 4b93 433e 439c 233e 2705 9b3e 00c9 3c3e
00000030: 48b7 96be 3c1d 8dbd 0030 35bb bf7b 803c
00000040: 1132 82bc 1af2 93bd ba63 72bd aa8f d73e
00000050: 21cd 00bd 3011 833e ff34 2d3e 8af6 a43d
00000060: 76ec 8fbe 5973 d4bd 2d01 1b3e a1c5 92bc
00000070: 3114 8ebe 6aef 303d 77a2 15be 6cd3 f3bc
00000080: 50b6 10bc 730c 183e 27d7 9fbd ef23 02be
00000090: e38a dc3d 8e6f 0bbe bd34 f33d 4dab e9bd
000000a0: d2b0 15be 3685 b0bd 16af 873d 3776 2fbe
000000b0: 6e95 803e 9fa7 b3bd 5ef9 663e 771b ab3c
000000c0: 260e 37bd 5164 903c 4229 8e3d e8d9 2e3e
000000d0: df90 7b3c fdb9 8d3d 52ef 83bd afe9 663e
000000e0: 96cc 873e 93a7 973a f8fa 1f3e 779f 27be
000000f0: 9513 81bd 6e29 af3d f64c 443e 60e8 623e
00000100: 6b71 c8bd 553a 48bd 01b6 58be 4847 98bc
00000110: e66b 3abe db52 63bd c9b5 353e f1d9 45bd
00000120: 3437 8d3e 351a 0fbd cd0f f93d ffff 56be
00000130: f061 a6be 769d 4abe 55b4 dabd 64a1 59be
00000140: 6f64 0ebe ab26 5cbd f5d0 3f3e 754e 2cbe
00000150: ca91 3f3e 897c e03d 51b3 03be c4d3 a0bd
00000160: 946a 823e bfe4 6abd 48bb c0bb 2551 d53e
00000170: 17d2 3dbd 9201 8a3b 4fb1 e73c 5517 cebd
00000180: 56e6 67bc f624 43be 064e 423e 3d91 fbbd
00000190: 5575 16be fee5 793e 5237 ac3c f7b1 b4bd
000001a0: 1c30 88bd 7970 2bbd 187e 803e 1b4e 00be
000001b0: d8ac 0b3c bcbe 2e3e f412 3abe 8dcf 7e3d
000001c0: 4058 ccbc a055 7fbc 9b52 b93d cd50 883e
000001d0: d168 2f3e b19a b13c cdeb d2bd 14cb 323d
000001e0: f3d4 de3c 599b 2e3e 348b d8bd bd2a 5dbe
000001f0: 9991 82bd 252c 4ebe e0c1 67bd 2660 723d
00000200: 2b26 9ebd 4f4a c53d 6b05 73be bc54 37bd
00000210: 93ee 133e 949c f3bd 8b07 0ebd 0eaf df3d
00000220: e149 1b3f 3bc9 1c3d 1b75 81bd 8a1d a0be
00000230: 00ce 823c 0292 053e b938 b43e 3c60 303e
00000240: e414 903d 04b5 acbe 6aa3 4e3d 4b32 843d
00000250: 27f1 5c3d 4a8f 02be b37a 82be 6e51 683e
00000260: ab83 1b3e 4a7b ccbd c424 c43e 380e 24be
00000270: c092 313e 2a84 1abe a03b f2bb 887f f8bc
00000280: a823 e53d daf1 533e 7f96 823d f282 d1be
00000290: ac5c a03d cf29 16bd 1094 833c 05f4 4c3e
000002a0: 1d95 27be f3df be3c eb53 a4bd a556 2bbe
000002b0: becc 8abe f02e 4d3e da3e 8bbd 9ff6 313e
000002c0: 0025 69bb c1e7 843d 36cc 62bd 0c2c a5be
000002d0: 471c 963d 3899 fbbd 39fc 12be ad59 ea3c
000002e0: f9f9 88be b0ca 09bd 7eca ec3d 1bc9 6dbe
000002f0: e850 89bc 9f19 a63d 4548 42bd f35f 02bc
00000300: 969c 343d b34e 4c3e f0a5 033d a73d 8ebe
00000310: 40f1 6dbe 2ab5 01bd 5be0 ffbc 4826 76bd
00000320: 2678 243e 4fe9 6bbc 079f 00be 7a29 1cbe
00000330: 6770 0d3d c93a 55be 0819 963d 640d 90bd
00000340: 2a1e f13d 5f3a 4cbd 7a6e f03d a110 87bd
00000350: 9945 c2bd eef3 c1ba 7c06 1e3e 8566 82bd
00000360: dde6 08be c67a 6fbd 5f9c 8e3b 6a24 9d3d
00000370: a538 49bc 1798 453e 2cc6 183e 103f 8f3d
00000380: bef8 093e 61af 08bd aa44 a1bd 1a1a 0f3e
00000390: 49c9 9ebd 718e 8f3c a0bf 5ebd f5d9 a4bc
000003a0: 2f66 e9bc f7a4 d6bd 3227 dfbd c2a1 c8bd
000003b0: 55f3 673e db9a c53d 1ad2 8e3e cdcd ddbd
000003c0: 5b88 bd3d cf0f f13c a488 733d 5b10 1cbd
000003d0: 3c97 d03e abf2 3c3e 626b 43bd 6e61 393e
000003e0: 95cc 0b3e c14c 7abd 5cdf 953d a399 24be
000003f0: 8bdf 87bd ef55 113e bd8b f33d 6b9a 753e

att f4 [1, 4, 128]
-0.34992805 -0.1136809 -0.304491 0.2598907 0.29164934 -0.09399947 0.06096672 -0.051092267
0.27278507 0.17871568 -0.10936354 0.2981042 0.11125953 0.15321928 -0.08377999 -0.29740098
0.22584783 0.1339467 0.058290444 0.11360403 -0.0117572425 0.20949765 0.22743571 -0.123232596
0.04558416 -0.2876007 -0.4443451 -0.07975417 -0.15898156 0.14275225 -0.2442427 0.07719608
-0.2758126 0.25976014 0.16963573 0.23219375 -0.15136412 0.22053336 0.14398894 0.2127876
0.107661255 0.02030556 0.14184955 0.23864456 -0.19956498 0.48603502 -0.1383108 -0.28881097
0.123689614 0.2977484 0.3394838 0.1389937 0.08409941 0.17959192 0.36563718 -0.21167968
0.12830283 -0.022761418 0.18063308 -0.08024696 0.02768391 0.15369228 -0.16990483 -0.20230378
-0.24691083 -0.2462135 -0.2611921 -0.32128698 0.09899334 0.3579017 -0.21929112 0.14599517
-0.2418849 -0.14634192 -0.307602 -0.15460192 -0.26295808 -0.17488971 0.11480855 -0.051907193
-0.15856658 -0.016531713 0.16407982 -0.27191254 0.09796922 0.23218212 -0.2545178 -0.12514648
0.4009566 0.5298518 0.42897683 0.15681444 -0.081950136 0.40833247 -0.17707723 0.013000257
0.16589582 -0.17547616 0.15253633 0.25827047 0.18475305 0.2728536 0.2968773 0.16676581
-0.110315666 -0.2657031 -0.2827056 0.20364945 0.32399312 0.01150144 0.1306579 0.093119815
0.11046859 -0.083778985 0.16460195 -0.28929862 -0.20674253 -0.29643422 -0.31012395 -0.27891618
-0.08625372 -0.19961436 -0.021765465 0.13742667 -0.53688127 -0.1512753 0.12703744 -0.0560991
-0.26601842 0.17000863 0.28705972 0.033282436 -0.16060133 -0.4148712 -0.12151054 -0.18276447
0.22690108 0.13438573 -0.046259563 0.11487236 0.11186216 0.2538735 -0.12867981 -0.18510745
-0.2400884 -0.16624162 0.07335957 -0.13009952 0.44493723 0.12043312 -0.2837546 0.17100818
0.19683973 0.3020848 -0.14114812 -0.23984794 -0.09645712 -0.026976403 0.53814334 0.14535074
0.22657304 -0.02254513 -0.119601525 -0.3125917 -0.24285872 0.15140457 -0.19373786 -0.16029356
-0.07368618 -0.02531354 -0.1301463 -0.12256125 0.12944221 0.27374643 -0.040111233 -0.114667006
0.2521087 0.35722017 -0.13842624 0.47689644 -0.057056397 -0.22504608 -0.06617402 -0.29671553
-0.25363863 -0.1507132 0.45278013 0.15531191 -0.15692262 -0.115179636 -0.08275819 0.15396205
-0.26818013 0.34922102 0.35786137 -0.21394555 -0.05429513 -0.15079662 -0.250239 -0.08076179
0.15996787 0.32505518 0.29666302 -0.13484852 0.2872817 -0.07974187 0.41492057 -0.24282189
0.11150034 0.16674255 -0.28906316 0.20100288 0.061133355 -0.21886596 -0.07608729 -0.18319964
-0.23821391 -0.21159428 0.15423547 -0.14002687 0.16740441 0.34675643 -0.0984871 -0.33841857
0.17149778 -0.27344054 -0.10017713 -0.19229078 -0.17028794 -0.15628296 -0.26487982 -0.04847848
0.087141566 -0.070262045 0.19726506 -0.14816295 0.17345823 0.052519236 -0.19276449 -0.18245493
-0.28393152 0.28996485 -0.17487386 -0.2759823 0.14782149 -0.12264013 0.20792082 0.13176791
-0.19448523 -0.063247874 0.17085639 0.29143244 -0.1575323 -0.26788616 -0.22412752 -0.25936627
00000000: c529 b3be 88d1 e8bd 3fe6 9bbe 6510 853e
00000010: 1053 953e cb82 c0bd 3db8 793d 2046 51bd
00000020: 7caa 8b3e 3e01 373e fef9 dfbd 1da1 983e
00000030: 09dc e33d 84e5 1c3e d894 abbd f144 98be
00000040: a744 673e 5329 093e f6c1 6e3d 3ba9 e83d
00000050: 73a1 40bc 8d86 563e e8e4 683e 5f61 fcbd
00000060: 75b6 3a3d 6640 93be 3381 e3be 2756 a3bd
00000070: 10cc 22be a52d 123e c21a 7abe fa18 9e3d
00000080: 4f37 8dbe 48ff 843e fdb4 2d3e 33c4 6d3e
00000090: 32ff 1abe 7fd3 613e d671 133e fee4 593e
000000a0: 817d dc3d d957 a63c 0241 113e 3d5f 743e
000000b0: c35a 4cbe 95d9 f83e 59a1 0dbe 08df 93be
000000c0: fb50 fd3d 7a72 983e d2d0 ad3e 5d54 0e3e
000000d0: 503c ac3d f2e6 373e cc34 bb3e 8fc2 58be
000000e0: d161 033e 2776 babc e1f7 383e 8558 a4bd
000000f0: 5ec9 e23c 8261 1d3e 88fb 2dbe b928 4fbe
00000100: 31d6 7cbe 641f 7cbe f9ba 85be ba7f a4be
00000110: 05bd ca3d e43e b73e da8d 60be c27f 153e
00000120: adb0 77be a8da 15be 027e 9dbe f74f 1ebe
00000130: 71a2 86be 4a16 33be bf20 eb3d a39c 54bd
00000140: 475f 22be 846d 87bc 8a04 283e 1f38 8bbe
00000150: 16a4 c83d 26c1 6d3e 2850 82be 6626 00be
00000160: 2f4a cd3e 5ea4 073f daa2 db3e f793 203e
00000170: 79d5 a7bd f410 d13e bc53 35be 08ff 543c
00000180: 98e0 293e 06b0 33be 7c32 1c3e 073c 843e
00000190: e72f 3d3e 78b3 8b3e 4d00 983e a8c4 2a3e
000001a0: 2eed e1bd 3d0a 88be cabe 90be 7b89 503e
000001b0: 6de2 a53e 8970 3c3c 2fcb 053e 9ab5 be3d
000001c0: 5b3d e23d 5194 abbd 6a8d 283e f31e 94be
000001d0: 50b4 53be 3ac6 97be 91c8 9ebe 1ace 8ebe
000001e0: caa5 b0bd b567 4cbe 7d4d b2bc 94b9 0c3e
000001f0: 0d71 09bf eae7 1abe 1a16 023e 2bc8 65bd
00000200: 9133 88be be16 2e3e 7ef9 923e 2a53 083d
00000210: ad74 24be ff69 d4be 85da f8bd 9c26 3bbe
00000220: c258 683e 6a9c 093e ab7a 3dbd 3342 eb3d
00000230: fd17 e53d b5fb 813e a4c4 03be cf8c 3dbe
00000240: bcd9 75be 3e3b 2abe 8b3d 963d cf38 05be
00000250: d0ce e33e a4a5 f63d 4848 91be c51c 2f3e
00000260: 5b90 493e dcaa 9a3e 2289 10be b39a 75be
00000270: 4f8b c5bd 9efd dcbc c3c3 093f d3d6 143e
00000280: c302 683e 91b0 b8bc a5f1 f4bd 050c a0be
00000290: f5af 78be cd09 1b3e 3863 46be ff23 24be
000002a0: c8e8 96bd 575e cfbc 1245 05be 6501 fbbd
000002b0: 808c 043e 7e28 8c3e ad4b 24bd 89d6 eabd
000002c0: 6414 813e 90e5 b63e 9cbf 0dbe c52b f43e
000002d0: f8b3 69bd 7b72 66be 3f86 87bd 19eb 97be
000002e0: ecdc 81be 9054 1abe ccd2 e73e 160a 1f3e
000002f0: 53b0 20be 4de3 ebbd 207d a9bd 3aa8 1d3e
00000300: e84e 89be 19cd b23e 9b39 b73e 8b14 5bbe
00000310: 9264 5ebd 6e6a 1abe 541f 80be 7066 a5bd
00000320: 9ece 233e a26d a63e 37e4 973e bb15 0abe
00000330: 9616 933e b54f a3bd 7870 d43e 4da6 78be
00000340: 4a5a e43d 8fbe 2a3e 1600 94be b3d3 4d3e
00000350: f866 7a3d 661e 60be a7d3 9bbd b098 3bbe
00000360: 59ee 73be 2cac 58be e7ef 1d3e 3463 0fbe
00000370: 106c 2b3e 0f8a b13e 9bb3 c9bd 3345 adbe
00000380: 1d9d 2f3e 6600 8cbe ab29 cdbd e0e7 44be
00000390: f65f 2ebe a408 20be 549e 87be 5f91 46bd
000003a0: 4777 b23d 8ce5 8fbd daff 493e 07b8 17be
000003b0: 099f 313e 691e 573d 0e64 45be 77d5 3abe
000003c0: 795f 91be 4676 943e 2212 33be 8d4d 8dbe
000003d0: 845e 173e c02a fbbd 32e9 543e 2bee 063e
000003e0: 2327 47be 1a88 81bd faf4 2e3e a236 953e
000003f0: 2650 21be 6028 89be af81 65be a8cb 84be

bias f4 [128]
0.019928256 0.09203088 0.10402437 -0.15089934 0.06976734 0.062302995 0.1323173 -0.055370014
-0.093899526 0.039013628 0.020513987 0.12760368 -0.10298096 -0.17436515 0.07875743 -0.045002725
0.032943275 0.10838581 0.1800683 -0.06301942 0.17369737 -0.019207768 0.06961208 0.2589638
0.089669354 -0.007561191 -0.17691499 -0.0001015585 0.061322756 -1.8207329e-05 -0.22089706 0.14592981
0.05509777 -0.056047924 -0.1554291 -0.12748334 0.009806279 -0.044411734 -0.032679614 -0.09339814
-0.053366665 -0.016633844 0.038049504 0.07729769 0.13196976 -0.020178387 0.0884163 0.03157622
0.07396888 -0.09752092 -0.004176348 -0.06558525 -0.04549188 0.23899895 -0.018284967 -0.07057894
-0.06833975 0.0100179175 -0.059887 0.060112964 -0.16585042 -0.056472704 0.12531151 0.10872173
0.27414292 0.03329026 0.04454686 0.013872389 -0.10136196 -0.026818916 -0.21309221 0.030145008
0.23204808 -0.06256823 0.0111555625 0.06935021 -0.30606094 0.22821054 0.06440117 0.09504785
-0.018886885 -0.04683145 0.18302898 -0.045586754 0.10046773 0.2332296 0.23630126 -0.036139134
0.023512062 -0.033020716 -0.03870729 -0.026570959 -0.06716893 -0.099219665 0.026245866 -0.08687629
-0.09780894 -0.042335294 0.0008596382 0.043012593 0.0043995846 -0.04385574 -0.06422994 0.02240701
-0.09889305 0.0115404 -0.16346145 -0.008077437 0.050833642 0.07521863 -0.02556095 0.004353127
0.07822989 -0.18515083 0.063015826 -0.027047375 0.2987903 0.13221824 0.108734965 0.13996431
0.012045741 0.005362113 -0.027256228 0.003859511 -0.16416238 0.009668993 -0.104076274 0.14908338
00000000: 9540 a33c b07a bc3d bb0a d53d 5b85 1abe
00000010: 2ee2 8e3d 6d31 7f3d 307e 073e abcb 62bd
00000020: 654e c0bd c1cc 1f3d f30c a83c 8aaa 023e
00000030: aee7 d2bd c78c 32be 934b a13d c754 38bd
00000040: 87ef 063d 61f9 dd3d d363 383e 5310 81bd
00000050: b9dd 313e 9c59 9dbc c790 8e3d e796 843e
00000060: 91a4 b73d dec3 f7bb 3429 35be cefb d4b8
00000070: 922d 7b3d f1bb 98b7 d732 62be a06e 153e
00000080: 33ae 613d 8292 65bd ce28 1fbe fe8a 02be
00000090: 84aa 203c 14e9 35bd 0fdb 05bd 8647 bfbd
000000a0: 0197 5abd b343 88bc ccd9 1b3d 404e 9e3d
000000b0: 1523 073e 254d a5bc 9b13 b53d 1156 013d
000000c0: ff7c 973d 0cb9 c7bd bfd9 88bb 8f51 86bd
000000d0: b255 3abd 24bc 743e 5bca 95bc b18b 90bd
000000e0: b6f5 8bbd 3122 243c 124c 75bd 0339 763d
000000f0: b1d4 29be ec4f 67bd a951 003e 80a9 de3d
00000100: 765c 8c3e 5e5b 083d c576 363d 0449 633c
00000110: dc96 cfbd 58b3 dbbc d834 5abe aaf2 f63c
00000120: 039e 6d3e c623 80bd d2c5 363c 7c07 8e3d
00000130: 05b4 9cbe 06b0 693e c3e4 833d 72a8 c23d
00000140: abb8 9abc 56d2 3fbd f36b 3b3e 2db9 3abd
00000150: 06c2 cd3d bed3 6e3e f5f8 713e a106 14bd
00000160: 5e9c c03c bb40 07bd 898b 1ebd 57ab d9bc
00000170: dd8f 89bd ae33 cbbd 9201 d73c 32ec b1bd
00000180: 0e50 c8bd c667 2dbd 5859 613a f92d 303d
00000190: 642a 903b 14a2 33bd fd8a 83bd e88e b73c
000001a0: 7088 cabd f213 3d3c 7062 27be 3a57 04bc
000001b0: f036 503d 3a0c 9a3d 3365 d1bc ada4 8e3b
000001c0: fe36 a03d 2e98 3dbe 710e 813d 7592 ddbc
000001d0: 0bfb 983e 3864 073e 70b0 de3d ce52 0f3e
000001e0: 805b 453c aab4 af3b 7448 dfbc daef 7c3b
000001f0: 2f1a 28be b26a 1e3c f125 d5bd 50a9 183e

weight f4 [512, 128]
0.003957458 -0.00071220275 -0.04865392 0.06113063 0.046758864 -0.030796709 0.10747811 -0.031140298
-0.109328575 0.0036421097 0.008364669 -0.0034339926 0.093674734 -0.12630877 -0.096933186 0.11445951
0.06500707 -0.04828777 0.023529839 0.032299295 -0.03214078 -0.071027875 0.029297825 0.064254746
0.056095444 0.0020289074 0.08987287 -0.015233227 0.20842871 -0.02863174 0.040695082 0.04359545
-0.06840924 0.055537812 -0.035267532 -0.028297408 -0.11685584 0.01101414 0.080140784 0.17322104
-0.12351289 0.01867242 0.0046162284 0.10810667 0.015134106 0.114947826 -0.08105606 0.02787476
0.08837685 -0.024867395 0.06498472 0.00289204 0.050754208 0.022624245 -0.062147282 0.0730464
-0.09072232 0.058442056 -0.13132533 -0.036509477 -0.10606182 0.028108533 -0.028388979 0.034681287
-0.07958071 0.10831479 0.030424064 -0.20158376 0.062169474 -0.074193485 -0.07602091 -0.11869321
-0.019902786 0.08742022 -0.011035363 0.033158526 0.04205897 -0.10588307 0.01876276 -0.12575266
0.042802513 0.035602417 -0.025343616 -0.04652903 0.16571605 -0.10962206 -0.083160326 0.068113916
0.049265735 0.10123139 0.09658261 -0.10018405 0.093818665 -0.059691846 0.04435442 -0.061567415
0.014891453 -0.036341388 -0.06927293 -0.03425377 0.054170225 0.014711532 -0.00771636 0.16323647
0.040984068 -0.011068631 0.074417174 -0.04214806 -0.057395414 -0.018021408 -0.032748573 -0.15086405
-0.16171935 -0.0064204144 0.09394644 -0.03795168 0.12483179 -0.09269675 0.20279759 0.024401655
0.028728083 -0.061532695 0.061970092 -0.11689467 -0.09385306 -0.04714072 0.03775596 -0.06733243
-0.19936289 0.10995733 -0.00093336415 -0.06557786 -0.046070483 -0.039675806 0.031395495 0.014553261
0.035230283 -0.06845339 -0.082724966 -0.10972307 0.027628029 0.058040194 -0.11749043 -0.030437142
-0.06383804 -0.03331793 0.0041370094 0.010333691 -0.02403493 0.14003493 0.05515001 0.049793337
-0.055967376 0.01788306 0.06282471 -0.006824293 -0.007725713 0.035928946 0.005484625 0.061044253
-0.15226384 -0.11845399 -0.028718976 -0.020227863 -0.15062362 0.08284979 0.052891117 0.043632235
-0.10950759 0.027686339 -0.04009882 0.0135354325 -0.023035489 0.32291532 0.02980997 -0.029448327
-0.11550673 -0.048641782 0.07210562 -0.21136308 0.09597549 -0.13002971 -0.13057305 -0.14622815
-0.056564327 0.03495098 0.021734342 0.08241518 -0.11558366 0.108416565 -0.11307694 -0.17031842
-0.06322051 -0.06660938 0.09064632 -0.024312492 0.0011084237 0.07204963 0.30007583 0.15099643
0.069745325 -0.027007872 -0.017980061 0.044005997 -0.120025344 -0.045501478 0.07865846 -0.008089757
-0.0023791895 0.015856767 0.07224707 -0.0740313 -0.07411777 -0.05089584 0.026362896 -0.08444552
0.12780207 0.057447214 -0.020624226 -0.004733451 -0.0337356 0.06967091 0.10985269 0.043497276
-0.041468296 0.02266655 -0.08901649 0.15117666 0.033449154 -0.021861687 0.05210996 0.05629935
0.106392175 0.027983032 0.09668865 0.1004821 -0.09278481 -0.03272102 0.07502543 -0.07057503
0.08784909 -0.10506652 -0.09306836 -0.017357368 -0.06399964 -0.02431115 0.15551297 0.040674187
0.009076221 -0.078810245 -0.06359184 0.14924398 -0.18287884 0.005968978 0.09931809 -0.10658398
00000000: 90ad 813b 1eb3 3aba 5549 47bd 1d64 7a3d
00000010: 3986 3f3d 6149 fcbc 7c1d dc3d f019 ffbc
00000020: a9e7 dfbd 76b0 6e3b f70b 093c d60c 61bb
00000030: 8ad8 bf3d 1657 01be e884 c6bd bf69 ea3d
00000040: 6d22 853d 66c9 45bd a6c1 c03c 444c 043d
00000050: 0da6 03bd 1077 91bd fe01 f03c fe97 833d
00000060: 56c4 653d 6bf7 043b 440f b83d c994 79bc
00000070: 566e 553e 1c8d eabc e3af 263d 2591 323d
00000080: 251a 8cbd 9e7b 633d b074 10bd f7cf e7bc
00000090: 1d52 efbd a774 343c da20 a43d db60 313e
000000a0: 53f4 fcbd e7f6 983c bb43 973b 0867 dd3d
000000b0: 0bf5 773c c469 eb3d b800 a6bd 9c59 e43c
000000c0: ecfe b43d b5b6 cbbc b516 853d 6188 3d3b
000000d0: a5e3 4f3d 7b56 b93c 268e 7ebd 5a99 953d
000000e0: a0cc b9bd f060 6f3d 267a 06be f68a 15bd
000000f0: f136 d9bd de43 e63c 0190 e8bc f70d 0e3d
00000100: 36fb a2bd 25d4 dd3d e33b f93c f96b 4ebe
00000110: 6ba5 7e3d c1f2 97bd dab0 9bbd 6d15 f3bd
00000120: 2b0b a3bc 5f09 b33d abcd 34bc 3cd1 073d
00000130: 0746 2c3d 39d9 d8bd 5cb4 993c 4ec5 00be
00000140: b051 2f3d d7d3 113d 6a9d cfbc 3995 3ebd
00000150: 78b1 293e 8881 e0bd f64f aabd 4f7f 8b3d
00000160: deca 493d 6752 cf3d 1acd c53d 4c2d cdbd
00000170: 0024 c03d 707f 74bd fbac 353d 1d2e 7cbd
00000180: 48fb 733c b5da 14bd f7de 8dbd ae4d 0cbd
00000190: 99e1 5d3d a308 713c 85d9 fcbb 7627 273e
000001a0: e9de 273d 3459 35bc 0868 983d 72a3 2cbd
000001b0: 7417 6bbd a2a1 93bc 5e23 06bd 1b7c 1abe
000001c0: c299 25be 5762 d2bb fe66 c03d 3973 1bbd
000001d0: cfa7 ff3d cbd7 bdbd 2caa 4f3e fbe5 c73c
000001e0: 2857 eb3c b509 7cbd 5ad4 7d3d 7966 efbd
000001f0: 0836 c0bd a116 41bd fea5 1a3d 96e5 89bd
00000200: c925 4cbe 4f31 e13d 02ad 74ba af4d 86bd
00000210: 67b4 3cbd 1983 22bd 9098 003d cd70 6e3c
00000220: a14d 103d 4a31 8cbd b56b a9bd 7db6 e0bd
00000230: 2d54 e23c 8ebb 6d3d d39e f0bd 5057 f9bc
00000240: 85bd 82bd 6278 08bd c08f 873b a44e 293c
00000250: e7e4 c4bc 5165 0f3e fae4 613d 19f4 4b3d
00000260: 0c3e 65bd 7f7f 923c 3eaa 803d 529e dfbb
00000270: fa27 fdbb 3b2a 133d 5fb8 b33b 8a09 7a3d
00000280: 0deb 1bbe 0198 f2bd 0f44 ebbc e7b4 a5bc
00000290: 143d 1abe 27ad a93d 5ba4 583d b7b7 323d
000002a0: 8445 e0bd 76ce e23c a93e 24bd b8c3 5d3c
000002b0: ecb4 bcbc 2855 a53e 0a34 f43c 9e3d f1bc
000002c0: cb8e ecbd 9b3c 47bd 1cac 933d 906f 58be
000002d0: cc8e c43d 8226 05be f1b4 05be d5bc 15be
000002e0: ffaf 67bd c228 0f3d 380c b23c 4ac9 a83d
000002f0: 20b7 ecbd 8109 de3d e294 e7bd f467 2ebe
00000300: c179 81bd 806a 88bd c7a4 b93d fe2a c7bc
00000310: 8748 913a c28e 933d 8aa3 993e cf9e 1a3e
00000320: a3d6 8e3d 9d3f ddbc ec4a 93bc a23f 343d
00000330: d9cf f5bd c25f 3abd b017 a13d e68a 04bc
00000340: 2dec 1bbb 0de6 813c 46f6 933d b99d 97bd
00000350: 0fcb 97bd 2878 50bd 00f7 d73c c6f1 acbd
00000360: 8cde 023e c54d 6b3d 23f4 a8bc 111b 9bbb
00000370: 572e 0abd 9faf 8e3d 72fa e03d 332a 323d
00000380: a9da 29bd 33af b93c 474e b6bd 0ece 1a3e
00000390: fb01 093d 4817 b3bc 4171 553d 269a 663d
000003a0: 24e4 d93d ac3c e53c b304 c63d 8fc9 cd3d
000003b0: f605 bebd 7a06 06bd efa6 993d a489 90bd
000003c0: 39ea b33d 1e2d d7bd a09a bebd 0a31 8ebc
000003d0: 3e12 83bd 2d28 c7bc cb3e 1f3e fa99 263d
000003e0: 6eb4 143c 4467 a1bd 703c 82bd 6ad3 183e
000003f0: 9744 3bbe 6b97 c33b 4867 cb3d b448 dabd

bias f4 [512]
0.020857466 0.028289337 0.09043721 0.09519193 0.016266344 -0.026816353 -0.0063473033 0.011164206
0.0077339387 -0.025128555 -0.012644275 -0.036514957 0.044999983 -0.06510082 -0.059880294 -0.06498643
-0.010578454 -0.011079618 0.1339821 0.03867424 -0.07343324 0.029931819 0.06464288 0.054372877
0.030873453 0.061920863 -0.07460583 0.05496373 0.03261231 -0.037503812 -0.075155355 0.1433133
0.04387628 0.12394777 0.053606935 0.025396211 -0.0057584066 0.032332227 0.024870543 -0.13695623
-0.052192353 -0.046243843 -0.009111064 0.031713314 -0.043393172 0.06642538 -0.012600161 -0.02131152
0.06786801 -0.0017704717 0.08805021 -0.056185935 -0.060299862 0.18832095 0.0537771 0.00566672
0.07891511 0.019160729 0.022723319 0.008342583 0.023516586 -0.06907625 0.048925508 0.10656068
0.07407712 0.021133183 -0.049575496 -0.06518529 -0.06735605 -0.06524556 -0.073665544 -0.029843962
0.04319671 0.012591307 0.07444482 0.0889002 -0.012947343 -0.040175658 0.041277837 -0.042762242
-0.006278058 -0.064472064 0.08951711 0.09154813 0.02066842 0.13530432 0.12854122 0.067772
-0.10491673 -0.13764815 -0.05701656 0.004278249 -0.03856377 0.038103417 -0.014905855 0.08206871
0.0022462576 0.12035914 -0.042305667 -0.008539396 0.077128954 0.102224275 -0.02550698 0.13689569
-0.020891678 -0.07208136 -0.020906188 0.018167729 -0.04296233 -0.099574685 -0.101380944 -0.051600266
0.095534824 -0.10715395 0.010541566 -0.0013505226 0.06463299 -0.034078524 -0.04655955 0.09791856
0.059310313 0.07781228 -0.08489165 -0.051695663 -0.10798106 0.07854716 -0.013435214 0.025724387
0.13781919 0.105198845 0.054128036 -0.018174708 0.087306656 -0.052071452 -0.007887953 -0.023758197
-0.14855868 0.03811267 0.10952733 0.013723967 0.011300987 0.028690482 0.090270326 -0.033880103
-0.06584448 0.06389141 0.04816626 0.07374848 -0.009935688 -0.026731167 -0.028699694 -0.055949483
0.0030079205 -0.043580193 0.0021636267 0.033443395 0.055563394 0.09313795 -0.014447872 0.044112414
0.029384457 0.09547707 0.0705444 0.055291403 0.11056817 0.10078178 0.022211563 -0.050688375
0.01763018 -0.08555833 -0.039343465 0.013487299 -0.066531196 0.09757325 0.11366531 -0.05066204
0.07099083 0.024211662 -0.038141523 -0.109743245 0.057201184 0.15776084 -0.007212189 -0.028519629
0.024917562 0.039462775 0.024767678 -0.103382066 -0.03693103 -0.094882235 -0.035607092 0.05154944
-0.015240188 0.10599841 -0.04177035 -0.037106458 0.009532189 -0.04037382 -0.07871137 -0.045133203
0.11480896 -0.05400541 -0.06581251 0.015282501 0.06211217 -0.057575725 -0.015839202 -0.015312391
0.029277474 0.010746007 0.03305908 0.043914802 0.121147215 0.10644736 0.049725622 0.113776214
-0.01669879 -0.060209956 -0.068846256 -0.070568085 -0.12137061 -0.049810976 -0.04010521 0.034611426
0.021724299 0.063860275 0.008267097 0.00954938 0.028678365 -0.013695325 -0.07876477 0.13794774
-0.097479895 0.020705236 0.06722571 0.030920105 0.117826276 -0.054880474 -0.046604283 -0.01226986
0.028885387 -0.054778103 0.023772506 -0.054048575 0.033669654 0.045770183 0.0006577056 0.11188083
0.013276094 -0.021508241 -0.039139926 0.03326232 -0.05274685 -0.016370002 0.060278893 0.08762512
00000000: 47dd aa3c 0abf e73c 2537 b93d fdf3 c23d
00000010: ff40 853c f8ad dbbc 0afd cfbb 13ea 363c
00000020: fb6c fd3b 66da cdbc ef29 4fbc b590 15bd
00000030: e751 383d 9453 85bd 0a45 75bd 9b17 85bd
00000040: 4051 2dbc 4987 35bc 9b32 093e e168 1e3d
00000050: 2b64 96bd 9333 f53c 7c63 843d 18b6 5e3d
00000060: 53ea fc3c bba0 7d3d f1ca 98bd a621 613d
00000070: 7c94 053d 999d 19bd 0deb 99bd b9c0 123e
00000080: 9db7 333d 54d8 fd3d f292 5b3d b70b d03c
00000090: 04b1 bcbb cc6e 043d 4fbd cb3c 413e 0cbe
000000a0: a6c7 55bd 2f6a 3dbd 9246 15bc d2e5 013d
000000b0: 0abd 31bd 080a 883d e870 4ebc 7f95 aebc
000000c0: 62fe 8a3d 2c0f e8ba ab53 b43d 3923 66bd
000000d0: fdfc 76bd 35d7 403e 6045 5c3d e5af b93b
000000e0: 3f9e a13d f6f6 9c3c 4126 ba3c 54af 083c
000000f0: dba5 c03c d977 8dbd 1d66 483d 7c3c da3d
00000100: bfb5 973d 7f1f ad3c ad0f 4bbd de7f 85bd
00000110: f8f1 89bd 779f 85bd f6dd 96bd 537b f4bc
00000120: 09ef 303d c54b 4e3c 8776 983d 4f11 b63d
00000130: 1821 54bc 3b8f 24bd f312 293d 7627 2fbd
00000140: 2bb8 cdbb ee09 84bd bf54 b73d 967d bb3d
00000150: d150 a93c 378d 0a3e 4fa0 033e 0ccc 8a3d
00000160: 95de d6bd a3f3 0cbe 328a 69bd 8e30 8c3b
00000170: 0bf5 1dbd 5412 1c3d b037 74bc a413 a83d
00000180: f335 133b da7e f63d b548 2dbd d3e8 0bbc
00000190: c9f5 9d3d f65a d13d 04f4 d0bc 622e 0c3e
000001a0: 0625 abbc 649f 93bd 7443 abbc 7dd4 943c
000001b0: 45f9 2fbd d0ed cbbd d0a0 cfbd cd5a 53bd
000001c0: c3a7 c33d 8873 dbbd 88b6 2c3c 0504 b1ba
000001d0: 4d5e 843d ec95 0bbd 3ab5 3ebd 8789 c83d
000001e0: 5fef 723d 0b5c 9f3d acdb adbd d5be 53bd
000001f0: 2d25 ddbd 55dd a03d 5f1f 5cbc f3bb d23c
00000200: 7920 0d3e 7e72 d73d 5cb5 5d3d 20e3 94bc
00000210: d5cd b23d e048 55bd 793c 01bc 8da0 c2bc
00000220: c41f 18be 081c 1c3d dd4f e03d 7dda 603c
00000230: c627 393c 4d08 eb3c a6df b83d ddc5 0abd
00000240: 79d9 86bd 80d9 823d fc49 453d 7109 973d
00000250: 4cc9 22bc 52fb dabc 9f1b ebbc 492b 65bd
00000260: 8820 453b 2581 32bd a2cb 0d3b f1fb 083d
00000270: 7196 633d 1cbf be3d c4b6 6cbc 38af 343d
00000280: acb7 f03c 7b89 c33d 9579 903d 3d79 623d
00000290: 9171 e23d ae66 ce3d 06f5 b53c 9d9e 4fbd
000002a0: 2b6d 903c 3539 afbd 9d26 21bd d5f9 5c3c
000002b0: 8241 88bd 7cd4 c73d 5cc9 e83d 0083 4fbd
000002c0: a463 913d 8957 c63c 493a 1cbd 11c1 e0bd
000002d0: ca4b 6a3d 0f8c 213e 3a54 ecbb ffa1 e9bc
000002e0: ea1f cc3c b8a3 213d 96e5 ca3c fab9 d3bd
000002f0: fe44 17bd 9e51 c2bd bed8 11bd 8125 533d
00000300: fbb1 79bc b215 d93d 6317 2bbd f1fc 17bd
00000310: e62c 1c3c 055f 25bd 6d33 a1bd 98dd 38bd
00000320: f620 eb3d c734 5dbd b6c8 86bd 7463 7a3c
00000330: 5569 7e3d 86d4 6bbd 37c1 81bc d3e0 7abc
00000340: 50d7 ef3c 0510 303c f568 073d 02e0 333d
00000350: 081c f83d 1301 da3d 18ad 4b3d 8103 e93d
00000360: e7cb 88bc b79e 76bd 44ff 8cbd 0086 90bd
00000370: 2891 f8bd 9806 4cbd 5c45 24bd b6c4 0d3d
00000380: 28f7 b13c 2dc9 823d b872 073c 0175 1c3c
00000390: e4ee ea3c 5b62 60bc 6c4f a1bd 2c42 0d3e
000003a0: 8aa3 c7bd 079e a93c a2ad 893d 294c fd3c
000003b0: e74e f13d 59ca 60bd 22e4 3ebd 8607 49bc
000003c0: 0ca1 ec3c 015f 60bd 8fbe c23c 0a62 5dbd
000003d0: 31e9 093d 8479 3b3d e069 2c3a c721 e53d
000003e0: f983 593c 0d32 b0bc 3051 20bd 123e 083d
000003f0: 150d 58bd 621a 86bc 00e7 763d cd74 b33d

weight f4 [512, 128]
0.0067222198 -0.043586228 0.08491421 -0.02631191 -0.07671192 0.109619096 0.0704937 -0.12659499
0.010099878 -0.05695074 -0.05944922 0.0029520188 -0.085720465 0.0076718642 0.084129095 0.027501535
-0.14614993 0.014663727 0.03470588 0.08939757 0.053519648 -0.033980977 0.029959671 0.008879541
0.12459202 0.12587066 0.02039611 0.10830445 0.12340852 -0.012518352 -0.055487968 -0.112704165
0.0044093095 0.10560323 -0.093689315 0.006788942 0.11315478 0.01337809 0.06739503 -0.013272657
0.15346114 -0.036330927 -0.02044966 -0.001340117 -0.08108187 -0.056369208 -0.039784376 0.031103585
0.020334372 -0.049117938 -0.117147654 -0.0164298 -0.061306417 0.114774525 0.0881871 0.032310188
0.05004825 -0.06524958 -0.009930607 -0.059242766 0.034384612 -0.089027666 0.06310228 0.039565887
-0.062142827 0.06398244 -0.038409643 0.027554588 -0.058217533 -0.011791059 0.0024675464 0.01374299
-0.122857906 0.011653847 -0.015533585 -0.05875326 0.010688656 0.05949711 -0.0006176352 -0.20659073
0.062313423 0.078555964 -0.054698307 0.06090291 0.025484899 -0.061689045 -0.07822676 0.0031427024
0.031020708 -0.019423606 0.003484473 0.05114128 -0.0012945839 0.02489785 -0.07819249 0.04373901
0.13639407 0.023670612 0.015986703 -0.004607922 -0.110913225 0.0076374877 -0.020454032 0.05722687
0.0818306 -0.001663673 -0.007100721 -0.14044063 -0.052847344 -0.029075112 -0.11644576 0.0765844
-0.04490522 -0.06521177 4.4486747e-05 -0.095345505 0.0051596966 -0.10978274 0.040509433 -0.020100791
0.039084423 0.013812292 0.14466637 -0.01371958 0.09004307 0.014408139 0.049765747 0.11686765
-0.08121681 0.013682125 0.0780676 -0.11028384 0.10686761 -0.05398546 0.09339632 0.0529628
0.08321688 0.0437429 0.047987122 -0.079356834 0.0036081215 -0.0071850005 0.04715491 -0.036540404
0.0399802 -0.07385663 -0.09534196 -0.072248064 -0.053170696 0.07110472 -0.06200291 -0.0971067
0.022703988 -0.101495154 -0.039086193 0.08990131 0.05018211 0.07807355 0.05956577 0.06548504
-0.053488698 0.0075390427 -0.0064847968 0.0985049 0.067439154 0.08452494 -0.053996537 0.054782726
0.0028184622 -0.08421242 0.011118922 0.09909498 -0.04225279 0.07093139 0.08841491 -0.024546113
0.03385859 0.00019307711 -0.07352186 -0.08444481 -0.07246824 -0.06757452 -0.06319894 0.004411053
0.004789149 0.028390793 -0.079400346 0.10330035 0.0020206554 0.009911518 -0.010621406 -0.05355877
0.07955647 -0.010963399 0.026123717 0.071152724 0.04095088 0.028809605 -0.036616918 -0.028116126
-0.04831056 -0.032033153 -0.10038033 0.013494552 0.018753778 -0.029773144 -0.028538978 -0.059590466
-0.03405266 -0.051603843 0.060448375 -0.029010003 0.005145944 -0.051893752 -0.026110219 -0.0114999935
-0.08330495 -0.036109526 0.05175048 -0.08069012 0.023513323 0.070782825 -0.0711585 -0.038410343
0.081690386 -0.09689233 -0.098505 0.0045233895 0.019815275 0.036963195 -0.07391326 0.030617679
-0.10141001 0.030817607 -0.06023801 0.0056639807 -0.048860602 -0.046292394 -0.006351058 0.010257801
0.0030079808 -0.01349841 0.025986372 0.06713354 0.025209527 -0.08856195 0.025431065 -0.093800515
-0.023565147 -0.083682 0.043410636 -0.094373256 -0.05785235 0.03151658 0.09391394 -0.027018068
00000000: 1146 dc3b 7987 32bd 80e7 ad3d 138c d7bc
00000010: 241b 9dbd fa7f e03d 005f 903d 1ea2 01be
00000020: f579 253c 2e45 69bd 0681 73bd a876 413b
00000030: 368e afbd 4364 fb3b e04b ac3d e64a e13c
00000040: 54a8 15be 2140 703c c127 0e3d 1316 b73d
00000050: 6b37 5b3d a32f 0bbd fc6d f53c 7f7b 113c
00000060: 1a2a ff3d 3de4 003e be15 a73c b9ce dd3d
00000070: 9bbd fc3d c619 4dbc 5a47 63bd 71d1 e6bd
00000080: f87b 903b 8246 d83d 2fe0 bfbd c675 de3b
00000090: b1bd e73d c72f 5b3c 6806 8a3d 8f75 59bc
000000a0: eb24 1d3e bdcf 14bd 0c86 a7bc dda6 afba
000000b0: 400e a6bd 66e3 66bd f1f4 22bd f2cc fe3c
000000c0: 4594 a63c e42f 49bd 1ceb efbd ca97 86bc
000000d0: 701c 7bbd e80e eb3d 709b b43d b057 043d
000000e0: 65ff 4c3d 92a1 85bd fcb3 22bc 8ba8 72bd
000000f0: e1d6 0c3d 2354 b6bd c53b 813d d70f 223d
00000100: 7a89 7ebd 3a09 833d 6e53 1dbd 29ba e13c
00000110: 8275 6ebd 492f 41bc 8fb6 213b 472a 613c
00000120: ed9c fbbd c7ef 3e3c 9480 7ebc 42a7 70bd
00000130: 791f 2f3c 3eb3 733d cce8 21ba 858c 53be
00000140: 5c3c 7f3d f3e1 a03d 550b 60bd 5475 793d
00000150: b5c5 d03c a7ad 7cbd 5a35 a0bd ccf5 4d3b
00000160: 241f fe3c 411e 9fbc c25b 643b 8579 513d
00000170: 07af a9ba 93f6 cb3c 6223 a0bd ad27 333d
00000180: e3aa 0b3e dfe8 c13c 8cf6 823c 0dfe 96bb
00000190: 7926 e3bd e443 fa3b 378f a7bc b966 6a3d
000001a0: cd96 a73d 9a0f daba 2aad e8bb abcf 0fbe
000001b0: 7576 58bd ee2e eebc 1d7b eebd 48d8 9c3d
000001c0: 89ee 37bd c08d 85bd 4897 3a38 8144 c3bd
000001d0: ac12 a93b c6d5 e0bd 38ed 253d 6aaa a4bc
000001e0: fd16 203d f44c 623c 6c23 143e 17c8 60bc
000001f0: 8068 b83d 1d10 6c3c 2bd7 4b3d 4e58 ef3d
00000200: 0055 a6bd fe2a 603c e8e1 9f3d 7edc e1bd
00000210: 68dd da3d dc1f 5dbd 9246 bf3d 85ef 583d
00000220: 9d6d aa3d c12b 333d 258e 443d d685 a2bd
00000230: 3c76 6c3b 2770 ebbb 8225 413d 64ab 15bd
00000240: 47c2 233d 2542 97bd a542 c3bd cbf6 93bd
00000250: 84c9 59bd 5a9f 913d c3f6 7dbd e1df c6bd
00000260: b7fd b93c b1dc cfbd d818 20bd 2e1e b83d
00000270: c28b 4d3d 06e5 9f3d 3dfb 733d 051d 863d
00000280: f716 5bbd 130a f73b 6b7e d4bb f0bc c93d
00000290: 8a1d 8a3d 691b ad3d 792b 5dbd da63 603d
000002a0: f3b5 383b 9077 acbd 242c 363c 4ff2 ca3d
000002b0: 4311 2dbd 7a44 913d e012 b53d ee14 c9bc
000002c0: 4eaf 0a3d be74 4a39 a192 96bd 67f1 acbd
000002d0: 3b6a 94bd 8364 8abd 726e 81bd 988a 903b
000002e0: 4bee 9c3b cf93 e83c a69c a2bd 228f d33d
000002f0: f96c 043b eb63 223c 6805 2ebc 7160 5bbd
00000300: 81ee a23d d49f 33bc 6801 d63c 85b8 913d
00000310: 1cbc 273d 1f02 ec3c 9ffb 15bd ca53 e6bc
00000320: 4be1 45bd 3235 03bd 3494 cdbd 4118 5d3c
00000330: 86a1 993c cfe6 f3bc 93ca e9bc 2215 74bd
00000340: cd7a 0bbd 8d5e 53bd b798 773d 63a6 edbc
00000350: 4f9f a83b 8b8e 54bd 19e5 d5bc 786a 3cbc
00000360: c99b aabd 95e7 13bd 50f8 533d dd40 a5bd
00000370: 039f c03c 96f6 903d 8cbb 91bd 2a54 1dbd
00000380: 4a4d a73d 7c6f c6bd fdbc c9bd f138 943b
00000390: a553 a23c b866 173d d65f 97bd edd1 fa3c
000003a0: 0db0 cfbd 3575 fc3c 22bc 76bd ea98 b93b
000003b0: 0e22 48bd 189d 3dbd 891c d0bb 5610 283c
000003c0: 8b21 453b 6f28 5dbc 5fe1 d43c 4f7d 893d
000003d0: 3684 ce3c f85f b5bd cf54 d03c 7c1a c0bd
000003e0: b20b c1bc 7861 abbd 5acf 313d c446 c1bd
000003f0: 96f6 6cbd 8817 013d f455 c03d ff54 ddbc

bias f4 [512]
-0.034158714 0.11072285 0.04571526 -0.008976613 -0.13796864 -0.044413593 -0.049838964 -0.03347463
-0.0013057597 -0.14113359 0.018993713 0.04885276 -0.121900715 0.051865466 -0.038222514 -0.019968268
-0.017462295 -0.08227937 -0.002870358 -0.19041532 0.08551716 -0.033924304 -0.12592499 0.07578884
-0.11914451 0.046698544 -0.06784468 0.036687195 -0.07097084 -0.047085825 -0.053402416 0.005440901
0.020963598 0.030143758 -0.15496548 0.053524513 0.04404736 -0.01100486 0.05764587 -0.07676823
-0.018785818 -0.060597982 -0.010349575 0.18707375 0.089923926 0.07423321 -0.034658156 -0.05472947
0.051456485 0.021094583 -0.024729554 -0.05658285 -0.04379357 -0.10956385 0.027744055 -0.11250741
0.124112755 0.0211795 -0.03480188 -0.10146768 -0.016637312 -0.01458612 0.08767725 0.016195875
0.009964616 -0.094947204 -0.09272011 -0.008695253 -0.05673841 0.08234492 0.032392517 0.059928745
-0.029009525 -0.08097138 0.0073377825 0.025283417 0.057810843 0.05194159 -0.10644311 -0.05777833
0.03179001 0.0727381 -0.02245872 -0.06662638 -0.043854095 -0.051084865 0.03039646 -0.032293227
-0.091525584 0.07266697 0.079265654 -0.058212426 -0.07783839 0.14736868 -0.033429626 -0.069330215
-0.089535914 0.059616968 0.030548748 -0.09937256 -0.17545563 -0.0060424376 0.08311849 0.12049325
0.08748357 0.06660984 0.1229464 -0.031992935 -0.045285933 -0.12948892 0.005904402 0.042605255
-0.04867425 0.016105311 -0.07019364 -0.10962565 -0.094556496 -0.07590955 -0.11133913 0.099593885
0.0375191 0.043278545 -0.023644987 0.025039097 -0.044980254 -0.059539177 0.017269615 -0.050773095
-0.0037938817 -0.04107184 -0.033462793 -0.083452 0.044560462 0.036453534 -0.011452773 -0.0732401
-0.04356762 -0.06665317 0.014821709 0.045844965 -0.22686894 0.12669805 -0.08129826 -0.06608922
0.06695505 0.032118965 -0.07602553 0.032159053 -0.02275463 -0.0603922 0.031525165 0.0317253
-0.0072082453 -0.071611226 -0.03615413 0.05490692 0.060508166 0.0181255 0.086543195 -0.0036235405
-0.06780831 0.030109912 0.028081732 0.11867301 0.0012735059 -0.18969926 0.05939171 -0.012974814
-0.044704337 0.15003678 -0.093976825 -0.05919794 -0.048077047 -0.004992373 0.06164923 0.006736659
-0.039290763 -0.040236987 -0.08085225 0.06896057 -0.1348695 -0.0706516 -0.02738833 0.03963746
-0.0152945835 0.17536302 0.0028960325 0.09815148 0.02076803 -0.0062077073 0.109440774 -0.18990067
0.0012581192 -0.1270606 -0.08772702 -0.087930314 0.03428193 0.084454246 0.074775316 -0.06420538
-0.20219141 0.020833123 0.07746233 0.092456274 0.052535873 0.051061936 0.0069324523 0.09149042
-0.07960899 -0.06387362 0.021975726 -0.007961771 0.06055485 0.07704454 -0.0011068397 -0.046597056
-0.09580946 0.06802279 -0.045439914 -0.015854185 -0.048628554 0.05432675 -0.06479495 -0.0027291514
-0.0042482163 0.062326755 -0.111829 -0.11291024 -0.060207624 -0.030699575 0.15479071 0.12925994
-0.054380286 -0.08679906 -0.040411565 0.06755827 0.044155493 -0.02146223 0.03704582 -0.026750186
0.04545162 -0.04917849 -0.038655154 0.0389786 0.090336904 0.18015069 -0.017464608 -0.11772831
0.025533652 0.017439695 -0.024208887 0.10092153 0.07565078 0.011884464 -0.052965857 -0.11525859
00000000: 02ea 0bbd a9c2 e23d ed3f 3b3d a512 13bc
00000010: a747 0dbe 07eb 35bd f123 4cbd b21c 09bd
00000020: 0626 abba 5385 10be b498 9b3c d519 483d
00000030: 15a7 f9bd e270 543d 368f 1cbd 7e94 a3bc
00000040: 160d 8fbc 1682 a8bd 9e1c 3cbb 3cfc 42be
00000050: 9f23 af3d 36f4 0abd 7bf2 00be 2e37 9b3d
00000060: 0902 f4bd f946 3f3d 27f2 8abd 5045 163d
00000070: 2959 91bd 11dd 40bd 7ebc 5abd 9649 b23b
00000080: dabb ab3c 0bf0 f63c 45af 1ebe 853c 5b3d
00000090: 016b 343d ba4d 34bc 131e 6c3d a938 9dbd
000000a0: b7e4 99bc 9735 78bd 4491 29bc 4390 3f3e
000000b0: 092a b83d 9507 983d b6f5 0dbd 022c 60bd
000000c0: 09c4 523d 8cce ac3c a295 cabc 6bc3 67bd
000000d0: e360 33bd 0363 e0bd 8047 e33c 496a e6bd
000000e0: d42e fe3d a180 ad3c 6b8c 0ebd 49ce cfbd
000000f0: f94a 88bc 9ffa 6ebc 2190 b33d 36ad 843c
00000100: a142 233c ae73 c2bd 0be4 bdbd 8976 0ebc
00000110: 8966 68bd 74a4 a83d 04ae 043d d877 753d
00000120: 62a5 edbc 53d4 a5bd c871 f03b 2b1f cf3c
00000130: 10cb 6c3d b4c0 543d d8fe d9bd f8a8 6cbd
00000140: 3e36 023d b7f7 943d 59fb b7bc 6973 88bd
00000150: 5aa0 33bd 5d3e 51bd ff01 f93c e745 04bd
00000160: c471 bbbd 6cd2 943d 0856 a23d 2770 6ebd
00000170: bc69 9fbd d1e7 163e 81ed 08bd 00fd 8dbd
00000180: 9b5e b7bd ec30 743d 5e41 fa3c d783 cbbd
00000190: a4aa 33be a4ff c5bb 073a aa3d 2ac5 f63d
000001a0: 962a b33d bd6a 883d 52cb fb3d 060b 03bd
000001b0: be7d 39bd be98 04be b779 c13b d982 2e3d
000001c0: a65e 47bd 49ef 833c afc1 8fbd 6a83 e0bd
000001d0: d6a6 c1bd 7776 9bbd c505 e4bd e1f7 cb3d
000001e0: a1ad 193d d844 313d 22b3 c1bc cb1e cd3c
000001f0: 373d 38bd 5adf 73bd 0279 8d3c 73f7 4fbd
00000200: c6a2 78bb f23a 28bd 4810 09bd e2e8 aabd
00000210: 0885 363d 4d50 153d 69a4 3bbc e8fe 95bd
00000220: f673 32bd 7581 88bd c1d6 723c eec7 3b3d
00000230: 5550 68be 22bd 013e b47f a6bd c959 87bd
00000240: bb1f 893d 2d8f 033d 46b3 9bbd 36b9 033d
00000250: eb67 babc d05d 77bd 8820 013d 63f2 013d
00000260: 2533 ecbb e8a8 92bd 5a16 14bd 14e6 603d
00000270: 69d7 773d ee7b 943c 8f3d b13d ec78 6dbb
00000280: 15df 8abd 10a9 f63c a90b e63c d60a f33d
00000290: c4eb a63a 8640 42be b944 733d 5094 54bc
000002a0: e51b 37bd 3ea3 193e ec76 c0bd 8a79 72bd
000002b0: 70ec 44bd 0f97 a3bb e783 7c3d 31bf dc3b
000002c0: 5aef 20bd 8acf 24bd dd95 a5bd 333b 8d3d
000002d0: 3b1b 0abe c9b1 90bd 7e5d e0bc e45a 223d
000002e0: 2296 7abc 5d92 333e 5dcb 3d3b a503 c93d
000002f0: b721 aa3c 066a cbbb 7c22 e03d 5275 42be
00000300: 7ae7 a43a 2d1c 02be 39aa b3bd cf14 b4bd
00000310: 366b 0c3d 59f6 ac3d cd23 993d 1c7e 83bd
00000320: 440b 4fbe 3aaa aa3c 92a4 9e3d b759 bd3d
00000330: db2f 573d 5226 513d a029 e33b 545f bb3d
00000340: 0a0a a3bd 2cd0 82bd 7006 b43c 1772 02bc
00000350: 5d08 783d 87c9 9d3d 6113 91ba 8edc 3ebd
00000360: c037 c4bd 884f 8b3d 341f 3abd a3e0 81bc
00000370: bc2e 47bd ba85 5e3d 37b3 84bd 90db 32bb
00000380: 9f34 8bbb 574a 7f3d 9a06 e5bd 7c3d e7bd
00000390: 459c 76bd ad7d fbbc 7581 1e3e b85c 043e
000003a0: ddbd 5ebd b5c3 b1bd 9986 25bd fe5b 8a3d
000003b0: 64dc 343d 8fd1 afbc 5cbd 173d 3523 dbbc
000003c0: 7a2b 3a3d 626f 49bd de54 1ebd 06a8 1f3d
000003d0: 8e02 b93d 6c79 383e f011 8fbc 8a1b f1bd
000003e0: f32b d13c b1dd 8e3c b751 c6bc f2af ce3d
000003f0: ccee 9a3d 0eb7 423c baf2 58bd b20c ecbd

weight f4 [128]
0.9726781 1.1032683 1.0916647 1.035012 1.1712918 1.1452984 1.0915909 1.0239279
1.0381521 0.85396475 1.1045207 1.0866066 1.2504096 1.1903067 1.034592 1.1277182
1.2635595 0.9654605 1.0780897 1.0178812 1.0051706 0.9030135 0.8949214 0.96806073
1.1931453 1.102026 0.9998311 1.1963291 0.9701714 1.1539137 0.9920882 1.1382799
1.2198787 1.0854969 1.0485194 0.9884599 1.0904034 1.1225313 0.9812607 1.0472718
0.9383747 0.986348 0.9981974 0.979741 1.2143035 0.952423 1.1444916 0.8392752
1.0273278 1.1494129 1.2261362 0.9829318 1.1085352 1.1569601 1.0189551 1.2266762
1.0119302 1.1155361 1.0498439 1.0898998 0.97428566 1.0024219 1.12147 0.9505598
1.1912602 0.9470107 0.9792262 1.0327426 0.9211447 1.2486029 1.0965447 0.9245364
1.140737 1.0449135 1.0579823 1.1407323 0.9851257 1.0655721 0.8783575 1.0193831
1.049103 0.97816485 0.96311545 0.9897728 1.157533 1.045801 1.090182 1.3526284
0.8450765 1.0528537 0.94657326 0.9636907 0.91682965 1.2152259 1.0862756 1.0650089
1.0009933 0.91078675 1.1050894 0.97445166 1.0341514 0.9097943 1.0618638 1.2793703
1.2324965 1.0357214 1.1201929 1.1142501 1.0016056 0.8372381 0.88156587 1.021431
1.172833 1.0737845 1.0068027 1.1488597 1.0986258 1.2092589 1.1151443 1.0816877
1.0666578 0.80568504 0.9699676 1.046068 1.3055915 1.1264192 1.0961932 1.070655
00000000: 6f01 793f e537 8d3f abbb 8b3f 467b 843f
00000010: e4ec 953f 2399 923f 40b9 8b3f 1210 833f
00000020: 2be2 843f 6f9d 5a3f ef60 8d3f ed15 8b3f
00000030: 6c0d a03f f85b 983f 836d 843f 1259 903f
00000040: 51bc a13f 6b28 773f d8fe 893f ee49 823f
00000050: 6ea9 803f e52b 673f 9219 653f d4d2 773f
00000060: fcb8 983f 300f 8d3f eef4 7f3f 5021 993f
00000070: 275d 783f 72b3 933f 7ef9 7d3f 28b3 913f
00000080: fc24 9c3f 90f1 8a3f e235 863f b50b 7d3f
00000090: 5792 8b3f 1baf 8f3f e733 7b3f 010d 863f
000000a0: 5339 703f 4d81 7c3f dd89 7f3f 4ed0 7a3f
000000b0: 4c6e 9b3f fed1 733f b37e 923f bdda 563f
000000c0: 7a7f 833f f61f 933f 08f2 9c3f 6ba1 7b3f
000000d0: 7be4 8d3f 4517 943f 1f6d 823f ba03 9d3f
000000e0: ee86 813f e3c9 8e3f 4961 863f d681 8b3f
000000f0: c96a 793f 5c4f 803f 548c 8f3f e357 733f
00000100: 377b 983f 4b6f 723f 91ae 7a3f e930 843f
00000110: 24d0 6b3f 38d2 9f3f 945b 8c3f 6bae 6c3f
00000120: ac03 923f babf 853f f76b 873f 8403 923f
00000130: 3331 7c3f ab64 883f 0adc 603f 257b 823f
00000140: 0249 863f 0369 7a3f bc8e 763f c061 7d3f
00000150: 0b2a 943f cfdc 853f 158b 8b3f ed22 ad3f
00000160: ef56 583f e9c3 863f a052 723f 6fb4 763f
00000170: 59b5 6a3f 868c 9b3f 140b 8b3f 3652 883f
00000180: 8c20 803f 5229 693f 9273 8d3f aa75 793f
00000190: 135f 843f 47e8 683f 27eb 873f 68c2 a33f
000001a0: 72c2 9d3f 8592 843f 7b62 8f3f bf9f 8e3f
000001b0: 9d34 803f 3c55 563f 4dae 613f 40be 823f
000001c0: 641f 963f c571 893f e9de 803f d60d 933f
000001d0: c59f 8c3f ffc8 9a3f 0cbd 8e3f be74 8a3f
000001e0: 3e88 883f 6041 4e3f cc4f 783f 8ee5 853f
000001f0: 9f1d a73f 812e 903f 0f50 8c3f 390b 893f

bias f4 [128]
-0.20951404 0.0039185514 0.043126382 -0.15061352 -0.17906462 0.042101234 -0.120351374 0.08131207
-0.15255804 -0.15521091 0.10981447 -0.089548185 -0.111685805 -0.043220088 -0.04730859 0.12980776
0.11398946 -0.12418431 0.18667215 0.07319999 0.015206973 0.006289759 -0.10569351 0.18895054
0.19344848 0.06023706 0.039178304 -0.069054656 -0.10101087 -0.15942848 -0.07087232 0.15041365
0.08811202 0.06484932 0.027368672 0.066099584 0.06551591 -0.06772331 0.07111115 0.15774906
-0.10080095 0.11150691 -0.12506346 -0.068491526 -0.09352362 -0.16023365 0.040483102 0.06736483
-0.046392243 0.056761816 -0.006891185 -0.04727658 -0.14832017 0.062023297 -0.07219964 -0.07792876
-0.11582823 -0.12829432 -0.06239496 0.10289525 -0.025649717 -0.14143553 -0.07315975 -0.116115496
-0.13253075 0.086871296 0.09209075 -0.03745413 0.017433364 -0.1106052 0.09091972 0.14049298
0.03854685 -0.13102719 0.111988686 -0.09773244 0.046311706 0.07205238 0.059244815 0.049297772
0.018262416 -0.13085483 0.11215465 -0.03667493 -0.041810665 0.10840958 -0.10596876 -0.028372342
-0.03363555 -0.062306996 0.01420472 0.0394708 0.010083553 0.09135612 -0.12701395 -0.09049394
0.020130215 -0.03562737 -0.0053736856 -0.011873112 0.09460321 0.07546185 -0.12523493 0.09934605
0.045628764 0.2524781 -0.19981764 0.08541766 -0.063172 -0.079338364 0.0153609235 -0.08585193
-0.09989321 -0.105995245 -0.004643906 0.0466823 -0.0061597503 -0.044077653 -0.074680686 -0.034728315
0.060332675 0.09525499 0.030617923 0.030435242 0.029216498 0.08097197 -0.18161464 -0.085821144
00000000: d98a 56be 3167 803b 4aa5 303d 6e3a 1abe
00000010: b75c 37be 5872 2c3d c87a f6bd f186 a63d
00000020: 2d38 1cbe 9cef 1ebe 69e6 e03d 0a65 b7bd
00000030: 87bb e4bd 8c07 31bd a7c6 41bd 53ec 043e
00000040: 4e73 e93d 5854 febd fc26 3f3e e0e9 953d
00000050: ab26 793c 531a ce3b d775 d8bd 407c 413e
00000060: 5c17 463e 23bb 763d 6e79 203d 876c 8dbd
00000070: c9de cebd 3841 23be 8225 91bd 0906 1a3e
00000080: 1374 b43d b8cf 843d 4434 e03c 385f 873d
00000090: 352d 863d 85b2 8abd b9a2 913d f888 213e
000000a0: ba70 cebd bc5d e43d a310 00be 4945 8cbd
000000b0: 5089 bfbd 4a14 24be 9cd1 253d 92f6 893d
000000c0: cb05 3ebd 147f 683d 73cf e1bb 16a5 41bd
000000d0: 3ee1 17be 240c 7e3d 68dd 93bd 1d99 9fbd
000000e0: 5a37 edbd 965f 03be dc91 7fbd bfba d23d
000000f0: 5b1f d2bc 7ad4 10be c7d4 95bd f6cd edbd
00000100: 24b6 07be 94e9 b13d 139a bc3d 8069 19bd
00000110: 6ad0 8e3c fb84 e2bd 1e34 ba3d 64dd 0f3e
00000120: 4de3 1d3d fe2b 06be 535a e53d f227 c8bd
00000130: 58b1 3d3d 3390 933d b1aa 723d 76ec 493d
00000140: 109b 953c cffe 05be 56b1 e53d 7438 16bd
00000150: a941 2bbd d805 de3d 2606 d9bd 1d6d e8bc
00000160: 6ec5 09bd 9f35 7fbd eaba 683c 22ac 213d
00000170: 7d35 253c eb18 bb3d f20f 02be e354 b9bd
00000180: 1fe8 a43c 01ee 11bd be15 b0bb 7187 42bc
00000190: 54bf c13d be8b 9a3d 963d 00be f175 cb3d
000001a0: 3ae5 3a3d cf44 813e ff9c 4cbe 74ef ae3d
000001b0: 5260 81bd 277c a2bd 62ac 7b3c 23d3 afbd
000001c0: d094 ccbd 0914 d9bd e82b 98bb f035 3f3d
000001d0: bbd7 c9bb c58a 34bd 30f2 98bd 473f 0ebd
000001e0: 651f 773d 0c15 c33d 70d2 fa3c 5453 f93c
000001f0: 7057 ef3c a2d4 a53d 30f9 39be ffc2 afbd
