models/FreeSolv_Model_v2.0.pth (torch, 950816 bytes, 22 tensors)

bias f4 [128]
00000000: b640 bb3c 1075 aebd 95ed 683c 5241 c03d
00000010: 4228 42bd b6ff 6a3d 439d 17bd 3306 003d
00000020: 879f 17bd 51bb 2c3d e7de df3d aef7 bb3d
00000030: 2ba3 a0bd 1101 d13d 7c00 1e3c e1ab efbd
00000040: eb82 7bbd 871c 5c3d 764f 873d 32bc ca3d
00000050: 23b2 17bd b8c6 123d e59d cebd 434b 913d
00000060: 2c38 25bd a733 a83d 9361 e0bd ac82 c3bc
00000070: c06a 7d3a 24b7 ffbd b5d8 40bd 35c3 d0bd
00000080: bb88 64bd aaa1 cd3d 94f5 09be e69f 33bd
00000090: b451 4f3d e661 e8bd 7be4 6dbd ff2a 9bbd
000000a0: 2c16 d13d 5157 a9bd 8e07 19bd 0f03 ba3b
000000b0: 6fdd 7abd eaaa ac3c 67b7 5cbd f01c da3d
000000c0: 83a1 b33c 1ece 8ebc 4939 02be 668d bcbc
000000d0: 65e7 03be fcf7 673c e421 3bbc cc01 1bbd
000000e0: 78c3 88bc 95d5 91bd 3b14 99bd 7b00 82bd
000000f0: 861c 063c 3433 7d3d a105 4a3c 4a77 3e3d
00000100: 5b6e b4bd 3d0e 05bd 2412 6e3d aa45 0a3e
00000110: 032a bbbd 1353 68bb ae44 7dbd ecf5 4a3d
00000120: 82cf e8bd 54a9 283d 915d aa3c c584 cd3d
00000130: 41d8 09be a32f 743d 963e 20be b129 1fbd
00000140: d521 83bd dcc1 9b3c 416e aabd 7d67 ee3c
00000150: b094 f1bd 0de1 083e 2850 55bc 16b8 5d3d
00000160: 7851 8cbd f54a 1c3d ca4a 083e 553d bebd
00000170: 7e81 bfbd 64c7 003e 4781 c93b e265 9f3d
00000180: 288c f43d 62cd 9a3d 6201 733d 38b1 d43c
00000190: 52a6 a0bd ce70 24bc 28f2 913c e331 c13d
000001a0: d2c3 cf3d 5e67 d33c 9cc4 563e 0e20 6fbb
000001b0: 9d68 913d 952e 1dbd 01a9 f9bc 00e7 053e
000001c0: 05f6 c83d 228e 9d3d e652 003e ef61 e5bc
000001d0: b6b3 b53d ca2d d03d 85d2 a5bc 6ef2 4c3d
000001e0: 11e7 643d f2df c33c ae0e db3d 6792 5d3d
000001f0: 6b6e 003d 02c3 66bd 49af 183c 5206 d23d
0.022858005 -0.08518422 0.0142168 0.09387459 -0.047401674 0.05737277 -0.03701521 0.031255912
-0.03701737 0.042170826 0.10931187 0.091781005 -0.07843622 0.102052815 0.00964367 -0.11702705
-0.06140415 0.053738143 0.06606953 0.09899177 -0.03703512 0.035834044 -0.1008871 0.07094433
-0.040336773 0.08212977 -0.10956111 -0.02386602 0.0009667091 -0.12486103 -0.047081668 -0.10193483
-0.05579446 0.100406006 -0.13472587 -0.043853663 0.050615028 -0.11346798 -0.058079224 -0.0757656
0.10209307 -0.082686074 -0.03736072 0.005676634 -0.06124633 0.021077592 -0.053885844 0.10650051
0.0219276 -0.017432269 -0.12717165 -0.023016643 -0.12881239 0.014158245 -0.011421654 -0.03784351
-0.01669477 -0.07120816 -0.07474562 -0.06347748 0.008185511 0.06181641 0.012330444 0.04650048
-0.08810111 -0.03248428 0.05812277 0.13503137 -0.091388725 -0.0035449907 -0.061833076 0.049550936
-0.11367704 0.04117711 0.020796569 0.100350894 -0.134614 0.059615742 -0.15648875 -0.03885812
-0.06402937 0.019013338 -0.083218105 0.029102081 -0.11795938 0.133671 -0.013019599 0.054130636
-0.068514764 0.038157422 0.1330978 -0.09289042 -0.093508705 0.12576061 0.0061494443 0.077831045
0.11940795 0.07558705 0.05932749 0.02596341 -0.07844223 -0.01003666 0.017815664 0.09433343
0.10144772 0.025806125 0.20973438 -0.0036487612 0.071000315 -0.038374502 -0.030476095 0.13076401
0.098125495 0.07693125 0.12531623 -0.0280008 0.08872168 0.101649836 -0.020241985 0.050035886
0.055884425 0.023910496 0.10696159 0.0540947 0.031355303 -0.056338318 0.009319135 0.10255112

weight f4 [128, 9]
00000000: 6a75 60be 5e1b a43e 8181 adbd cb6b 653e
00000010: d039 203d 2d00 273e 916d cc3d 63ee 8f3d
00000020: e192 3a3e 024d 1e3e 1a42 883e 9ddd 333e
00000030: ddff 92be e586 8cbd 0030 35bb 20a9 733c
00000040: ec02 9abc cf0a 9abd 1fd7 80bd adee bc3e
00000050: 2fae e5bc 4f08 7e3e 6388 243e 8af6 a43d
00000060: 3f48 89be 6ed9 bcbd e003 1a3e f2b9 ffbc
00000070: c1ec 82be 634f 0c3d a413 15be e013 edbc
00000080: 50b6 10bc cb40 133e 85b5 bebd dca3 23be
00000090: ee78 023e b110 c5bd f88d 013e ad92 d5bd
000000a0: 4729 1fbe 3685 b0bd 6441 853d 9b73 16be
000000b0: 1013 8b3e c16e d6bd c1a7 173e e1f6 013d
000000c0: dc55 3cbd 9d61 053d 4229 8e3d 1fc8 263e
000000d0: f086 a4bb 5b9b 723d 777a 88bd 5961 4b3e
000000e0: e580 803e 268d fd3a 0e2a 173e 779f 27be
000000f0: 8988 6ebd 5b8c c93d f52c 193e c98a 603e
00000100: d7e2 b5bd 9907 46bd c012 52be 1277 8cbc
00000110: e66b 3abe f3a0 53bd 49e0 2e3e ae4d 45bd
00000120: 00df 893e 92e0 d0bc f315 f63d 30a4 52be
00000130: 5098 9bbe 769d 4abe e4e8 d0bd b1d4 56be
00000140: 4990 0ebe 0961 67bd b123 233e b0c6 23be
00000150: 873a 383e ce68 bc3d 51b3 03be c979 9abd
00000160: 0108 7e3e 8fda d1bc a3cd bfbb c666 953e
00000170: 7c4b 4dbd 38ab e13b ae62 923c 5517 cebd
00000180: 7834 35bc 29a1 29be 32f0 283e e39a fdbd
00000190: 6671 0ebe afdb 753e b6bc a13c 4f49 9bbd
000001a0: 1c30 88bd 68cd 0bbd e9c5 713e e9b8 06be
000001b0: 2648 883c 0bb5 353e cf14 30be 0975 7f3d
000001c0: bd99 dcbc a055 7fbc 7bbb af3d 238f 853e
000001d0: 9f70 2f3e 1507 a03c 4438 f3bd 9c89 3b3d
000001e0: 5fdd d83c 2ed4 2a3e 348b d8bd e739 4ebe
000001f0: 335f a2bd 3628 4abe 2f73 6abd 706e 823d
00000200: 1b77 a8bd 2a6e b83d 328f 6dbe bc54 37bd
00000210: c124 083e b489 eabd bdfe 19bd 0dec ff3d
00000220: 5a88 103f ae8e 3a3d 4bcd 66bd 0dcd 9ebe
00000230: 00ce 823c b087 033e 22cc ba3e 37b2 1b3e
00000240: 7d32 8c3d 7346 97be acd7 393d 00c4 7d3d
00000250: 4e58 4b3d 4a8f 02be e6e2 79be 180a 703e
00000260: a7c4 103e 7e75 ccbd 0246 a13e 382f 2bbe
00000270: 6a5d 2e3e 0f9a 1bbe a03b f2bb 53e3 05bd
00000280: d0c3 c93d 2a90 463e 3e62 873d 5e5d b2be
00000290: 8b1a 7c3d e8e9 20bd 36ef 463c 05f4 4c3e
000002a0: 0e63 1fbe 5073 373c ab3f cebd 6f32 29be
000002b0: 2cde 7fbe be63 4b3e 6c1f 8bbd 6a6a 2e3e
000002c0: 0025 69bb aae9 873d ff83 60bd 7705 9abe
000002d0: bd86 9a3d 0c74 f4bd 5869 0ebe beaf ee3c
000002e0: b4bc 81be b0ca 09bd 0be9 e13d f564 62be
000002f0: dd65 46bc 5809 a53d f968 1ebd badf b2bb
00000300: 3eca 213d 542c 453e f0a5 033d be79 85be
00000310: dbad 64be da9e fdbc ce6e 23bd bb6c 64bd
00000320: 8123 183e 6dd6 60bc 5c80 e5bd 7a29 1cbe
00000330: be8f f43c 9426 27be 02f8 8b3d 138a 93bd
00000340: eaa3 e13d 76ba 5bbd ce7a e33d eda1 9fbd
00000350: 9945 c2bd 67ae 42bb 262f 1b3e 8c7e 47bd
00000360: c394 07be f25c 77bd d5f3 603c e71c 9b3d
00000370: 10ef 56ba 1798 453e 2641 113e 5246 9a3d
00000380: 5887 083e 41db 0dbd 0a01 cabd de89 0f3e
00000390: cf2a 96bd 89fb 263d a0bf 5ebd 200d 3abc
000003a0: 8d5c 32bd c22f eabd 24cc d4bd b7d9 5dbd
000003b0: 664d 4e3e a50b bb3d d886 5d3e cdcd ddbd
000003c0: 5e87 ab3d 5f42 823b 1207 973c 0f3e 21bd
000003d0: 8d59 b63e 5f69 443e a818 27bd 5c19 393e
000003e0: 95cc 0b3e cdcc 48bd 4890 a03d df5a 25be
000003f0: 517a 7fbd 608a 0b3e f244 df3d 644e 6d3e
-0.2191979 0.3205213 -0.084719665 0.22404401 0.039117634 0.16308661 0.09981836 0.070278905
0.18220092 0.15459064 0.2661293 0.17565008 -0.28710833 -0.068616666 -0.0027647018 0.0148718655
-0.018800221 -0.07521593 -0.06291031 0.36900845 -0.028037159 0.24807857 0.16067652 0.08054836
-0.26812932 -0.09221159 0.1504054 -0.031216595 -0.25571254 0.034255397 -0.14558274 -0.028940141
-0.008832529 0.14380185 -0.09311966 -0.15980476 0.12741444 -0.09622324 0.12651813 -0.10428367
-0.1554309 -0.08619158 0.06506613 -0.14692537 0.2716298 -0.104703434 0.14810087 0.031729583
-0.04598032 0.032563794 0.06941463 0.16287278 -0.0050209686 0.05923019 -0.06663983 0.19861354
0.2509834 0.0019344434 0.14762136 -0.16369425 -0.05823568 0.09841224 0.14958556 0.21927942
-0.08881157 -0.04834709 -0.20514965 -0.01714662 -0.18205222 -0.051667165 0.17077745 -0.048169784
0.26927948 -0.025497708 0.12015905 -0.20570445 -0.30389643 -0.19786629 -0.1020067 -0.20979573
-0.13922228 -0.056489024 0.15931584 -0.15993762 0.17991076 0.091996774 -0.12861373 -0.0754276
0.24807741 -0.025616912 -0.005853371 0.29179972 -0.050120816 0.006886866 0.01786932 -0.10063044
-0.011059873 -0.16565384 0.16497877 -0.12383058 -0.13910446 0.24009584 0.019743305 -0.07582342
-0.06649801 -0.034131438 0.23610653 -0.13156475 0.016635966 0.17744844 -0.17195438 0.062367473
-0.026928777 -0.015584379 0.08580681 0.26085767 0.17132805 0.019534627 -0.11875966 0.04578553
0.026472745 0.16682503 -0.10573426 -0.20139275 -0.07928314 -0.19741902 -0.057238754 0.063687205
-0.082258426 0.09005387 -0.23199156 -0.044758543 0.1329527 -0.11452046 -0.037596453 0.12496195
0.56458056 0.045546226 -0.056348126 -0.31015816 0.01596737 0.1284473 0.36483866 0.15204702
0.068455674 -0.29545936 0.045371696 0.0619545 0.04964476 -0.12749973 -0.24402961 0.2344135
0.14137517 -0.09983347 0.31498724 -0.16717231 0.17027822 -0.15195487 -0.0073923618 -0.032687496
0.098518014 0.19390932 0.06610535 -0.3483686 0.06154875 -0.03928557 0.012141993 0.20014961
-0.1556513 0.011196926 -0.100707375 -0.16523145 -0.24987096 0.19862267 -0.067931026 0.17032781
-0.0035575032 0.06636365 -0.05481338 -0.30082294 0.075452305 -0.11936197 -0.13907373 0.029136535
-0.25339282 -0.033640563 0.110307775 -0.22108825 -0.012109247 0.08058423 -0.03867433 -0.005458799
0.039499514 0.19255191 0.032140672 -0.26069444 -0.22331946 -0.030959535 -0.039900593 -0.055767756
0.14857294 -0.013722998 -0.11206123 -0.15250197 0.029853698 -0.1632331 0.06834413 -0.0720407
0.11017592 -0.05364462 0.111074075 -0.07794557 -0.09485931 -0.0029706003 0.15154704 -0.04870467
-0.13240342 -0.060391374 0.013730009 0.07573872 -0.0008199075 0.19296299 0.14185008 0.07532944
0.1333288 -0.034632925 -0.098634794 0.14017436 -0.07332384 0.040767226 -0.054381967 -0.011355668
-0.043545295 -0.1143489 -0.10390499 -0.054162707 0.20146713 0.091330804 0.2163347 -0.10830269
0.083754286 0.003975197 0.018435989 -0.039365824 0.35615197 0.19180821 -0.040795 0.1807608
0.1365226 -0.04902344 0.078400195 -0.16147946 -0.06237251 0.13627005 0.10901822 0.23174435

att f4 [1, 4, 128]
00000000: c098 b0be e9ad e2bd 6ca1 70be 798a 443e
00000010: 9248 8f3e 8602 babd 10f5 3a3d 6f40 f0bc
00000020: fb5c 3f3e 8b17 2f3e 2668 b1bd 10e8 723e
00000030: 73d4 d53d 4ef3 bb3d 9b0c 6fbc 0293 96be
00000040: 86b4 0c3e 95dc d83d 34b5 8b3d 6b68 d73d
00000050: 3319 cabb 5030 d73d 5549 673e 1b08 08be
00000060: f8b2 153d d392 85be 9879 c3be eb5b 8bbd
00000070: e7f0 aabd bad1 0a3e b3a2 44be 331c 933d
00000080: aa7f 4abe 2866 783e 3a69 883d 3e50 673e
00000090: 7915 fcbd 2407 0e3e 9749 be3d 6f6c 433e
000000a0: 13bb e33d dd46 1d3b 471c 133e cc0f 6d3e
000000b0: bfe9 fbbd 169b bf3e 8aaa 11be d149 88be
000000c0: 0584 c13d 3eea 713e d514 ab3e 3544 653d
000000d0: e7a7 ba3d 6c58 0f3e d3d6 a93e a062 2abe
000000e0: c865 fb3d 1c19 27bd 2e87 483e f698 c6bd
000000f0: e803 d03c b8c2 103e 4064 43be 5457 43be
00000100: 4254 83be c434 3abe 4e82 6ebe 11ca a5be
00000110: 6d10 8f3d 5038 943e ff50 3dbe c723 1f3e
00000120: d72f 79be ab3e 0abe c67c 94be 9f02 0dbe
00000130: ea2c 72be 3fb3 25be 53ac fd3d 5c7a 6dbd
00000140: 1ad8 3ebe 448b d9bc 8405 0b3e 61c9 6dbe
00000150: 0564 d93d 4f79 353e aacb 7dbe e5e0 e8bd
00000160: 61f0 c83e a839 e13e 52fb c63e 2174 163e
00000170: 2f1a c8bd 1354 c73e bafd 1fbe d923 503d
00000180: f32d 1e3e 8606 39be c424 ea3d 6296 5a3e
00000190: 5f49 3b3e d747 853e d99e 883e 1b00 363e
000001a0: 8d61 09be 9648 70be 8f57 5cbe eb53 1e3e
000001b0: 9877 553e d47e 573c 0441 ae3d d112 963d
000001c0: 4145 803d 8450 9abd 853f ac3d 4bb6 43be
000001d0: 40ad 15be b0c5 8cbe 6c3b 87be f689 73be
000001e0: cf87 86bd 2c09 20be ff56 10bd 8cd8 2a3d
000001f0: fa5e c4be 02a3 70bd 74af cc3d d762 33bd
00000200: d122 6bbe 1072 1d3e 9b8f 823e 40c9 133c
00000210: 2c41 1ebe 8a2c 8ebe 84a3 82bd 5b0f 24be
00000220: 5b54 5e3e cca4 063e 6aaf 53bd b93a a93d
00000230: 98f0 9f3d 0ad4 7b3e 56a8 07be 23bf 26be
00000240: ad93 6cbe b054 0fbe 4f1b 3d3d 7328 11be
00000250: 34e6 d43e ed18 c43d 1b77 82be f82e 1b3e
00000260: 006e 253e 5d2c 903e 630e 0abe 5f59 61be
00000270: 8b9d a7bd 42e9 4cbd 9319 053f 0f6b b43d
00000280: 3251 373e 9224 d8bc b14b c8bd 2e0e aabe
00000290: 6ad1 70be 26e5 173e aa0c 55be f15b dcbd
000002a0: fd88 91bd e14c d3bc 886e 07be 1167 26bd
000002b0: e851 093e eba3 553e 426a 3bbd 0a67 e6bd
000002c0: 8207 513e 07cf a73e 79f0 f1bd 5dd1 de3e
000002d0: db8f 34bd 2cb3 5fbe 3842 0dbd 2e25 84be
000002e0: 8891 8fbe e066 25be 2f04 cd3e d153 173e
000002f0: 545b dfbd f4ce 52bd 3fe6 b4bd a8fb 063e
00000300: d70b 81be ec05 823e fbf0 ad3e 40bb 55be
00000310: 29dc 67bd ee4b fabd 64d2 81be c499 b6bd
00000320: f29c 163e f385 913e 5c2f 893e b214 c3bd
00000330: 1500 7c3e dca4 c0bd c860 b63e ab85 68be
00000340: 8fb0 c33d d11d 2b3e 999a 94be 6fb3 183e
00000350: 9c23 713d ef52 77be 3bb8 cbbd d4a5 2bbe
00000360: d8a9 55be 0216 44be 32a1 043e 5b03 e2bd
00000370: 785d 333e 33ae a93e d5ef c2bd 9b59 aebe
00000380: d886 333e d57e 84be 47b0 bebd d0bd efbd
00000390: 8ecc 16be 286b 0ebe 3c68 67be 848b 48bd
000003a0: 3a18 943d 8eef 89bd 0c2b 1b3e 10e5 02be
000003b0: 16e4 1c3d a0d0 663d 259e 4dbe 41d5 37be
000003c0: ae98 84be 59de 9c3e 479a 30be 4639 76be
000003d0: b719 293e 4863 d4bd 14ec 903d de3c ad3d
000003e0: c773 27be d256 83bd fab5 0f3e def8 6b3e
000003f0: a896 2cbe 0e31 56be 592f f2bd 192b 7bbe
-0.3449154 -0.11068327 -0.23499078 0.19193448 0.27985054 -0.090825126 0.045643866 -0.0293276
0.18687813 0.17098825 -0.08662443 0.23721337 0.10440912 0.09177266 -0.014590408 -0.29409033
0.13740739 0.10588948 0.06821671 0.10517963 -0.0061675548 0.10507262 0.22586568 -0.13284342
0.03654763 -0.2608858 -0.38178706 -0.06804641 -0.0834673 0.13556567 -0.1920269 0.07183113
-0.19775262 0.2425772 0.066606954 0.22589204 -0.12308783 0.13869911 0.0929138 0.19084333
0.11119666 0.0023998537 0.14366256 0.23150557 -0.12300443 0.3742301 -0.14225212 -0.26618817
0.09449009 0.23624513 0.3341433 0.05597325 0.09114056 0.13998574 0.3317171 -0.16639185
0.122752726 -0.04079543 0.19582817 -0.09697144 0.025392488 0.1413678 -0.19081211 -0.19076282
-0.2565022 -0.18184191 -0.23291895 -0.32380727 0.06985555 0.28949213 -0.18487929 0.15540992
-0.24334656 -0.13500468 -0.29001445 -0.13770531 -0.23649946 -0.16181658 0.12386384 -0.05797802
-0.18637124 -0.026555665 0.13576323 -0.23221351 0.1061478 0.17722057 -0.24784723 -0.1137102
0.39245895 0.439893 0.38863617 0.14692737 -0.09770619 0.3893133 -0.15624133 0.050815437
0.15447216 -0.18068895 0.11432794 0.21346429 0.18289708 0.26031372 0.2668369 0.17773478
-0.13416119 -0.2346519 -0.21517776 0.154617 0.20846403 0.013152797 0.085084945 0.07327808
0.06263209 -0.075348884 0.08410553 -0.19112508 -0.14616871 -0.27494574 -0.26412523 -0.23783097
-0.06568872 -0.15628499 -0.035239216 0.04171042 -0.3835371 -0.058749206 0.099944025 -0.043795433
-0.229625 0.15375543 0.25500187 0.00902015 -0.15454549 -0.27768356 -0.063788444 -0.16021483
0.21711867 0.13148803 -0.05168096 0.082631536 0.078095615 0.24592605 -0.13247809 -0.1628385
-0.23103209 -0.1399715 0.04616862 -0.14175586 0.4158188 0.09575067 -0.25481495 0.15154636
0.16155243 0.28158846 -0.1348205 -0.22006749 -0.08184346 -0.05002714 0.5199215 0.08809482
0.17902067 -0.026384626 -0.09780062 -0.33213943 -0.23517385 0.14833507 -0.20805612 -0.10759724
-0.071062066 -0.025793495 -0.13225758 -0.040625636 0.13410151 0.20863311 -0.045755632 -0.11250122
0.2041302 0.32775137 -0.11813445 0.43519107 -0.044082504 -0.21845692 -0.03448698 -0.25809616
-0.2804072 -0.16152525 0.40042254 0.14778067 -0.10906091 -0.051466897 -0.088329785 0.13181937
-0.25204346 0.25395143 0.33972916 -0.20872211 -0.056606445 -0.12221514 -0.25355828 -0.08916047
0.14708307 0.28422508 0.26793945 -0.09525432 0.24609406 -0.094064444 0.35620713 -0.2270724
0.0955516 0.16710593 -0.290242 0.14912198 0.05887185 -0.2415273 -0.099472485 -0.16762477
-0.20865571 -0.1914902 0.12952116 -0.11035796 0.17516124 0.33140716 -0.095184006 -0.3405274
0.17531908 -0.25878015 -0.09310966 -0.11706126 -0.14726469 -0.13908064 -0.22598356 -0.048961177
0.07231183 -0.067351446 0.1515314 -0.12782693 0.038303457 0.056351304 -0.20079859 -0.17952444
-0.25897735 0.30638388 -0.17246352 -0.24045286 0.16513716 -0.10370499 0.07076278 0.08458875
-0.1635276 -0.06413044 0.14034262 0.23044154 -0.16854346 -0.2091715 -0.11825437 -0.24528159

bias f4 [128]
00000000: e367 58bd 5722 023d 4d32 913d 7670 20be
00000010: 47d3 853d e2e2 903d 4170 013e 224c 89bd
00000020: 4192 4abd 47e0 4d3d 6f99 2d3c 6638 5e3d
00000030: 6a03 e5bd 8039 0cbe 9108 ac3d 4ba4 65bd
00000040: 9853 7d3b 8739 e63d 83a6 263e a1b4 4dbd
00000050: 78e2 2e3e ed55 85bc 7383 a53d 3323 223e
00000060: a7f8 bc3d 7f5e c0ba 730f 20be e323 ccbb
00000070: 7f7f c83c 6d2e 323d 0b00 5bbe 7ef2 0d3e
00000080: dc4d 633d 0070 1cbd 9827 dbbd 3992 14be
00000090: 3745 c43b 0a09 fabc 8018 7b3b 586c 6fbd
000000a0: 4c31 aebc b1f7 1ebb 4463 7f3d 103c 133d
000000b0: 7124 f73d 36bf 033c b7b9 cf3d 874f ae3b
000000c0: 3a1d 653d f47c 95bd 8a35 003b c5fe 13bd
000000d0: 866e 373c facc 503e 84c4 f5bc f420 32bd
000000e0: 8041 d4bd ad43 7a3c d1a1 46bd 3cda 4d3d
000000f0: 1468 10be 7080 83bc 03a0 0d3e 8d3d 773d
00000100: f627 7b3e e35b 9b3b be06 9f3c a7de ff3b
00000110: 676c 9abd c7c3 48bc a0e7 44be f7cb 643c
00000120: 528b 0d3e b6d4 14bd 805e 7bbd c402 853d
00000130: c451 5bbe 4f09 6f3e bcf9 993d 503d af3d
00000140: 5162 8dbc 2d6f 7abd 55cd 1b3e 412a 90bd
00000150: 941e fb3d 2feb 433e 170b 613e 1c83 f9bc
00000160: eb59 0abc be87 12bd c59e eabc 728e 8fba
00000170: c7df 97bc 4503 84bd 7a1e 203d e8d5 b9bd
00000180: 25fb 22bd fc55 37bd 7d76 e0bc e95a b23c
00000190: a0a7 fa3c 7bd5 7abd c20d 90bd e1ed 283b
000001a0: 7c2b d4bd 9da5 283c 5ed8 f4bd 69c5 333c
000001b0: a96e e9bb b0ef 943d 7584 bfbc f8f2 b2bb
000001c0: 4b38 883d 6694 36be 5956 343d 7837 17bd
000001d0: 7fd4 963e 3da8 063e a71f db3d a50b ee3d
000001e0: 1285 e9ba 420b e3bb 2bd2 823b b204 32bd
000001f0: 23b6 fbbd ba55 fb3c 26df e7bd c889 033e
-0.05283345 0.03177103 0.07089672 -0.156679 0.065344386 0.070745245 0.12640478 -0.06703974
-0.049455885 0.050262716 0.010595663 0.054253004 -0.11182292 -0.1369381 0.084000714 -0.056064885
0.0038654562 0.11241441 0.16274457 -0.05022109 0.17078578 -0.016276324 0.080817126 0.1583374
0.09227114 -0.00146766 -0.15630893 -0.006229864 0.024474857 0.043501306 -0.21386735 0.13862035
0.055494174 -0.03819275 -0.10700911 -0.14508905 0.0059896964 -0.030521888 0.0038314164 -0.058452934
-0.021263741 -0.0024256522 0.062350526 0.035945952 0.120674975 0.008041194 0.10142844 0.005319539
0.055936076 -0.072992235 0.0019563162 -0.03613164 0.011195784 0.20390692 -0.030000933 -0.043488458
-0.10364056 0.015274924 -0.048494164 0.050256953 -0.14102203 -0.016052455 0.13830571 0.060361434
0.24526963 0.0047411784 0.019412395 0.0078085246 -0.07540207 -0.012253708 -0.19228983 0.013964645
0.13822678 -0.03633567 -0.06136942 0.06494668 -0.2141791 0.23343395 0.07518336 0.08556616
-0.017258795 -0.06114118 0.15215047 -0.07039309 0.12261692 0.19132684 0.21976887 -0.030458026
-0.00844429 -0.035773985 -0.02864016 -0.0010952486 -0.018539323 -0.06445936 0.039091565 -0.090740025
-0.03979029 -0.044759735 -0.02740025 0.021771865 0.030597508 -0.061238747 -0.07033874 0.0025776553
-0.103598565 0.0102933915 -0.11955331 0.010972359 -0.0071237874 0.07272279 -0.02337859 -0.005461093
0.06651362 -0.17830047 0.04402766 -0.036918133 0.29458997 0.13150115 0.106993966 0.11623315
-0.0017816147 -0.0069288323 0.003992339 -0.04346151 -0.12290599 0.030680526 -0.11321859 0.12845528

weight f4 [512, 128]
00000000: 9bef 493b c53e cbbb d8d7 3dbd 5e58 4e3d
00000010: de06 4d3d 5154 c8bc 6c86 bf3d d198 26bd
00000020: c431 ecbd a188 57bc 81d5 103d 0a4b efbc
00000030: d294 be3d e74f 03be e34f e0bd 26cb c83d
00000040: f76d 0b3d 9af7 80bd 0d5c 483c 7783 283d
00000050: ad08 00bd 24d6 3abd b949 b13c 3c4f 323d
00000060: 00e4 673d 74ad ccbb 810f b03d b744 4bbc
00000070: a3dc 213e 1cc4 09bd 0197 733c 5343 6c3d
00000080: fdac a9bd 394e 7b3d e206 67bc 00aa 0ebd
00000090: a77c d9bd e7cf 313c de97 853d 1073 3b3e
000000a0: 4e61 e7bd 5969 8b3c f0b3 923c 14f5 a33d
000000b0: 13dc c63b adce da3d 4730 75bd 818b 453c
000000c0: 5789 1f3d 377b 233c 8d0a 873d 2e34 723a
000000d0: 8d5e 8b3d 68d8 783c b0d0 4ebd 1c98 793d
000000e0: e091 a2bd 5848 cc3c cc52 09be e28d 6abd
000000f0: acaf c7bd 4966 a93c 1032 ffbc 2426 3f3d
00000100: 8126 c8bd 96ad 883d 0232 1a3d adb9 39be
00000110: f3b9 993d f857 9ebd f572 a6bd 73e3 bebd
00000120: 8d89 11bb b88e bd3d 7e3f 2bbd 189e 163d
00000130: cc1c 4b3d c852 c4bd 91b3 833c 3d45 d0bd
00000140: ca97 743d 2149 5e3d a87c 07bd ec32 1bbd
00000150: 0984 c43d bc2e e4bd 6740 96bd 186b 8d3d
00000160: 6503 583d e651 b03d f6f7 a83d 21b4 a7bd
00000170: 7e62 cf3d b20c 69bd 056e 0f3d b03b 64bd
00000180: 83cf b23a 47fc 24bd 179a 6bbd dbb2 6abd
00000190: 2553 083d 2e23 c83a 0791 2a3c e494 f43d
000001a0: 1426 e93b 82a9 b0bc 8723 9e3d b4ae aebc
000001b0: fe1d 2dbd d05c bfbc 3a6c f2bc 160e 03be
000001c0: 994d 1abe 95e2 cebc d476 ae3d 2efb b0bc
000001d0: 4586 cc3d 858f c4bd f689 373e 42ea 013d
000001e0: 1019 3e3d 6568 9dbd a9b0 693d 35d5 edbd
000001f0: f107 b1bd 69f0 4bbd ef0b 193d e919 35bd
00000200: 4a45 22be c484 6e3d b854 12bc 471d 6ebd
00000210: bb75 71bd 921a 87bc 1577 d23c b217 52bc
00000220: e915 043c 7e94 81bd edbc 59bd f6bc e8bd
00000230: 90d3 d73c bff1 4f3d 1a42 f5bd 9998 22bd
00000240: 4032 a9bd a700 6bbc ae8f d9bc cf0b a63c
00000250: ea2e e1bc 57a7 e73d d3b1 7b3d cb56 443d
00000260: 157e cdbc e4a3 b93c 79ce 503d ab3d 76bc
00000270: e539 f1bc e1bb 023d 735d e83b ae1f bc3d
00000280: 46c5 15be 1e96 c1bd 682e c0bc 9701 30bc
00000290: b8a9 e8bd 8ac9 863d a394 103d aae7 5b3d
000002a0: 02b3 c3bd 7f90 5e3c 285f 1cbd e870 373c
000002b0: 5197 0bbd f531 6a3e 7e52 be3c f4eb 3abd
000002c0: 828c e8bd 2c34 52bd e383 3a3d dc52 32be
000002d0: 88ee c73d ec45 d1bd 2ce2 dabd 1021 07be
000002e0: eab5 49bd a920 063d 45b0 053d c983 833d
000002f0: d7b3 d8bd abc5 6d3d 5b16 ddbd af43 03be
00000300: ea7c 79bd b03c 93bd acef c13d 9c1f 40bc
00000310: 5838 ddbb 9f28 7f3d 585d 593e 2725 213e
00000320: d6c5 923d 72f9 c3bc d43b b9bc b1cd 4f3d
00000330: f95c aabd 2c41 04bc dbe1 903d a149 163c
00000340: 6651 afbc da99 e03c 8119 863d 6841 67bd
00000350: b861 c1bd 3e17 33bd 18bf f73c c4bb 90bd
00000360: d700 e63d a779 df3c 0cd2 b1bc 4835 dd3a
00000370: 4bba 00bd 37cd 703d c34c c33d 923a 673d
00000380: f14a 17bd 6fba 2f3c e777 bcbd 720f e73d
00000390: 0169 823c f01f 08bd 7c69 113d d490 823c
000003a0: 70d1 953d ba7a b43c fcb4 af3d f39b cf3d
000003b0: 64f1 8cbd de13 0ebd b28c 6d3d 533d 3bbd
000003c0: d490 ab3d c215 bbbd 71ab dbbd dafe 82bc
000003d0: 9861 9bbd 5d38 67bc 4c32 be3d 04dc 513d
000003e0: d41b e13c 60cd 6abd 1811 97bd a9ae 123e
000003f0: c690 08be d88e a23a 4869 ea3d 3bdd a2bd
0.0030812982 -0.006202551 -0.046348423 0.050377242 0.050055377 -0.024454268 0.09351811 -0.04067308
-0.115329295 -0.013155133 0.035359863 -0.029210586 0.09305729 -0.12823449 -0.10952737 0.098043725
0.034040418 -0.06297226 0.012228978 0.041141 -0.031258274 -0.045614377 0.021641599 0.043532595
0.056613922 -0.006246263 0.08596707 -0.01240652 0.15806822 -0.03363429 0.014867545 0.057681393
-0.08284948 0.061353896 -0.014100762 -0.034830093 -0.10619479 0.01085279 0.06523107 0.18305612
-0.11297856 0.017018007 0.017908067 0.08005729 0.0060687154 0.106839515 -0.059860494 0.012057186
0.038949337 0.009978107 0.06593809 0.0009239343 0.068051435 0.015188314 -0.05049199 0.06093608
-0.0793798 0.02493684 -0.13410491 -0.057264216 -0.097503036 0.020678656 -0.031151801 0.046667233
-0.09772969 0.06673734 0.037645347 -0.18137236 0.0750617 -0.077316225 -0.08127395 -0.09320726
-0.002220723 0.09255737 -0.041808598 0.036771864 0.04958801 -0.09586102 0.016076835 -0.10169456
0.05971507 0.05426896 -0.033077866 -0.03789036 0.09595496 -0.111417264 -0.073365025 0.06905192
0.052737612 0.08609371 0.0825042 -0.08188654 0.10126208 -0.056896873 0.035017032 -0.055720985
0.0013642166 -0.040279653 -0.05752 -0.057299476 0.033282418 0.0015269273 0.010410554 0.11942461
0.007115135 -0.021565203 0.0772162 -0.02132354 -0.04226493 -0.023359686 -0.029592622 -0.12798342
-0.15068664 -0.025254527 0.085187584 -0.021604147 0.099865474 -0.09597687 0.17923722 0.031717546
0.04641062 -0.07685927 0.057053242 -0.11612932 -0.08644093 -0.04978982 0.037364896 -0.044214163
-0.15846744 0.058232084 -0.008931331 -0.05813339 -0.058950167 -0.016492162 0.025691548 -0.012823032
0.008061864 -0.06327151 -0.05315869 -0.113641664 0.026345998 0.050767656 -0.119754985 -0.03969631
-0.082615376 -0.014343417 -0.02655777 0.020269303 -0.02748819 0.113112144 0.061448883 0.047934335
-0.025084535 0.022661157 0.050978158 -0.015029351 -0.029446552 0.031917457 0.007091218 0.0918573
-0.14626035 -0.09452461 -0.023459628 -0.010742567 -0.11360496 0.06581409 0.035298 0.05368773
-0.095556274 0.013584255 -0.038176686 0.011196353 -0.034079853 0.2287062 0.023232695 -0.04563518
-0.11354925 -0.051319286 0.045535933 -0.17414421 0.09762293 -0.10218415 -0.1068767 -0.13196206
-0.049245752 0.03274599 0.032638807 0.064216204 -0.10581177 0.05804984 -0.107952796 -0.12818788
-0.060910143 -0.071893096 0.09469542 -0.011726286 -0.0067511015 0.0622946 0.21227014 0.15736829
0.071666405 -0.023922656 -0.022611536 0.050733272 -0.083185144 -0.008072179 0.070743285 0.009172828
-0.021401118 0.027417112 0.06547833 -0.05645886 -0.094424665 -0.043723337 0.030242488 -0.070670635
0.11230629 0.027279688 -0.021706603 0.0016876841 -0.031427663 0.058789458 0.095361255 0.05645234
-0.036936704 0.010725602 -0.09202557 0.11282243 0.01591921 -0.033233583 0.03550099 0.0159382
0.07315338 0.022031177 0.08579442 0.10137167 -0.06881979 -0.034686916 0.057995506 -0.04571278
0.08377233 -0.09135009 -0.10726059 -0.015990663 -0.07586974 -0.014112559 0.09286937 0.051235214
0.02747909 -0.057324767 -0.07376307 0.1432444 -0.13336477 0.001240219 0.11445862 -0.079523526

bias f4 [512]
00000000: abca c13c 5580 8e3c 971a 813d 1698 843d
00000010: 75c1 39bc a249 f8bc 3956 57bc 050b 5d3c
00000020: 91c8 083d 5472 e6bb b6b8 dbbc 5219 05bd
00000030: 5f95 003d 36eb 76bd e739 96bd 38d8 67bd
00000040: 3de8 b3bc 5eb6 04bd bb03 e23d 2595 1c3d
00000050: a9f1 38bd 5631 4c3d b08a 883d f16d 5c3d
00000060: a581 9d3c 187c 843d 7d25 91bd 36d9 873d
00000070: de1e 183d 8baa 33bd 4366 96bd d1b1 f53d
00000080: db3f 263d 34c4 f33d 28e2 6c3d 692e 4a3c
00000090: 6cd5 85bc 3ab9 1a3d 764e f03c 8254 f4bd
000000a0: 86d7 84bd 9d93 3dbd 54d2 6dbc e364 1a3d
000000b0: cb18 bbbc db4d 813d eed2 debc 7163 2abd
000000c0: 5380 5a3d 5eda e7bb 2e07 a23d eb7a 5dbd
000000d0: f825 55bd f15e 083e e410 123d 1b98 25bc
000000e0: 02dc 843d 9b4f 6f3c 7667 3e3d 7044 b23c
000000f0: 4a1b 813c d034 76bd 236d 383d e179 b93d
00000100: f1ec 633d 5cbb aebb bb8f 39bd c0ae 3abd
00000110: f60a 8fbd 5c47 5abd a2bd 83bd 2e05 9dbd
00000120: e3b8 f33c 1c0a 043c 223d 3c3d 676e a13d
00000130: bd37 31bc 9096 0fbd 8953 dc3c ccb1 1fbd
00000140: 56c4 02bd 72f0 88bd c2df 8e3d 0915 a93d
00000150: 8acf 32ba 3ad3 ea3d abc5 fa3d 20d1 533d
00000160: a71a d5bd 6dad dfbd 740d a7bd fd6a 923c
00000170: b191 59bc 1940 273d 8d19 debc 1f46 873d
00000180: 9f15 dfbc a567 ea3d ddd0 46bd 3e1e 25bd
00000190: 7045 9a3d 738f ad3d bb89 f3bc 42f4 f53d
000001a0: 7d15 57bb 1855 b5bd 2281 f1bc e34c a13c
000001b0: ab1a 52bd dbb8 d1bd 363b ccbd cd80 33bd
000001c0: bcf4 b23d c044 9cbd 486d 83bb 8f63 0d3b
000001d0: 9ba1 673d 5cf4 57bd e997 3dbd af0c 9c3d
000001e0: a919 7b3d 1a13 9a3d 579e a4bd 66af 77bd
000001f0: 8cb6 b0bd 50ee a83d bf1e b7bc 1668 f7bb
00000200: 4e7d fb3d ef9e eb3d f38a 2c3d d28e 26bd
00000210: bda2 573d 66c1 7fbd 5ce0 a5bc a627 83bc
00000220: 6843 07be 7987 1c3d f2e9 9f3d 9f0b ce37
00000230: 3791 283b 7e84 1b3d 5d85 a33d da38 30bd
00000240: 47e6 72bd b879 463d aab2 763c 523d 8f3d
00000250: 6afc 74bc b1f2 87bc 25c7 f1bc d9a4 52bd
00000260: 6682 96bb d32b ccbc 67fa 8a3c 57aa ed3c
00000270: b391 743d 3422 b03d 0017 16bc 2bba f73c
00000280: 514c cd3c a6d3 c73d 98f1 4c3d 08da ac3d
00000290: 5414 b53d d06c d03d 62e8 0b3d 90b9 60bc
000002a0: 53cd 133d 112f 96bd 957f 1bbd ec2c 933c
000002b0: 962a 3cbd 6806 af3d bbaa c63d 69ea 85bd
000002c0: 37a6 b33d 9177 8f3c ad46 bfbc 4e6c b2bd
000002d0: 7750 853d b20c 0f3e 9964 3abc 8b1d febc
000002e0: ccf9 363c 7b0f 1f3d 5744 e93c 395d c8bd
000002f0: f61e d4bc 6a95 d8bd 042f e6bc 1cb1 233d
00000300: 00bb 9abc bb07 883d 7a65 2ebd 0e3a 29bd
00000310: e5a1 f53c 524d febc d53a 62bd 2026 6ebd
00000320: ce8a e03d d905 44bd f4eb c7bd b67e 5a3c
00000330: 9c74 533d 84f2 66bd b34a adba ba5a 8e3b
00000340: 736f ea3c 28d4 653c 46ef 333d 3833 f53c
00000350: 3ada f03d b78d bb3d aca7 4b3d 1087 cc3d
00000360: 7161 eebc f260 b8bc 438d 50bd 3708 8fbd
00000370: 9983 f2bd e2cf f6bc 3ceb 2bbd bd75 0b3d
00000380: 5cfc 983b 7fc5 5f3d 04e1 c03b c56f 8bbc
00000390: 67ef 413d 16f7 6ebd e50e adbd 0e28 ec3d
000003a0: 07ee 92bd 005c fe3c 675d 7a3d 0d5f dd3c
000003b0: 0eed df3d 7f0f 2dbd 12cc 3abd d454 1fbc
000003c0: fe80 4c3c c540 9ebc a118 953c bb5b 21bd
000003d0: b115 0a3d 1981 253d add0 2cbc 0f8d 903d
000003e0: b43e a23c 54d6 2cbc b352 d2bc 4e8a dd3c
000003f0: bf10 fdbc 032e 11bd 8ea2 723d f709 713d
0.02365621 0.017395178 0.063039 0.064743206 -0.011337628 -0.030308548 -0.013143116 0.013491397
0.0333944 -0.007032672 -0.026821475 -0.03249485 0.03139245 -0.06028291 -0.07335263 -0.056602687
-0.021961326 -0.03240048 0.11035868 0.038228173 -0.04515234 0.049851738 0.066670775 0.053815786
0.019226858 0.064689815 -0.070872284 0.066332266 0.037138812 -0.043863814 -0.073437236 0.119968064
0.04058824 0.11902657 0.057832867 0.012340167 -0.016337119 0.037774302 0.029334288 -0.11930181
-0.0648642 -0.046283353 -0.014515478 0.03769387 -0.02283897 0.06313678 -0.027200188 -0.04159874
0.053345036 -0.007075592 0.07911526 -0.0540723 -0.052038163 0.13317467 0.03566064 -0.010107066
0.06487276 0.014606382 0.046485387 0.02176115 0.015760083 -0.06010896 0.045025956 0.0905645
0.055645887 -0.0053323936 -0.045303088 -0.04557681 -0.069845125 -0.05329071 -0.06432654 -0.076670036
0.029751247 0.008059051 0.04595674 0.07882386 -0.010816512 -0.035055697 0.026895301 -0.03898792
-0.03192552 -0.06686486 0.06976272 0.08255965 -0.0006821087 0.114660695 0.122447334 0.05171311
-0.10405474 -0.1092175 -0.08156863 0.017873282 -0.013279364 0.040832613 -0.027111793 0.066051714
-0.02723199 0.1144555 -0.04853903 -0.040312044 0.075327754 0.084746264 -0.029728761 0.12009479
-0.0032819204 -0.08854121 -0.02948052 0.019689983 -0.051294964 -0.102403365 -0.09972231 -0.043824006
0.08738086 -0.076303005 -0.00401083 0.0021574234 0.056550603 -0.052723274 -0.04628745 0.07619607
0.06130377 0.075231746 -0.080380134 -0.060470007 -0.08628568 0.082485795 -0.022353528 -0.00755025
0.12279759 0.115049236 0.0421247 -0.040663548 0.052645434 -0.0624403 -0.020248584 -0.016010117
-0.13209307 0.038215134 0.078082934 2.4562525e-05 0.002572132 0.03796815 0.079844214 -0.043022968
-0.05930164 0.048455924 0.015057245 0.06994118 -0.014952758 -0.016595216 -0.029513905 -0.051426742
-0.0045931814 -0.02492324 0.016965104 0.029011888 0.059709262 0.08600274 -0.009160757 0.030240139
0.025060805 0.097571656 0.05003509 0.08440024 0.08841768 0.10177004 0.034157164 -0.013716117
0.036084484 -0.07333196 -0.03796347 0.017965756 -0.04593905 0.08546144 0.09700533 -0.06538851
0.08771937 0.017513068 -0.02334913 -0.08712064 0.06509488 0.13969687 -0.011376523 -0.031019947
0.011167955 0.038833123 0.02847497 -0.09783406 -0.02589367 -0.105753735 -0.02809859 0.039963827
-0.018887997 0.066420995 -0.042577244 -0.04131513 0.029984424 -0.031042729 -0.055231888 -0.058141828
0.10963975 -0.04785714 -0.09761801 0.013335874 0.05162488 -0.056383625 -0.0013221115 0.0043443115
0.028617596 0.014027633 0.04392936 0.02993165 0.117603734 0.09157889 0.04972045 0.09986699
-0.029099198 -0.022507165 -0.050915968 -0.06983989 -0.118415065 -0.030128423 -0.041972384 0.03404783
0.0046687555 0.054631706 0.005886199 -0.01702107 0.047347452 -0.05834111 -0.084501065 0.11531077
-0.07174306 0.031049728 0.06112423 0.027022863 0.109338865 -0.042251106 -0.045604773 -0.009724814
0.012481926 -0.019317994 0.01820022 -0.03939412 0.033712093 0.04040632 -0.010547799 0.07058155
0.01980529 -0.010549147 -0.0256742 0.027043488 -0.030891774 -0.03544427 0.059237055 0.058847394

weight f4 [512, 128]
00000000: 069b 16bc 3eae 50bd b2ab 8e3d 2075 29bd
00000010: a0ca 91bd a74d a53d 7934 1c3d a4c7 edbd
00000020: da27 923c 5ecc 4dbd 40b2 91bd bb1e 48bc
00000030: 9a34 7cbd dc93 c6bb 7806 bc3d 3ac1 003d
00000040: 10cb f5bd 88a5 b73b d892 013d a043 aa3d
00000050: b3af 833d 8c7b 4ebd 8179 413c d6af de39
00000060: 34d4 cc3d 3dc8 d43d d06a b93c 4cf7 923d
00000070: 9799 0e3e e4b7 3d3c 3477 17bd 76b0 c6bd
00000080: 441b d93c 0ed9 c13d 3ba3 a0bd 36d5 72bc
00000090: da8c f63d b91b d53c e266 5e3d 9f46 e93c
000000a0: 013f ed3d 29f0 efbc 16f1 f5bc 006f 45bc
000000b0: bf3b bcbd 6498 6fbd 9be5 bdbc 7bc2 683d
000000c0: 1073 ee3c 8c3b 1b3c a7ab b1bd f8b9 0abd
000000d0: 844b b6bd 99a7 d13d fb59 9b3d 292d 6d3c
000000e0: 8be6 5c3c 01be 62bd 8523 e2bb fb4c 47bd
000000f0: 62fc 423c 02e0 ccbd 4251 653d a75d db3c
00000100: 21cb 14bd ad5e cc3d 5aec 50bd 2fe3 c43b
00000110: d2da f1bc e5f7 03bd d435 873b 9e7c 803b
00000120: 9315 b7bd be01 9b3b c128 34bd 89c1 67bd
00000130: 4cf5 373d b6f9 623d 8ef8 5c3b 05a3 1fbe
00000140: 6812 1a3d def7 8f3d 5d3a 92bd 168c a23d
00000150: 89d9 253d abc0 bbbd 7ec4 8abd a5aa dfbc
00000160: d8ba 5c3d cee6 f7bc 6d41 813c 450e 853d
00000170: f1a5 eb3c 1e86 b23c 1521 86bd 99c3 1b3d
00000180: a498 eb3d b71d 8d3c 1ac3 b6bb 81e9 1ebd
00000190: e974 b6bd 8ae6 633c 477a 3ebd f08a 883d
000001a0: 8366 733d b6d8 22bc 83a4 27bc a3fd e4bd
000001b0: 8e0d 38bd cc02 d9bc 7998 85bd 54b5 763d
000001c0: 5f13 63bd 698d 9abd 5a36 813a 3029 c1bd
000001d0: dc1d a33c d22c bdbd 4735 153c fcd1 57bd
000001e0: 01ee d33c eff3 443c 60dd 003e f2c0 d6bc
000001f0: bef3 bd3d cdf5 f03c 7084 2d3d bf5c dd3d
00000200: 4dd9 adbd d2a1 993c e18c 963d 432e d5bd
00000210: 5a24 cc3d ce4d 56bd f5da b03d 2755 6c3d
00000220: f6bb 9d3d ca46 3c3d 0b08 413d 4224 a0bd
00000230: bd7e e539 b08b cbba c5b7 2a3d cbc7 32bd
00000240: 8b7e 1b3d d7f4 88bd 84d5 bbbd 7d9f 86bd
00000250: a0fd 72bd 6695 973d f9fd 8abd 4631 ccbd
00000260: 193e 933c c39c c4bd aace 3ebd 9e3b ad3d
00000270: 23ed 343d 90dc 9c3d 0389 593d 4a0b 8f3d
00000280: fff8 72bd 65b4 3e3c 63b7 37bc b85d c03d
00000290: a3ba 7d3d fba5 af3d d8a6 76bd 25e0 7a3d
000002a0: 5574 43bb fb22 b8bd c21d b63b e98a c43d
000002b0: 6847 47bd 7fdb 9b3d d52b b23d b883 95bc
000002c0: 63cb 003d f4d1 c03b 2ff5 8bbd 979f b6bd
000002d0: 979f 94bd e211 98bd 9023 8cbd e115 0abb
000002e0: 88a3 d5ba 2239 013d 0dfa 92bd 0d9c ca3d
000002f0: 053b 89bb 995d 833c 7fe2 acbb dea6 6bbd
00000300: ccb1 953d 48b9 57bc 7950 023d 007f 993d
00000310: 9035 2c3d 00b5 ae3c 1733 17bd e865 b4bc
00000320: 0dd7 3bbd b47f e1bc fb51 d6bd 2b39 a83c
00000330: 9ca0 983c d1ef cabc edf3 01bd 4d6b 5fbd
00000340: bcb6 18bd df29 44bd 0911 6c3d a944 c5bc
00000350: 83d4 8b3a d34d 51bd 3b78 bdbc 87b2 8fbc
00000360: cfc3 adbd 91a5 f6bc 2314 6c3d 0c00 b0bd
00000370: b5fb f23c fa54 813d e232 88bd 3352 01bd
00000380: acdf a53d d4b3 c1bd 4f91 d5bd 93e7 eb3b
00000390: ed42 6f3c 85e7 fb3c b800 90bd 37cc d73c
000003a0: 5697 cbbd 4013 183d 02ff 8abd b19b 4c3c
000003b0: 57be 2fbd 4f99 53bd fd33 063a 4796 833c
000003c0: 2dd7 193c 1db6 00bc 84fc ee3c d0b0 953d
000003d0: d8f2 a23c 4e0c a7bd 72ed b33c 8b8f bebd
000003e0: fe6c 95bc 67fa 9fbd bd49 1d3d c4db b5bd
000003f0: d9ad 60bd 7ca5 083d 57b3 c13d 44ad f2bc
-0.009192234 -0.05094742 0.06966342 -0.041371465 -0.07118726 0.08071452 0.03813598 -0.11610344
0.017841268 -0.050243728 -0.071140766 -0.012214358 -0.061573602 -0.0060601067 0.09180921 0.031434275
-0.12001622 0.0056044497 0.03163418 0.0831368 0.06429996 -0.050410792 0.011808754 0.00042474148
0.10001412 0.10389755 0.02263394 0.071760744 0.13925777 0.0115794875 -0.036978915 -0.09701626
0.02650226 0.09465228 -0.07843634 -0.014821341 0.12038584 0.026014196 0.054297335 0.028476058
0.11584283 -0.029289322 -0.030022185 -0.01205039 -0.09191083 -0.05849494 -0.023180773 0.056826096
0.0291076 0.009474646 -0.08675318 -0.03386876 -0.08901122 0.10237045 0.07585522 0.014476099
0.0134827 -0.055356983 -0.006901207 -0.0486574 0.011900993 -0.100036636 0.055985697 0.026778055
-0.03632653 0.099789955 -0.051006652 0.0060085277 -0.029523287 -0.032218833 0.00412629 0.0039211055
-0.08939662 0.0047304323 -0.04398418 -0.056581054 0.044911668 0.055413924 0.0033717486 -0.15589531
0.03761521 0.07029699 -0.07140038 0.079368755 0.04049066 -0.09167608 -0.06775759 -0.02730305
0.053889126 -0.030261423 0.015778268 0.06496862 0.02876565 0.021792468 -0.06549279 0.038028333
0.11503723 0.017226083 -0.005577457 -0.038796905 -0.089090176 0.013909945 -0.04650333 0.06667125
0.059423935 -0.009939363 -0.010232094 -0.1118119 -0.0449348 -0.026490591 -0.065232225 0.06023152
-0.055438396 -0.07546503 0.0009858117 -0.09431684 0.019911699 -0.092370644 0.009106941 -0.05269049
0.025870325 0.012021049 0.12584448 -0.02621505 0.09275006 0.029414082 0.04236263 0.108087055
-0.084887125 0.01875392 0.07351089 -0.10409214 0.09967871 -0.052320294 0.08635513 0.057698395
0.07701866 0.045965947 0.04712681 -0.07819416 0.0004377271 -0.0015529301 0.041679163 -0.04364757
0.037962478 -0.066873245 -0.09171584 -0.06573389 -0.059323907 0.07401542 -0.06786723 -0.09970336
0.017973946 -0.096002124 -0.04658381 0.08458637 0.044171464 0.076592565 0.05310918 0.06984575
-0.059319492 0.011639689 -0.011213156 0.093928754 0.06194557 0.0857658 -0.06021771 0.061248917
-0.0029823978 -0.08991047 0.0055577466 0.095968075 -0.048652083 0.07610225 0.086997665 -0.018251285
0.031443965 0.0058844034 -0.068338744 -0.08917158 -0.07257002 -0.07425286 -0.068427205 -0.002107017
-0.0016299346 0.031548627 -0.071766 0.098930456 -0.004187944 0.016035842 -0.005276024 -0.057532184
0.07309303 -0.013166733 0.031815026 0.074949265 0.04204327 0.021326542 -0.036913957 -0.022021249
-0.045859385 -0.027526714 -0.10464855 0.020535072 0.018631272 -0.024772556 -0.031726766 -0.05454569
-0.037283644 -0.047891494 0.057633433 -0.024080591 0.0010668192 -0.05109961 -0.02312862 -0.017541183
-0.08484613 -0.030108245 0.05763639 -0.08593759 0.029661039 0.06315036 -0.0665033 -0.031572532
0.08099303 -0.094581276 -0.10428106 0.0071992367 0.014603359 0.030750046 -0.07031387 0.026342494
-0.099409744 0.037127733 -0.0678692 0.012488292 -0.04290613 -0.05165988 0.0005119441 0.016062869
0.009389681 -0.007855919 0.029173143 0.07309115 0.019891188 -0.08156644 0.021963809 -0.093047224
-0.018240448 -0.07811432 0.0384004 -0.088798076 -0.054853294 0.033360943 0.094580345 -0.029623635

bias f4 [512]
00000000: 18c0 18bd e621 d33d 3c3b 5a3d 7e30 c6bc
00000010: abe0 edbd d5f8 1dbd f6a2 2cbd 38cf bdbc
00000020: 9235 a3bc 60cd efbd 6859 863c a9e4 273d
00000030: 0830 c8bd 1000 bc3c 0f33 b6bc 6ab7 f0bc
00000040: c6eb fd3b bda7 05bd 5c92 3ebb 0706 35be
00000050: 14bc 953d 51b4 2dbd 0199 febd 0282 f13c
00000060: 1536 e1bd 2552 4d3d a190 56bd 3e90 e53c
00000070: 87d4 b3bd 79c9 24bd 10b9 2ebd 6a0e 113c
00000080: e1c0 153d d440 6c3c 7d22 11be 9bc6 e03c
00000090: 2ce6 4f3d d4c0 8fbc 9619 7a3d fca3 ccbd
000000a0: 6ab9 c4bc 00e4 10bd b6e1 fb3b b20b 253e
000000b0: bfe6 813d 279b 933d dbca 31bd 195e 3bbd
000000c0: be97 173c d267 90ba 2550 1cbc f83c 7abd
000000d0: 946b 33bd 96e6 d2bd 9012 4e3d e336 cdbd
000000e0: 8490 dd3d f1e8 fd3c e05d 02bd f579 c7bd
000000f0: 5664 26bc 7f62 b4bc 9bcc b73d 555c 8c3d
00000100: 148b 223c 99e7 89bd 26f6 90bd 222b a5bc
00000110: 6c35 3bbd 5393 c03d ab51 e53c 1dfd 9a3d
00000120: 0e5c 1ebd 43c6 95bd f19f 003b ad38 ec3c
00000130: d8ee 183d d551 3d3d e7af c1bd 4a57 bebd
00000140: 4dbe ec3c a42b 8e3d 4ba1 d6bc 1b12 8abd
00000150: d44d 62bd 6032 4dbd c2f0 f73c 506f 0ebd
00000160: 5c3b 94bd c627 833d 48e9 f63d 859f 0ebd
00000170: 1f9e 97bd bfbb 113e 92d5 18bd 318d 2fbd
00000180: 4610 c6bd 315c a13d 70a8 1d3d 20f1 aabd
00000190: d99b 09be a84c dbbb da0f 3b3d 061e bf3d
000001a0: de28 983d 785b 953d 6905 bd3d a17c 34bd
000001b0: 2497 21bd b27e 79bd eece 3ebc 9250 9c3d
000001c0: d07b 4ebd 98b8 833c a882 89bd 5799 cabd
000001d0: 2dab 8bbd 2b16 a0bd f2f6 cfbd 6e4f c83d
000001e0: 6735 ec3c e9c7 353d a0bf d5bc 09c0 cd3c
000001f0: 8fab 44bd 3d74 10bd 6832 253c 74f8 4dbd
00000200: d460 993c 5692 3ebd 4654 89bd c77e d3bd
00000210: 8281 493d 7b83 263d fae4 bbbc d2a2 76bd
00000220: 8adc 03bd 16e4 04bd e8b8 723c b2b6 3e3d
00000230: 065c 69be 7212 dc3d 80fc 59bd fb38 83bd
00000240: acdc 923d ee04 003d e1c5 97bd a02f 043d
00000250: b1dd 94bc 4f37 4dbd 595b c43c 7556 533c
00000260: ffa5 b73c b464 38bd ad38 8dbc f6dd 223d
00000270: f00a 393d 14b3 993c ce8f b13d ccd3 193d
00000280: d1a8 71bd 0313 343d e7f6 b33c 3602 803d
00000290: 3943 993c 4d4a e7bd d142 c83c 4009 cabc
000002a0: a4db c8bc 0dfb fb3d c222 a4bd b888 e3bd
000002b0: daeb 44bd 1625 97ba f381 1e3d b319 0b3d
000002c0: 627e 9dbc 9aca 8abd d59d 9abd 96b9 623d
000002d0: 2462 e4bd af39 9ebd 16f9 92bc 22fe 153d
000002e0: 6595 8bbc a9b2 213e c9dd 30bc 8864 c03d
000002f0: 9f0c 7e3c 35d2 e4bb 662d c83d 4105 44be
00000300: bc57 e5bc 2e06 d1bd d264 b0bd 1f9d 87bd
00000310: 7661 0c3d 368d c03d 86eb b93d 7ab3 87bc
00000320: d7ec 29be ba02 72ba cff3 b03d b8f7 e53d
00000330: 5709 7d3d d241 773c c089 59bc eab4 953d
00000340: d83e 6bbd daeb 43bd 0a80 d1bb b8d5 3ebc
00000350: 7913 783d 54c7 b13d 426a 93ba 1ae5 55bd
00000360: 1f4d b5bd 4486 5c3d 212a 59bd a22a 1b3c
00000370: c57b b1bc 26f7 473d 7e71 e6bc 68b3 a63a
00000380: 6dac eb3c bdfc b43d 649e dbbd 6a76 c2bd
00000390: 4dd7 87bd cb54 1b3c 703b ef3d 862e d43d
000003a0: dd75 19bd ae87 babd 5aff 4bbd 7e75 823d
000003b0: 1c4a ee3c 9480 21bc 5278 3e3d 936f 3dbd
000003c0: 4582 b33c b34c 49bd b5d0 1f3c e713 f93b
000003d0: 7235 883d 8d03 173e 54e9 8a3a 108e 97bd
000003e0: 7240 273d 9943 263d 3dff debc 554c b83d
000003f0: 1b16 973d 4468 553d ef89 1ebd f094 d6bd
-0.03729257 0.103092 0.053279147 -0.024193045 -0.11615118 -0.038567383 -0.0421476 -0.023170099
-0.019923005 -0.11709094 0.016400054 0.04098955 -0.09774786 0.022949249 -0.022241144 -0.029384334
0.0077490536 -0.03263067 -0.0029078936 -0.1767808 0.07311264 -0.04240829 -0.12431527 0.029480938
-0.109966435 0.050127167 -0.052384023 0.028022882 -0.08780771 -0.0402312 -0.042656958 0.008853534
0.036560897 0.014419753 -0.14173312 0.027438452 0.05075662 -0.017548002 0.061059557 -0.09992215
-0.024014194 -0.035373688 0.007686819 0.16117743 0.063428394 0.07207327 -0.04340635 -0.045744035
0.009252487 -0.0011017269 -0.009540592 -0.0610933 -0.043803766 -0.10297887 0.05031067 -0.100202344
0.1081858 0.030994864 -0.031827807 -0.09740058 -0.010155758 -0.022019623 0.08974572 0.068535484
0.009920854 -0.06733627 -0.07078199 -0.020162169 -0.045705244 0.094031 0.027993044 0.07567809
-0.03866201 -0.07313206 0.0019626583 0.028835619 0.037337154 0.04622062 -0.09457379 -0.09293993
0.028899336 0.069419175 -0.026199957 -0.067417346 -0.055250004 -0.05009687 0.03026617 -0.034774125
-0.072378844 0.064040706 0.120562136 -0.0348201 -0.07403206 0.14231776 -0.03731305 -0.04285926
-0.09671073 0.07878912 0.038490713 -0.08346772 -0.13438357 -0.0066924877 0.045669414 0.093318984
0.0742967 0.07292837 0.092295475 -0.044064168 -0.03945078 -0.06091184 -0.011646016 0.07632555
-0.050411046 0.016079232 -0.06714374 -0.098925285 -0.068197586 -0.07816728 -0.10154523 0.09780775
0.028834058 0.044380102 -0.02609235 0.025115984 -0.048015174 -0.035267103 0.010082819 -0.05028577
0.018722929 -0.046526276 -0.06705527 -0.10326915 0.049195774 0.040652733 -0.022936333 -0.06021387
-0.032192744 -0.032444082 0.014814593 0.04656095 -0.2278901 0.10745706 -0.05321932 -0.064073525
0.07170996 0.0312547 -0.07410789 0.03227198 -0.018172117 -0.050101575 0.02396934 0.012899031
0.02241802 -0.045017913 -0.01723894 0.03976246 0.045176446 0.018762149 0.08670007 0.0375555
-0.058998886 0.043963443 0.021968318 0.06250422 0.018708812 -0.112934686 0.024445923 -0.024662614
-0.024518795 0.123037435 -0.08014442 -0.111100614 -0.048076488 -0.0011531438 0.038698148 0.033960056
-0.019225303 -0.067769244 -0.07549635 0.05535277 -0.11151531 -0.07725846 -0.017941039 0.036619313
-0.01703901 0.1579081 -0.010795065 0.09394175 0.015505939 -0.0069830664 0.09774284 -0.19142629
-0.027995937 -0.10206257 -0.0861298 -0.06621765 0.034272633 0.09401934 0.09078126 -0.016565073
-0.16594253 -0.00092319737 0.08640253 0.11228889 0.061776485 0.015091376 -0.013277471 0.07309897
-0.05743298 -0.047832347 -0.0063934373 -0.011647634 0.060565446 0.08680597 -0.0011246877 -0.05222044
-0.088526 0.053838983 -0.053018693 0.009470614 -0.021665463 0.048819683 -0.02813029 0.0012718262
0.028768742 0.088372685 -0.1072357 -0.09495242 -0.06632862 0.009480665 0.11681259 0.10360436
-0.03746592 -0.0910791 -0.04980407 0.06370066 0.029088072 -0.009857316 0.046501465 -0.046248984
0.021912703 -0.04914541 0.0097543495 0.0076012495 0.06650819 0.14747448 0.0010598102 -0.07400143
0.040832944 0.04059181 -0.027221316 0.08998934 0.07377263 0.05210139 -0.038705762 -0.10477626

weight f4 [128]
00000000: 2ea0 793f cf30 8c3f 43ad 893f 627f 843f
00000010: fd04 903f 17f8 8c3f b9d2 863f 1f09 863f
00000020: 6c1e 813f 9b35 5d3f 2537 873f cada 853f
00000030: 9735 a03f 5b9e 923f db93 803f b394 8c3f
00000040: 0f1a 963f bf94 7e3f 45e4 893f fc3a 7f3f
00000050: 6432 823f ce98 6b3f 83a3 6d3f 6f07 773f
00000060: 5f26 913f 48b9 8b3f 9128 7a3f 2e38 923f
00000070: ba2a 783f 3627 8f3f a1c1 7f3f cd1f 893f
00000080: d106 983f 02ce 853f 82f5 833f 3484 7e3f
00000090: 0570 823f 4db7 893f 79b7 773f 072a 813f
000000a0: 6ed3 753f 69a6 803f 5cb4 7c3f 8205 823f
000000b0: 3f97 943f 4fbf 673f aa7f 8b3f 3b1a 643f
000000c0: 9cb6 803f 95ee 8a3f 6f10 913f 6e72 783f
000000d0: 8209 883f 3177 8c3f 54b2 813f d709 933f
000000e0: 8c16 823f c81e 8b3f b5a4 813f c0fb 8d3f
000000f0: 32a2 7d3f 8e18 823f 2a8d 8d3f fad5 763f
00000100: cc4f 933f 55f1 733f 0ed7 7d3f 85c8 803f
00000110: a992 6f3f caed 993f b4bd 843f ed52 703f
00000120: 695f 8c3f 1d91 843f 525e 833f a16d 8d3f
00000130: a75f 7b3f 6cc4 873f c253 6b3f 31d3 803f
00000140: 71f8 833f 3829 813f 9463 6f3f c731 783f
00000150: 0afc 8d3f 18d4 7d3f 61f4 8a3f 8cb4 a83f
00000160: 7442 603f fca6 803f 2dee 733f 1f11 793f
00000170: 9760 743f 805a 943f 9e2f 853f 5b06 873f
00000180: d5c3 7e3f d3b8 713f 5e39 893f ac3b 713f
00000190: cd02 813f ab48 6d3f 70df 833f a5d8 9d3f
000001a0: 3d15 953f aa5c 7e3f c7f2 893f 53b5 853f
000001b0: 53a0 833f e467 5f3f 6f42 6a3f 5605 823f
000001c0: 930f 933f 41f1 823f 436d 773f 817b 8d3f
000001d0: 4487 8b3f b095 953f bc2d 8c3f 9ee0 853f
000001e0: a0bb 863f 7dc8 5b3f 502c 793f b337 833f
000001f0: 9ee7 9d3f 12a9 873f 7d07 8a3f 8b58 833f
0.9751004 1.0952395 1.0756 1.0351374 1.1251522 1.1013211 1.0533057 1.0471534
1.0087409 0.8640992 1.0563704 1.0457394 1.2516354 1.1454576 1.0045122 1.0982879
1.1726702 0.9944572 1.0772787 0.9969938 1.0171628 0.92030036 0.92827624 0.9649572
1.1339835 1.0915918 0.9771815 1.1423395 0.96940196 1.1183841 0.9990483 1.071283
1.187708 1.0453494 1.0309298 0.99420476 1.0190436 1.0759064 0.9676433 1.0090951
0.9602574 1.0050784 0.98712707 1.0157931 1.1608657 0.9052629 1.0898335 0.89102525
1.0055728 1.085406 1.133314 0.97049606 1.0627902 1.0973874 1.0132546 1.1487378
1.0163131 1.0868769 1.012839 1.1092453 0.99075615 1.0163743 1.1058705 0.9642025
1.1508727 0.9529012 0.9915627 1.0061194 0.9358316 1.2025692 1.0370393 0.93876535
1.0966617 1.0356785 1.0263159 1.1049081 0.9819283 1.0606818 0.9192468 1.006445
1.0310193 1.0090704 0.9351132 0.96950954 1.1092541 0.99151754 1.0855829 1.3180099
0.876014 1.005096 0.952853 0.9729175 0.95459884 1.1590118 1.0405157 1.0548815
0.99517566 0.94422644 1.0720632 0.9423168 1.007898 0.9268901 1.0302563 1.233174
1.1647106 0.99360144 1.0777215 1.0445961 1.0283302 0.872679 0.9150762 1.0157878
1.1489128 1.0229875 0.96651095 1.1053315 1.0900655 1.1686306 1.0951457 1.0459173
1.0526009 0.85852796 0.9733324 1.0251373 1.2336309 1.0598471 1.0783535 1.0261396

bias f4 [128]
00000000: 5ee3 4cbe 7d4a 383b e9f1 133d 6995 1ebe
00000010: 070b 45be 17e3 833d 3a90 dbbd c41d 7d3d
00000020: c855 19be 8ea3 18be 2277 cc3d 381a a1bd
00000030: 9f78 b6bd 68de 21bd d6f6 18bd f1e2 033e
00000040: 1892 f03d 8b2c ffbd 64c8 3d3e 5abd 8d3d
00000050: a350 903c 22ca a33c 8ee9 d0bd 5d23 1e3e
00000060: e96e 2e3e 4bcf 993c c462 493d 88e7 8cbd
00000070: 6644 b1bd b002 22be 889f aebd 50d3 183e
00000080: 7a2c b73d 6654 703d f2cf 273c 180b 963d
00000090: a5e6 6b3d 9c51 8abd 288a 873d ec88 213e
000000a0: 50ac 9dbd b96e d23d c58b 00be b620 81bd
000000b0: 0dcb 78bd d70f 23be 33a3 903d 7c46 6c3d
000000c0: b5ef 01bc ec09 663d be42 4bbc 0add 04bd
000000d0: 3ebf 15be 97a3 3e3d 7328 84bd e3eb 9cbd
000000e0: aa9d f0bd 05b0 f7bd a2c6 2bbd 5bb6 bd3d
000000f0: a38c 94bc 813a 0cbe 6eee 8cbd 2d89 c8bd
00000100: 8096 0cbe 1c9e 5c3d c43e a33d d68c 41bd
00000110: ced0 bf3c d9e1 c0bd 15c3 ab3d 77db 143e
00000120: 1784 1e3c 7e78 fbbd f152 e93d 158a cebd
00000130: 342c 753d 9693 783d 3944 363d f995 3f3d
00000140: ae91 9c3c 42d1 f0bd 5a73 e93d cd8b 2cbd
00000150: daa3 ffbc 2d57 e53d 9f20 ddbd 2e51 2bbd
00000160: 9be3 e0bc fbb5 8abd 12ed 8f3c c88b 253d
00000170: eab1 c03b 5a5c af3d 36f2 f1bd 21ad c8bd
00000180: bb97 48bb b8ec 0dbd b2ad cabb 6b6d 6abb
00000190: ff2f a13d f764 8a3d fd06 06be f511 ad3d
000001a0: 1d39 563d a560 7b3e 3d51 41be 95a3 903d
000001b0: 5b55 2fbd df2b 84bd a0d8 3d3c 17b5 debd
000001c0: def8 c0bd 1648 0dbe 3fe0 f2ba 357f 1c3c
000001d0: d4bc 3abc 8af5 28bd 949f 37bd 3188 0fbd
000001e0: 4b17 633d 2582 af3d cc9f 4a3c e506 513d
000001f0: 5623 e93c cd12 843d bee1 3abe caa1 bcbd
-0.20008609 0.002812057 0.036119375 -0.15486683 -0.19242488 0.06439798 -0.107208684 0.061795965
-0.14974129 -0.14906141 0.0998366 -0.07866329 -0.089097254 -0.039518744 -0.037344776 0.1287954
0.11746615 -0.12459668 0.18533474 0.069208816 0.017616576 0.019993845 -0.10200797 0.15443178
0.17034496 0.018775603 0.049166456 -0.068800986 -0.08655624 -0.15821338 -0.08526522 0.1492436
0.0894403 0.05867424 0.010242449 0.07326335 0.057593007 -0.06753847 0.06618148 0.15774888
-0.076988816 0.10275025 -0.12553318 -0.06305067 -0.06074052 -0.15924011 0.07062378 0.057684407
-0.007930686 0.056161806 -0.012406049 -0.03243736 -0.14623734 0.04654273 -0.064530276 -0.07662179
-0.11748822 -0.1209412 -0.041937478 0.09263297 -0.018133467 -0.13694192 -0.06881414 -0.09791789
-0.13729286 0.053861722 0.07970956 -0.047253452 0.023414996 -0.09418077 0.08386818 0.14536844
0.009675047 -0.122788414 0.11392773 -0.10084931 0.05985661 0.060687624 0.044498656 0.046773884
0.019112434 -0.11758663 0.11398955 -0.042125512 -0.03120606 0.11198268 -0.107972376 -0.041825466
-0.02745228 -0.06772991 0.017569099 0.04041651 0.005880584 0.085625365 -0.11813776 -0.09798647
-0.0030608017 -0.03464958 -0.006185257 -0.0035770785 0.07870483 0.06757539 -0.13088603 0.08450691
0.05230056 0.24548586 -0.18878646 0.07062451 -0.04280601 -0.0645368 0.011587292 -0.10874384
-0.09422468 -0.1379703 -0.0018529965 0.009551813 -0.011397559 -0.04124979 -0.04482992 -0.03504199
0.055442136 0.08569745 0.0123672 0.051031966 0.028459232 0.064488985 -0.18250176 -0.09210546
