models/HIV_basemodel.pth (torch, 61127 bytes, 9 tensors)

bias f4 [64]
0.0018607525 0.002177674 0.012869203 -0.010926269 0.009295731 -0.011591855 -0.012184468 -0.015190608
-0.008305101 0.00651372 0.01086081 -0.007942814 0.0044513023 0.016552282 -0.0018168405 0.006777578
-0.013547121 0.010553054 0.0005571144 -0.012984893 0.0060229525 -0.013303442 0.00966395 -0.018990574
-0.01469471 -0.005881458 -0.00025331037 -0.0014855677 0.008545709 -0.002219026 0.0045039314 -0.011150614
0.015435619 -0.003971704 0.012081289 -0.0020606758 -0.013453413 -0.011112698 -0.006649554 0.01102386
0.012048791 -0.010620828 -0.02993169 0.002140997 -0.010389708 -0.007557017 -0.010568265 0.01038161
-0.0051093623 0.008887801 -0.005813248 -0.008710992 0.010684198 -0.018142372 -0.004183175 0.010013565
-0.011619669 0.009071065 0.00070628815 0.0046393415 0.016159337 -0.009676528 0.0077863336 0.005589847
00000000: 7ee4 f33a 4fb7 0e3b 5ad9 523c 1804 33bc
00000010: 1f4d 183c c4eb 3dbc 5da1 47bc 07e2 78bc
00000020: 1e12 08bc 0b71 d53b 8af1 313c 9422 02bc
00000030: 3bdc 913b a798 873c 0d23 eeba 7216 de3b
00000040: bef4 5dbc b7e6 2c3c 510b 123a 97be 54bc
00000050: 305c c53b aef6 59bc 8b55 1e3c 1f92 9bbc
00000060: 15c2 70bc 3fb9 c0bb bece 84b9 61b7 c2ba
00000070: 4d03 0c3c 146d 11bb b795 933b 11b1 36bc
00000080: aee5 7c3c 1125 82bb 99f0 453c 670c 07bb
00000090: b46b 5cbc 0912 36bc 80e4 d9bb 6c9d 343c
000000a0: 4b68 453c fb02 2ebc 4e33 f5bc f84f 0c3b
000000b0: 9839 2abc daa0 f7bb 8426 2dbc a117 2a3c
000000c0: 706c a7bb 249e 113c 0f7d bebb 8cb8 0ebc
000000d0: c60c 2f3c 509f 94bc 0413 89bb f00f 243c
000000e0: 6d60 3ebc ce9e 143c 3226 393a 9e05 983b
000000f0: 9660 843c 4d8a 1ebc 8024 ff3b 092b b73b

weight f4 [64, 9]
-0.2003667 0.1845172 -0.14588152 0.19100325 -0.22427091 -0.084235825 -0.2702432 0.110516876
0.12923962 0.100339405 0.28218314 0.19818647 0.05985186 -0.106942624 -0.12027725 0.15770711
-0.0909736 -0.13838345 0.14422426 0.23297295 -0.18797894 0.037301134 -0.16263857 -0.005138249
-0.098149635 -0.03819579 0.13809644 0.07008829 0.064495385 -0.23100013 0.24214764 0.10612369
-0.16500577 -0.21157014 0.11703752 -0.031383194 -0.06250287 0.09025198 -0.15124589 0.17311707
-0.192032 0.24565265 0.07894887 0.086291224 0.22082162 -0.16582987 0.15172118 0.20063244
0.17324618 -0.1575908 0.2491708 -0.255244 0.21078101 0.27535158 -0.2314468 0.006481737
-0.08590726 -0.26159787 -0.011019077 0.21655561 0.21612789 0.043069478 -0.20486763 0.26581028
-0.018554002 -0.030946264 0.10952156 0.0015762657 0.22296831 -0.15990824 -0.1524164 0.04629115
-0.031699944 0.010440499 -0.24053419 0.24886951 0.17086548 0.18906128 -0.1717574 -0.2085797
-0.19625656 -0.21905245 -0.17389645 0.10944074 0.07050767 0.1932328 -0.043853566 0.14219058
0.10174704 -0.038691487 0.24929349 0.09547666 0.2514659 -0.20897846 0.055271115 -0.11153015
0.19524328 -0.2730817 0.23692372 -0.21200126 -0.260817 0.11033959 -0.14176881 -0.1471919
0.008109751 -0.24060231 -0.09347382 0.06985525 -0.13483137 -0.077092245 -0.1902443 -0.076692246
0.109983236 0.021464033 0.20500386 -0.20907535 0.015117832 -0.2331074 -0.18794465 -0.14024547
0.051778696 -0.22382705 -0.1645256 -0.09706326 0.21706674 -0.11059608 0.2413326 -0.0020941794
0.022556048 0.18464403 -0.12403856 -0.19529265 0.10515766 -0.031550877 0.268417 -0.10652034
-0.037353054 -0.040060256 0.021823172 0.24673033 0.28055608 0.2400259 0.11040012 -0.26490542
-0.17815357 -0.17308654 -0.07742717 -0.06978726 -0.02282877 0.0305553 -0.0035157178 0.064751305
0.20743205 0.05369356 0.15375453 0.26864028 0.24499996 0.051063035 -0.2761928 -0.08609255
-0.12979102 -0.19169685 -0.12765348 0.12714964 0.19693689 -0.0125903655 0.0022665965 -0.16819818
0.12386922 0.013582349 -0.1295961 0.07695282 -0.17528239 -0.012321995 0.24456684 -0.1324748
0.10817635 -0.011515224 0.11838795 -0.079711676 0.08914809 0.046358883 0.07010844 -0.062479824
0.13473344 0.1422706 0.13942589 0.06811348 0.024016568 -0.26277062 0.18984705 -0.13242173
0.077885754 0.024115965 0.14019267 -0.08106253 0.22352992 0.2531588 -0.111560605 -0.16758399
0.09569842 -0.2219837 0.18248014 -0.2339864 0.19682294 0.14735205 0.088113375 0.25571507
-0.21400595 0.20576744 -0.14513277 0.1892431 0.1913613 0.0962637 0.0055060666 0.20836972
-0.25314915 0.27873042 0.17043285 -0.27303034 -0.2254607 -0.2597236 0.20047557 0.0052983467
-0.21823514 -0.027269177 -0.051063612 -0.07257264 -0.22877418 0.08989235 0.2406453 0.2377118
-0.049885742 -0.19052503 -0.047802396 0.1269398 0.23689683 -0.1164073 -0.20065519 0.2542355
-0.091632895 -0.027868519 0.034386124 -0.0536582 -0.28585595 0.11364466 -0.15459046 0.27808115
0.03770619 -0.20835137 0.16565418 -0.091368884 0.12977098 -0.22075623 -0.0049456093 -0.17235272
00000000: ee2c 4dbe 14f2 3c3e f761 15be 5b96 433e
00000010: 46a7 65be d583 acbd 515d 8abe ac56 e23d
00000020: 6457 043e bf7e cd3d 4f7a 903e 65f1 4a3e
00000030: 3927 753d bc04 dbbd eb53 f6bd f97d 213e
00000040: 5e50 babd 64b4 0dbe 86af 133e 7690 6e3e
00000050: 8d7d 40be 13c9 183d ba8a 26be c25e a8bb
00000060: ad02 c9bd 3073 1cbd 2769 0d3e 738a 8f3d
00000070: 2816 843d 4c8b 6cbe 8df5 773e 6157 d93d
00000080: 46f7 28be d8a5 58be 5eb1 ef3d aa8b 00bd
00000090: 8101 80bd 08d6 b83d 34e0 1abe 9a45 313e
000000a0: 09a4 44be 5e8c 7b3e f2af a13d 74b9 b03d
000000b0: 101f 623e 4ecf 29be cc5c 1b3e 9772 4d3e
000000c0: 7267 313e 7c5f 21be a126 7f3e 57af 82be
000000d0: fad6 573e e2fa 8c3e 6400 6dbe c064 d43b
000000e0: 25f0 afbd 28f0 85be 5c89 34bc c1c0 5d3e
000000f0: a150 5d3e 9f69 303d d2c8 51be 4918 883e
00000100: 90fe 97bc 0583 fdbc d74c e03d b39a ce3a
00000110: ce51 643e fcbe 23be 0b13 1cbe ca9b 3d3d
00000120: cdd7 01bd a00e 2b3c 984e 76be a6d7 7e3e
00000130: 5cf7 2e3e 4899 413e 2ce1 2fbe eb95 55be
00000140: 7bf7 48be 494f 60be e911 32be 7722 e03d
00000150: 5366 903d d2de 453e cc9f 33bd 689a 113e
00000160: c160 d03d f77a 1ebd cb46 7f3e 4489 c33d
00000170: 23c0 803e 73fe 55be f763 623d eb69 e4bd
00000180: dbed 473e 5dd1 8bbe 229c 723e dc16 59be
00000190: ce89 85be b9f9 e13d d82b 11be 79b9 16be
000001a0: c3de 043c 7460 76be 346f bfbd 4510 8f3d
000001b0: 3c11 0abe 8ae2 9dbd 67cf 42be d310 9dbd
000001c0: e43e e13d 57d5 af3c 88ec 513e d917 56be
000001d0: c9b0 773c b5b3 6ebe 9074 40be 829c 0fbe
000001e0: e615 543d eb32 65be 6679 28be 1ac9 c6bd
000001f0: be46 5e3e 3380 e2bd e51f 773e 803e 09bb
00000200: 76c7 b83c 5313 3d3e ee07 febd ccfa 47be
00000210: e65c d73d 7e3b 01bd f46d 893e 5627 dabd
00000220: 84ff 18bd 3916 24bd 82c6 b23c e0a6 7c3e
00000230: 0ca5 8f3e 59c9 753e 7519 e23d afa1 87be
00000240: e46d 36be 993d 31be 2392 9ebd 9fec 8ebd
00000250: 6703 bbbc 1c4f fa3c f567 66bb 559c 843d
00000260: 1169 543e c7ed 5b3d d471 1d3e 388b 893e
00000270: 45e1 7a3e 7927 513d 2569 8dbe 4a51 b0bd
00000280: f0e7 04be 2e4c 44be 98b7 02be 8433 023e
00000290: d3a9 493e d247 4ebc 2e8b 143b 253c 2cbe
000002a0: 25af fd3d 8088 5e3c d7b4 04be 7199 9d3d
000002b0: 3a7d 33be 31e2 49bc bb6f 7a3e 79a7 07be
000002c0: 908b dd3d 5aaa 3cbc 6275 f23d e03f a3bd
000002d0: 4693 b63d d0e2 3d3d 0495 8f3d d8ea 7fbd
000002e0: 90f7 093e 62af 113e a9c5 0e3e 157f 8b3d
000002f0: 65be c43c df89 86be 4467 423e 9099 07be
00000300: 9182 9f3d d88e c53c ab8e 0f3e 1d04 a6bd
00000310: 07e5 643e 089e 813e e379 e4bd 239b 2bbe
00000320: 89fd c33d b24f 63be 13dc 3a3e 219a 6fbe
00000330: f48b 493e 75e3 163e c974 b43d 16ed 823e
00000340: 6024 5bbe b3b4 523e af9d 14be f1c8 413e
00000350: 37f4 433e e725 c53d 3c6c b43b df5e 553e
00000360: c49c 81be c1b5 8e3e f385 2e3e a2ca 8bbe
00000370: 2bdf 66be 7efa 84be 7849 4d3e c19d ad3b
00000380: 0879 5fbe 9c63 dfbc 1428 51bd f7a0 94bd
00000390: c743 6abe 7b19 b83d b96b 763e b96a 733e
000003a0: fe54 4cbd fe18 43be 72cc 43bd 82fc 013e
000003b0: 1595 723e f366 eebd 8e78 4dbe 282b 823e
000003c0: 07aa bbbd 854c e4bc 77d8 0c3d b3c8 5bbd
000003d0: b65b 92be 88be e83d f64c 1ebe a760 8e3e
000003e0: ce71 1a3d 105a 55be 40a1 293e 9c1f bbbd
000003f0: afe2 043e ec0d 62be c70e a2bb 3b7d 30be

bias f4 [64]
0.013751782 0.011415996 -0.012482949 -0.008400717 0.014367089 0.010413822 0.0002466259 -0.0063962317
-0.00676827 0.0075910175 -0.009709836 -0.0018099841 0.0117247095 -0.0067397663 -0.009825337 -0.01753092
0.01010475 0.009295993 -0.011446732 0.011420038 -0.001986887 0.0076854927 0.00077846186 -0.008859367
-0.007874919 0.010222978 -0.0072546517 -0.011907895 -0.0035849689 0.005180189 -0.009681477 -0.008692773
0.0006601104 -0.007860464 0.0063757515 0.002068322 0.002078128 0.0050793216 0.002095662 0.011881364
0.012910205 0.0030011586 -0.00092788594 0.0125396885 -0.0048410324 0.012536889 0.0052542463 -0.004666825
0.0021113092 -0.003804191 -0.008732833 -0.007859376 -0.009326699 -0.009317751 0.011455072 0.007140273
-0.003687849 0.015754512 0.010603713 -0.0092781 -0.015728151 0.030402092 -0.0031334898 -0.009330076
00000000: 274f 613c 280a 3b3c 4885 4cbc 29a3 09bc
00000010: f063 6b3c bc9e 2a3c 914d 8139 7b97 d1bb
00000020: 5dc8 ddbb 12be f83b 0116 1fbc fd3c edba
00000030: ff18 403c 42d9 dcbb 73fa 20bc 019d 8fbc
00000040: 658e 253c 384e 183c 138b 3bbc 1c1b 3b3c
00000050: 6f36 02bb 96d6 fb3b b111 4c3a e126 11bc
00000060: ce05 01bc 477e 273c 6eb8 edbb 5519 43bc
00000070: ccf1 6abb 93be a93b 0f9f 1ebc 226c 0ebc
00000080: 420b 2d3a 2dc9 00bc aeeb d03b af8c 073b
00000090: 3431 083b 7070 a63b 6057 093b 0daa 423c
000000a0: 5385 533c 16af 443b 5f3d 73ba 4473 4d3c
000000b0: 86a1 9ebb 8667 4d3c d02b ac3b 2aec 98bb
000000c0: e45d 0a3b bc4f 79bb 2814 0fbc 9dc4 00bc
000000d0: 03cf 18bc 7ba9 18bc 0eae 3b3c f4f8 e93b
000000e0: d7af 71bb 9b0f 813c 32bb 2d3c 2c03 18bc
000000f0: 53d8 80bc cf0d f93c 3c5b 4dbb 2ddd 18bc

weight f4 [64, 64]
0.1829439 0.09706589 -0.1202813 -0.09630945 0.045914743 0.07965004 -0.009010946 0.06358817
-0.07722483 -0.1292707 -0.09681564 0.14882119 -0.11391586 -0.18510583 -0.1498208 0.031041583
-0.12393694 0.22379008 0.109170265 0.210163 -0.022608623 -0.18117017 -0.19380857 -0.18863904
-0.074591264 0.1700525 0.07286791 -0.162214 -0.08259101 -0.07847213 0.06822102 0.054094862
0.03433407 0.09460748 0.20072937 0.15908597 -0.20227112 0.18281496 -0.08537696 -0.021576254
0.110898234 0.079934455 0.2155286 0.10109953 -0.02180208 0.018586084 -0.14687772 0.047807124
0.08408485 -0.13359347 -0.05166038 0.104460835 0.19756451 0.15236102 -0.15813713 0.08206296
-0.018375862 -0.07216767 0.1275569 0.20493239 0.15622698 -0.09976323 -0.13447355 0.106933005
-0.026761614 -0.023875544 0.20099525 0.005811408 -0.0300978 -0.09034348 0.16327338 0.19779977
-0.054591812 -0.085121974 0.041542985 0.12675327 -0.22264646 -0.0985293 -2.7291246e-05 0.023954762
-0.15450634 -0.047320087 0.09083887 0.039796427 0.10956376 -0.12213216 -0.013202558 -0.11447065
0.114854485 -0.16426417 0.04136751 0.1950983 -0.086315915 -0.19435991 0.05174567 0.12324634
-0.047112554 -0.03235023 0.16579777 0.13900259 -0.08765172 0.22793162 0.14222476 -0.1644429
-0.07541327 -0.13639933 -0.16433564 -0.18527135 0.12554637 -0.021125603 0.11287106 0.22558452
-0.13251352 0.14708327 -0.16993204 -0.039821018 -0.057044048 0.106298886 0.076036476 -0.02569722
-0.019801633 0.1370059 -0.1983295 0.114767745 0.015441521 0.13631703 -0.055678833 0.11506888
-0.044360857 -0.13106062 -0.17695263 0.13168173 0.07445835 0.21060926 -0.121694185 -0.09662842
0.21031795 -0.12804401 0.0992834 -0.122910626 -0.1588911 0.0073088845 -0.2165649 -0.03001281
0.16141841 -0.22540143 0.014518819 0.19779637 0.117891856 0.0411301 -0.0061374656 0.11837203
0.09587238 -0.037375957 0.061885856 0.012409922 -0.07632867 -0.08834465 -0.15304066 0.028116878
-0.06935648 -0.022210406 0.08488669 -0.107237756 0.1964669 0.056309722 -0.19925301 0.1202422
-0.14385845 0.06618373 -0.22491519 0.16594957 -0.060822435 -0.051749818 0.029587245 0.0464421
0.116175294 -0.16818136 0.010747537 -0.15312348 0.013294915 -0.16794999 0.21514179 0.06341437
0.14311247 -0.2019077 0.10329385 0.16049613 -0.17543055 0.09705118 0.1066195 -0.008894017
-0.19896485 0.16473399 -0.037699558 0.15192765 -0.1853507 0.12402959 -0.10696602 -0.046182495
-0.16048378 0.22334023 -0.03845518 -0.04618087 0.19999535 -0.16277133 0.073349096 -0.12143803
-0.07249478 0.05310258 0.0895956 0.09907823 -0.22240308 -0.0068662376 0.16401996 -0.096463464
0.07163376 0.17009544 -0.10695743 0.19056845 -0.1562186 -0.12426446 0.025322832 -0.0974489
-0.15811937 -0.051718604 0.1544314 0.14261825 -0.16814767 -0.09352191 -0.05136599 -0.09387514
-0.06956142 0.05781573 0.15919109 -0.20134737 0.13311191 -0.08352368 0.19548246 -0.14397766
-0.15639886 -0.05499573 -0.14896224 -0.11669366 -0.1635559 -0.056183856 0.2248524 -0.024686271
-0.18079354 -0.006535786 -0.17654692 0.1275826 0.02363854 -0.09242087 0.19698173 0.01390998
00000000: a555 3b3e 7bca c63d 0b56 f6bd e43d c5bd
00000010: 1911 3c3d 8f1f a33d a6a2 13bc 843a 823d
00000020: 0d28 9ebd 8a5f 04be 4747 c6bd 9564 183e
00000030: b84c e9bd 628c 3dbe a06a 19be eb4a fe3c
00000040: a7d2 fdbd 3a29 653e a994 df3d f834 573e
00000050: b835 b9bc ac84 39be c175 46be 982a 41be
00000060: 4ec3 98bd 3e22 2e3e c53b 953d 6d1b 26be
00000070: 7a25 a9bd ffb5 a0bd 76b7 8b3d 9392 5d3d
00000080: e2a1 0c3d 91c1 c13d 008c 4d3e 6fe7 223e
00000090: 2920 4fbe d833 3b3e 1eda aebd afc0 b0bc
000000a0: 9d1e e33d adb4 a33d 88b3 5c3e 450d cf3d
000000b0: 479a b2bc d841 983c 1d67 16be 67d1 433d
000000c0: ae34 ac3d bacc 08be d699 53bd 90ef d53d
000000d0: 5a4e 4a3e 8704 1c3e b3ee 21be a010 a83d
000000e0: fa88 96bc a5cc 93bd 479e 023e ccd9 513e
000000f0: f7f9 1f3e aa50 ccbd 6fb3 09be b1ff da3d
00000100: 2c3b dbbc a596 c3bc b3d1 4d3e a06d be3b
00000110: a98f f6bc 0106 b9bd 2331 273e 068c 4a3e
00000120: aa9b 5fbd 6e54 aebd fa28 2a3d 9ccb 013e
00000130: 6ffd 63be bbc9 c9bd 81ef e4b7 c73c c43c
00000140: e936 1ebe b5d2 41bd bb09 ba3d 9401 233d
00000150: f762 e03d 6d20 fabd 8b4f 58bc 976f eabd
00000160: d438 eb3d de34 28be fa70 293d d9c7 473e
00000170: 66c6 b0bd 4906 47be 45f3 533d 9468 fc3d
00000180: 18f9 40bd ad81 04bd e4c6 293e b256 0e3e
00000190: bf82 b3bd e866 693e 5ea3 113e b863 28be
000001a0: 4672 9abd 44ac 0bbe 9a47 28be c6b7 3dbe
000001b0: 3a8f 003e 9a0f adbc f128 e73d a1ff 663e
000001c0: a0b1 07be ff9c 163e aa02 2ebe 5d1b 23bd
000001d0: 05a7 69bd 3bb3 d93d 03b9 9b3d fa82 d2bc
000001e0: 0937 a2bc 464b 0c3e e316 4bbe 5a0b eb3d
000001f0: 6ffe 7c3c b196 0b3e 7d0f 64bd 3ca9 eb3d
00000200: bbb3 35bd c134 06be 1233 35be 93d7 063e
00000210: 9f7d 983d f4a9 573e cd3a f9bd 1fe5 c5bd
00000220: 975d 573e f81d 03be 1855 cb3d 91b8 fbbd
00000230: 59b4 22be 5e7f ef3b 30c3 5dbe 6ddd f5bc
00000240: de4a 253e a2cf 66be 57e0 6d3c 228b 4a3e
00000250: 4971 f13d 0978 283d cb1c c9bb 096d f23d
00000260: bd58 c43d 8817 19bd 067c 7d3d fc52 4b3c
00000270: 3552 9cbd 0aee b4bd b1b6 1cbe 5e55 e63c
00000280: c50a 8ebd 99f2 b5bc 13d9 ad3d 789f dbbd
00000290: 9e2e 493e 06a5 663d fb08 4cbe 8b41 f63d
000002a0: a14f 13be 568b 873d 2b50 66be afee 293e
000002b0: f220 79bd 9ef7 53bd f360 f23c 123a 3e3d
000002c0: 50ed ed3d bc37 2cbe 7016 303c 67cc 1cbe
000002d0: ead2 593c 15fb 2bbe 214e 5c3e 65df 813d
000002e0: 138c 123e e4c0 4ebe ba8b d33d 1959 243e
000002f0: 11a4 33be c5c2 c63d 535b da3d 36b8 11bc
00000300: 71bd 4bbe 07b0 283e da6a 1abd ec92 1b3e
00000310: 93cc 3dbe 3a03 fe3d 0011 dbbd db29 3dbd
00000320: dc55 24be 4db3 643e 2e83 1dbd 2728 3dbd
00000330: 95cb 4c3e 87ad 26be 0d38 963d 80b4 f8bd
00000340: 2578 94bd 1782 593d e67d b73d 87e9 ca3d
00000350: a2bd 63be 2dfe e0bb d9f4 273e a38e c5bd
00000360: b9b4 923d 802d 2e3e 7f0c dbbd 6024 433e
00000370: c5f7 1fbe 5d7e febd d471 cf3c 4a93 c7bd
00000380: 0bea 21be e3d6 53bd 4423 1e3e 850a 123e
00000390: e72e 2cbe 6a88 bfbd 2565 52bd 9c41 c0bd
000003a0: 3876 8ebd 30d0 6c3d fd02 233e 012e 4ebe
000003b0: 7d4e 083e 770e abbd 8e2c 483e e16e 13be
000003c0: 0627 20be 3443 61bd 8f89 18be 16fd eebd
000003d0: 337b 27be 0b21 66bd b53f 663e dd3a cabc
000003e0: f121 39be 262a d6bb b7c8 34be 03a5 023e
000003f0: 9da5 c13c 2747 bdbd 94b5 493e afe6 633c

bias f4 [64]
0.008903304 -0.012257877 0.013081481 0.012322266 -0.0054234313 -0.0039482727 -0.0072356756 -0.007553555
-0.008846105 -0.0014316083 -0.012630366 0.008892045 0.003176892 -0.007029183 0.0050385525 0.0022687297
0.008043799 -0.004966567 0.012424721 -0.009843266 0.010463343 0.00911088 -0.007552643 0.014496681
-0.008742758 0.0042999834 -0.0015504407 0.012684358 -0.008955748 0.00071062974 -0.00514297 -0.015383448
-0.0069430773 0.0064708996 -0.009430072 0.010463518 0.014496073 -0.0048138066 -0.014636064 -0.015448024
0.010070466 0.010911468 -0.014119539 0.008839177 0.007053441 -0.014161805 0.0047409027 -0.00946502
-0.012001868 -0.009854603 0.015857391 0.016919155 0.010171235 -0.0071901884 -0.007152943 -0.008568202
-0.010948798 0.016341813 -0.008933812 -0.016009701 0.019604808 0.010550367 0.004348907 -0.010201941
00000000: 2adf 113c 43d5 48bc b553 563c 54e3 493c
00000010: 0ab7 b1bb 8360 81bb 3f19 edbb d083 f7bb
00000020: 41ef 10bc cea4 bbba 98ef 4ebc f1af 113c
00000030: 6733 503b 1055 e6bb 711a a53b f8ae 143b
00000040: 23ca 033c 95be a2bb 0f91 4b3c a645 21bc
00000050: 716e 2b3c cd45 153c 297c f7bb 7d83 6d3c
00000060: c93d 0fbc e0e6 8c3b 2838 cbba 0ed2 4f3c
00000070: 21bb 12bc 8e49 3a3a 5c86 a8bb dc0a 7cbc
00000080: c182 e3bb d709 d43b 9780 1abc 2d6f 2b3c
00000090: f080 6d3c 23bd 9dbb 1acc 6fbc b519 7dbc
000000a0: 99fe 243c 04c6 323c a455 67bc 32d2 103c
000000b0: 8d20 e73b ea06 68bc 9359 9b3b 2c13 1bbc
000000c0: 7ca3 44bc 3375 21bc 5ce7 813c 0a9a 8a3c
000000d0: 40a5 263c ac9b ebbb 3c63 eabb a561 0cbc
000000e0: 9662 33bc 44df 853c 205f 12bc c726 83bc
000000f0: 439a a03c 72db 2c3c 4781 8e3b 0b26 27bc

weight f4 [64, 64]
-0.13953525 -0.17259903 0.07704333 0.047343224 0.20662096 -0.0155794155 0.13625468 -0.07531158
-0.12145403 -0.11451884 -0.2001734 -0.0550519 0.1589757 0.06209559 -0.027113121 -0.19137335
0.17136942 -0.16161151 -0.12341202 -0.18869513 0.19422959 -0.0027115648 0.21080506 0.052334942
-0.04357791 -0.10337428 -0.12971379 0.0031234748 0.011438411 0.20272678 -0.12934908 -0.17443252
0.11152635 -0.15945569 0.2084007 -0.21965314 -0.19718662 -0.025780968 -0.08494794 0.12539297
0.069856726 0.077616476 -0.19024904 -0.17772079 -0.12118636 0.12547746 -0.18323663 0.04733095
-0.047852233 -0.047611844 -0.21755308 -0.025445184 0.19577377 -0.0037299565 -0.030222962 0.007089988
0.06849883 0.059471548 -0.12559731 -0.19112574 0.05202955 0.09479673 -0.17812756 0.136688
-0.115067415 -0.026767828 0.1712993 0.04345805 -0.2144418 0.14463049 -0.15472876 -0.041682437
0.09472419 0.18273894 0.06914667 -0.008095225 -0.22013201 0.11163647 0.15802157 -0.1480867
0.16008586 0.1673456 0.14775786 0.13800403 -0.22903827 -0.07497239 0.13438454 0.17279987
0.04664762 -0.12747878 -0.09022059 0.14213577 -0.06902639 -0.07557144 0.053548004 0.10035232
0.17774658 0.12167719 -0.093152344 -0.116427146 -0.12270544 0.098781824 0.045838878 0.019294001
-0.09475007 0.024489582 -0.19868134 0.05745785 -0.015599357 -0.0318302 0.067117445 -0.08504929
-0.022921652 -0.04584481 0.2100899 -0.10636771 0.18012013 -0.022516197 -0.16031247 -0.17978789
-0.07161051 -0.14759885 -0.1398761 0.015304093 0.16216323 0.028420452 -0.015348547 0.17614962
-0.057366904 0.22883254 0.19811057 -0.06412637 -0.060585316 -0.07040506 0.005170798 -0.21021886
0.09703454 0.07135766 0.09420363 -0.016539464 -0.062525384 -0.041390814 -0.043098006 -0.013239825
-0.06439645 0.15537214 -0.17560765 -0.0042870473 0.028936578 -0.14892867 0.21425988 -0.050620798
0.13315544 0.16973993 0.07459516 0.01302208 0.124055125 -0.06427968 0.18670405 0.08336203
0.04436693 0.02838397 0.13495757 0.076029435 -0.066580124 -0.007940656 0.08007224 -0.026864015
0.1441914 -0.03166597 -0.057754964 0.19183554 0.08547672 0.0025303923 -0.0019725338 -0.20185927
-0.21777315 0.1730449 0.049666185 -0.051695008 0.20483164 -0.12610652 0.09465015 0.20317793
-0.19390799 0.19519347 -0.050137777 0.08421344 0.058607396 0.17692515 -0.061308093 -0.06839276
-0.05458272 0.20444143 0.17428525 0.01746488 -0.0043176487 -0.09679681 0.06818099 -0.049000774
-0.14733317 0.17824855 -0.018684324 -0.07079573 -0.096440725 0.036655415 0.0054663196 -0.108558476
-0.067972794 0.055421878 0.06903319 0.18454364 -0.16265804 0.18202241 -0.1156573 0.0813586
-0.120326966 0.09199834 -0.13498661 -0.06633921 0.12699884 0.042096395 0.1640522 -0.011657144
-0.08673199 0.18683198 0.1800609 -0.20119704 -0.049438424 0.032511666 -0.07810411 0.053174444
0.22182855 0.039644334 0.1720426 -0.114628784 0.03199153 0.021942984 -0.029400129 -0.067256175
-0.09837127 -0.10082551 -0.18783435 -0.08485496 0.05083174 -0.024208892 -0.14178184 0.03722949
-0.056130327 0.057300936 0.13405563 -0.13199818 -0.14667746 -0.19088486 0.11043985 0.04073463
00000000: 54e2 0ebe cdbd 30be e5c8 9d3d f8ea 413d
00000010: 7294 533e ce40 7fbc 5986 0b3e f53c 9abd
00000020: e4bc f8bd db88 eabd 41fa 4cbe 1a7e 61bd
00000030: 87ca 223e f257 7e3d 561c debc 60f7 43be
00000040: 777b 2f3e 7d7d 25be 71bf fcbd 4c39 41be
00000050: 1fe4 463e 82b4 31bb 48dd 573e 2a5d 563d
00000060: c07e 32bd e5b5 d3bd b1d3 04be 36b3 4c3b
00000070: 2c68 3b3c 9c97 4f3e 1674 04be 709e 32be
00000080: ed67 e43d 5a48 23be fe66 553e c1ec 60be
00000090: 4aeb 49be 9c32 d3bc 30f9 adbd 0467 003e
000000a0: 0b11 8f3d 63f5 9e3d a5d0 42be 70fc 35be
000000b0: 8e30 f8bd 2a7d 003e 62a2 3bbe 19de 413d
000000c0: b400 44bd a304 43bd 3cc6 5ebe 6b72 d0bc
000000d0: eb78 483e 4972 74bb 2596 f7bc 2153 e83b
000000e0: 1d49 8c3d 7098 733d 959c 00be 77b6 43be
000000f0: f01c 553d ca24 c23d 1267 36be f0f7 0b3e
00000100: 77a8 ebbd 3448 dbbc 1569 2f3e 1101 323d
00000110: a296 5bbe 041a 143e 3771 1ebe 34bb 2abd
00000120: c2fe c13d eb1f 3b3e c59c 8d3d d6a1 04bc
00000130: 496a 61be a9a1 e43d 68d0 213e 0aa4 17be
00000140: 8ced 233e a55c 2b3e d64d 173e ee50 0d3e
00000150: 0289 6abe 208b 99bd 1a9c 093e 73f2 303e
00000160: 9311 3f3d cc89 02be 93c5 b8bd 0a8c 113e
00000170: b55d 8dbd 33c5 9abd 2755 5b3d 8485 cd3d
00000180: 3303 363e e431 f93d a8c6 bebd 5b71 eebd
00000190: fd4c fbbd 204e ca3d 8cc1 3b3d 740e 9e3c
000001a0: 530c c2bd 609e c83c 1f73 4bbe ec58 6b3d
000001b0: 7294 7fbc 6260 02bd df74 893d 522e aebd
000001c0: 30c6 bbbc c4c7 3bbd cf21 573e 50d7 d9bd
000001d0: 6971 383e e373 b8bc f428 24be 511a 38be
000001e0: 88a8 92bd 2724 17be ae3b 0fbe 05be 7a3c
000001f0: 1e0e 263e 02d2 e83c 7978 7bbc 9160 343e
00000200: 8ff9 6abd 1453 6a3e 7fdd 4a3e b054 83bd
00000210: 4f28 78bd 8730 90bd cc6f a93b 9d43 57be
00000220: 0bba c63d f723 923d d5ed c03d c57d 87bc
00000230: 4f0d 80bd 6a89 29bd 8987 30bd daeb 58bc
00000240: 49e2 83bd e019 1f3e 7ed2 33be 5c7a 8cbb
00000250: 670c ed3c c280 18be f166 5b3e c157 4fbd
00000260: e659 083e 4ed0 2d3e 59c5 983d 905a 553c
00000270: 9d10 fe3d 11a5 83bd 592f 3f3e b6b9 aa3d
00000280: 19ba 353d 8085 e83c 5132 0a3e 52b5 9b3d
00000290: 295b 88bd 8619 02bc eafc a33d ec11 dcbc
000002a0: e9a6 133e 2db4 01bd 7890 6cbd 8970 443e
000002b0: 6b0e af3d f0d4 253b a045 01bb 32b4 4ebe
000002c0: edff 5ebe af32 313e c56e 4b3d 25be 53bd
000002d0: 63bf 513e 1122 01be f0d7 c13d e00d 503e
000002e0: d18f 46be cce0 473e 455d 4dbd 1978 ac3d
000002f0: 4f0e 703d de2b 353e 321e 7bbd 8111 8cbd
00000300: 2192 5fbd 1859 513e d577 323e 8212 8f3c
00000310: 107b 8dbb 683d c6bd 7aa2 8b3d 09b5 48bd
00000320: 82de 16be ca86 363e de0f 99bc 5afd 90bd
00000330: b782 c5bd fd23 163d d01e b33b e853 debd
00000340: 5235 8bbd 0d02 633d 4661 8d3d 02f9 3c3e
00000350: d48f 26be 1564 3a3e bcdd ecbd 569f a63d
00000360: fc6d f6bd a069 bc3d ee39 0abe dadc 87bd
00000370: fc0b 023e 456d 2c3d 4dfd 273e 9bfd 3ebc
00000380: 8ba0 b1bd e250 3f3e e261 383e 9906 4ebe
00000390: f27f 4abd f42a 053d 0cf5 9fbd 72cd 593d
000003a0: 0627 633e 1962 223d ef2b 303e 7fc2 eabd
000003b0: 8d09 033d c6c1 b33c 8ad8 f0bc 9bbd 89bd
000003c0: e076 c9bd 9b7d cebd a657 40be 70c8 adbd
000003d0: f134 503d ba51 c6bc 422f 11be f37d 183d
000003e0: eae8 65bd 63b4 6a3d e145 093e 882a 07be
000003f0: 9e32 16be 5277 43be 4a2e e23d 5bd9 263d

bias f4 [64]
0.0059969905 0.015534826 -0.013512916 -0.010942841 -0.0004367859 0.012359392 -0.011386077 -0.014611688
0.013425875 -0.0122459065 0.005399276 -0.0108986655 0.016560033 0.017007139 -0.007837362 -0.014060636
0.013180521 0.0059653018 0.012362531 -0.007748557 0.012299924 -0.0042356653 -0.006460475 0.006354113
0.018894054 0.012681329 -0.010100652 -0.013083959 -0.0037073798 -0.0008223486 0.004102536 0.016514491
-0.00011441081 -0.0045039025 0.010582139 -0.012345231 0.012850266 0.013549842 0.023183115 0.015810441
0.0076903864 0.010797884 0.012793405 0.017072143 0.016778428 0.012654325 -0.0038638045 -1.705911e-05
0.0032336207 5.3135816e-05 -0.006544447 0.012438601 0.012634832 0.014286235 -0.0120265875 -0.007907315
0.0031105678 0.014690706 0.002889653 0.01536052 -0.0034902028 -0.01085036 -0.010827899 0.010734716
00000000: 6782 c43b c885 7e3c 4765 5dbc 9a49 33bc
00000010: 6900 e5b9 0c7f 4a3c ab8c 3abc dd65 6fbc
00000020: 34f8 5b3c 0ea3 48bc 69ec b03b 5190 32bc
00000030: e8a8 873c 8e52 8b3c 4768 00bc 955e 66bc
00000040: 1df3 573c 9478 c33b 378c 4a3c 9be7 fdbb
00000050: 9f85 493c 56cb 8abb 64b2 d3bb 2a36 d03b
00000060: b4c7 9a3c 59c5 4f3c 357d 25bc 1a5e 56bc
00000070: 83f7 72bb e192 57ba 916e 863b 6649 873c
00000080: d6ef efb8 7995 93bb b560 2d3c a743 4abc
00000090: ec89 523c 2800 5e3c 84ea bd3c e684 813c
000000a0: a3ff fb3b 9ce9 303c 6e9b 513c e1da 8b3c
000000b0: ea72 893c 1654 4f3c e237 7dbb 291a 8fb7
000000c0: 27eb 533b 26de 5e38 cd72 d6bb 46cb 4b3c
000000d0: 5402 4f3c d010 6a3c 2a0b 45bc af8d 01bc
000000e0: abda 4b3b 49b1 703c 5560 3d3b b1aa 7b3c
000000f0: e3bb 64bb b5c5 31bc 8067 31bc aae0 2f3c

weight f4 [64, 64]
-0.030382276 -0.19386931 0.10527832 0.014323389 0.05711525 -0.04124849 -0.059148077 -0.027323946
0.1681139 -0.18641298 -0.051864386 0.10598177 -0.21320087 0.16618408 -0.16664638 0.11865343
0.19899172 -0.14177413 -0.08891513 -0.09156257 -0.19958586 -0.016968168 -0.014467233 -0.14627141
-0.108765796 -0.13357453 -0.14604707 0.009863533 0.16863926 -0.17183878 0.052353602 0.002492194
0.03063534 -0.045292947 -0.18646838 -0.14824264 -0.16231154 -0.11732259 -0.14951439 -0.21743979
-0.11675872 -0.1335122 0.108254336 -0.0596573 -0.11165552 0.06302604 0.22442067 -0.1726972
0.12628616 0.058641005 -0.1934139 -0.1347002 -0.22707973 -0.10532649 -0.1770797 0.10261293
-0.1436791 0.1526454 0.06508218 0.097109295 0.0992512 -0.061418936 0.056211367 -0.075141594
0.17916377 -0.19108407 -0.12930278 0.18486992 -0.21902035 -0.12899159 -0.19764817 0.17447151
-0.22718842 -0.11721137 0.10944863 0.22302343 -0.055916876 0.029412722 0.0002183932 0.059011735
-0.06833697 -0.032541037 -0.011905488 -0.21922196 -0.21083635 -0.17682278 0.05505632 0.12390483
-0.18107079 -0.14794005 -0.04750709 -0.049553644 0.15011579 0.11068357 0.057160195 -0.1577586
-0.14651714 -0.17042863 -0.038152147 0.18733616 0.21176672 -0.08940966 -0.22382425 -0.15573896
0.027111227 -0.12422397 0.09993971 0.047514435 -0.0010473393 -0.0677728 -0.05047066 0.1377595
0.15606555 -0.059595324 0.20613998 -0.19551924 -0.19969386 -0.00042074264 -0.19126473 -0.12366983
0.043183967 0.068935744 -0.085827455 -0.19037753 0.03103198 -0.1937819 -0.04208456 -0.21982415
0.05397544 0.18384242 -0.1537199 0.1839757 0.10880171 -0.1344366 0.14290199 -0.00070089556
-0.00074173516 0.0018483003 0.03972802 0.18414286 -0.13212597 0.022471476 -0.12590115 -0.19242813
-0.04992811 -0.022796245 0.2126327 -0.05949713 -0.017079221 -0.07729232 0.039598275 -0.19969337
0.012060618 -0.04973444 0.2151115 0.111918025 0.13321523 9.324159e-05 0.20015165 -0.052360278
-0.026477527 0.1472497 0.1262539 -0.130094 0.16568622 0.1754831 -0.11518705 0.11728544
0.007937713 -0.17780066 -0.012581271 -0.061995745 0.057370357 0.10915059 0.10949981 0.053432837
-0.08996971 -0.07193323 0.1488086 0.016964898 -0.070870966 0.19044909 -0.15812212 0.12853707
0.016050117 0.17029734 0.21040177 0.13941129 -0.17111254 -0.15331887 -0.058460355 0.20230709
0.10133715 -0.07816265 0.109860554 -0.1278506 0.21683238 0.018690033 0.22265957 -0.19649145
0.15855849 -0.16874473 -0.029414143 -0.13205919 0.11182792 -0.025509953 0.14370063 0.14354572
-0.17624234 -0.16346474 -0.117417246 0.023509406 -0.021016238 0.021750493 -0.024178294 -0.015206772
0.0943346 0.14658183 0.03145143 0.1445582 0.13652813 0.053033475 -0.15170625 -0.07724518
0.03332118 0.1401655 -0.103800036 -0.14560163 0.13600616 0.22175111 -0.09826193 -0.037936732
0.07902694 -0.00055361865 0.14556721 -0.187492 0.102672145 -0.067277126 0.17887801 0.0060199406
0.04275208 -0.16265376 -0.046851177 -0.050641555 0.18878219 0.1613848 -0.14611526 0.17980565
-0.12551399 0.08601163 0.20023508 -0.16447294 -0.20978153 0.061013836 0.0954107 -0.090943314
00000000: 40e4 f8bc ad85 46be 299c d73d a6ac 6a3c
00000010: aef1 693d 2df4 28bd 4145 72bd 78d6 dfbc
00000020: 0d26 2c3e 0be3 3ebe c06f 54bd f80c d93d
00000030: 5451 5abe 292c 2a3e 59a5 2abe 9200 f33d
00000040: 7cc4 4b3e 3d2d 11be 2319 b6bd 2885 bbbd
00000050: 3c60 4cbe d400 8bbc f907 6dbc 2cc8 15be
00000060: 9ac0 debd c3c7 08be 5d8d 15be a89a 213c
00000070: c5af 2c3e 81f6 2fbe bb70 563d 1454 233b
00000080: f7f6 fa3c 1985 39bd 91f1 3ebe ebcc 17be
00000090: ff34 26be d346 f0bd 4d1a 19be 89a8 5ebe
000000a0: 321f efbd 6cb7 08be 73b4 dd3d 375b 74bd
000000b0: a6ab e4bd cc13 813d 88ce 653e 89d7 30be
000000c0: 2951 013e 8d31 703d 4b0e 46be d9ee 09be
000000d0: 9787 68be 6ab5 d7bd 6254 35be ba26 d23d
000000e0: 9d20 13be 134f 1c3e ce49 853d 3de1 c63d
000000f0: 3744 cb3d 6c92 7bbd e43d 663d d6e3 99bd
00000100: b576 373e 8bab 43be f367 04be 8a4e 3d3e
00000110: df46 60be 5f16 04be 4864 4abe a9a8 323e
00000120: 15a4 68be 840c f0bd 9a26 e03d 4160 643e
00000130: 1809 65bd f3f2 f03c 7a00 6539 4ab6 713d
00000140: 41f4 8bbd c049 05bd 3c0f 43bc b97b 60be
00000150: 7ce5 57be 0811 35be bc82 613d d1c1 fd3d
00000160: 9f6a 39be 997d 17be cb96 42bd c3f8 4abd
00000170: f4b7 193e 11ae e23d cf20 6a3d 788b 21be
00000180: 9708 16be d884 2ebe 6d45 1cbd 0dd5 3f3e
00000190: 60d9 583e 691c b7bd 2f32 65be 097a 1fbe
000001a0: 5d18 de3c 2369 febd 31ad cc3d 7f9e 423d
000001b0: e046 89ba 77cc 8abd 53ba 4ebd d410 0d3e
000001c0: a6cf 1f3e 3a1a 74bd 5c16 533e 3236 48be
000001d0: 8c7c 4cbe 1f97 dcb9 e7da 43be 9c46 fdbd
000001e0: ace1 303d 2f2e 8d3d 4ec6 afbd 54f2 42be
000001f0: c736 fe3c c36e 46be dc60 2cbd 9519 61be
00000200: 5a15 5d3d 3041 3c3e c068 1dbe 2064 3c3e
00000210: 6ed3 de3d c0a9 09be e654 123e 4ebc 37ba
00000220: 0171 42ba ab42 f23a d9b9 223d f28f 3c3e
00000230: 084c 07be 1a16 b83c 3bec 00be e10b 45be
00000240: 6b81 4cbd 31bf babc 63bc 593e 43b3 73bd
00000250: b9e9 8bbc 704b 9ebd cd31 223d 6b7c 4cbe
00000260: e699 453c 57b6 4bbd 3046 5c3e 4735 e53d
00000270: 9369 083e b38a c338 8ef4 4c3e bb77 56bd
00000280: 66e7 d8bc a0c8 163e b448 013e 5d37 05be
00000290: a6a9 293e d7b1 333e 30e7 ebbd 5933 f03d
000002a0: 2e0d 023c 6011 36be ad21 4ebc 40ef 7dbd
000002b0: 2efd 6a3d 588a df3d 7041 e03d 64dc 5a3d
000002c0: 0a42 b8bd bb51 93bd 4861 183e f8f9 8a3c
000002d0: cc24 91bd 1605 433e c4ea 21be 399f 033e
000002e0: 897b 833c 6d62 2e3e 9073 573e d5c1 0e3e
000002f0: 2038 2fbe 9fff 1cbe 2074 6fbd 9729 4f3e
00000300: da89 cf3d bd13 a0bd 92fe e03d 45eb 02be
00000310: 4f09 5e3e d71b 993c df00 643e 0e35 49be
00000320: 285d 223e 6bcb 2cbe eef5 f0bc 863a 07be
00000330: 0906 e53d 40fa d0bc 4226 133e a6fd 123e
00000340: df78 34be 4d63 27be 7478 f0bd cc96 c03c
00000350: 3f2a acbc 172e b23c 8f11 c6bc d325 79bc
00000360: 8032 c13d 8c19 163e 37d3 003d 1107 143e
00000370: 08ce 0b3e a139 593d e258 1bbe b932 9ebd
00000380: ca7b 083d 8b87 0f3e 1d95 d4bd 9818 15be
00000390: 3345 0b3e b912 633e 8d3d c9bd 8c63 1bbd
000003a0: e0d8 a13d b820 11ba 920f 153e e7fd 3fbe
000003b0: c645 d23d 97c8 89bd cc2b 373e ec42 c53b
000003c0: ce1c 2f3d b58e 26be 05e7 3fbd 856d 4fbd
000003d0: 1e50 413e 0f42 253e 3d9f 15be f91e 383e
000003e0: bd86 00be de26 b03d 6d0a 4d3e 986b 28be
000003f0: f8d0 56be a5e9 793d af66 c33d 7d40 babd

weight f4 [1, 128]
-0.06484801 -0.064813435 0.015512408 -0.016534805 0.051364753 -0.06588816 0.016069168 0.09466138
-0.07669054 0.087509885 0.05005808 0.06779702 0.056922913 -0.05423728 0.05461817 0.05499796
-0.06642834 -0.02719068 -0.03425479 -0.016859364 -0.033595696 0.040945716 0.06728722 -0.0038370234
-0.03503131 -0.081478655 0.079849884 -0.022041935 0.08244708 0.0766424 -0.028470524 -0.09012424
-0.060736842 0.092202656 -0.014743529 0.025493182 -0.050138336 -0.038786296 -0.09258629 -0.07618463
0.051582858 -0.047747962 -0.0423376 -0.0717581 -0.031510077 -0.054503154 0.09503788 0.018776555
-0.033687662 0.08438389 0.04324235 -0.09472645 -0.02499863 -0.07518604 0.0933102 0.08937385
0.05852424 -0.08521181 -0.025101919 -0.09383629 0.055187233 0.07024487 0.052203268 -0.011470654
0.07211649 -0.08743247 0.08118745 0.06077069 0.07557687 -0.06864851 0.054635324 -0.06259154
0.021791201 0.046402063 -0.0046341456 0.04366369 -0.08001732 -0.046828732 0.060240146 0.0022559515
-0.009975711 -0.047252815 -0.08479314 0.03647635 -0.09952026 0.033741716 0.07608329 0.0070101325
-0.039343327 -0.008525554 -0.065611824 0.08752466 -0.0008480048 0.051352967 0.0061072796 0.03464508
-0.015479105 0.013782325 -0.0022090776 0.07583709 -0.031507857 -0.08063782 -0.09012282 -0.09270418
-0.035371587 0.021833671 -0.034718756 -0.032250524 -0.046122935 0.011458634 0.05274574 -0.00042140117
-0.058246057 0.08022398 -0.028540125 -0.0534625 -0.06401924 0.03965274 -0.06244012 0.009599938
0.022882264 0.058222417 -0.020495793 -0.06762874 0.02416086 -0.025716547 0.030971035 -0.010917486
00000000: 09cf 84bd e8bc 84bd c127 7e3c 0074 87bc
00000010: d963 523d 5ff0 86bd 7da3 833c d3dd c13d
00000020: ee0f 9dbd 6238 b33d b409 4d3d 2ad9 8a3d
00000030: 0028 693d e927 5ebd 4db7 5f3d 8a45 613d
00000040: 950b 88bd fdbe debc c04e 0cbd a61c 8abc
00000050: a49b 09bd b2b6 273d e2cd 893d 9276 7bbb
00000060: fe7c 0fbd 48de a6bd 5688 a33d 4a91 b4bc
00000070: 04da a83d b1f6 9c3d 043b e9bc 0f93 b8bd
00000080: 32c7 78bd bfd4 bc3d d88e 71bc 14d7 d03c
00000090: db5d 4dbd 61de 1ebd e19d bdbd b006 9cbd
000000a0: 8c48 533d 5e93 43bd 316a 2dbd e9f5 92bd
000000b0: b610 01bd b33e 5fbd 38a3 c23d 4ad1 993c
000000c0: 13fc 09bd 76d1 ac3d e41e 313d f1ff c1bd
000000d0: edc9 ccbc 23fb 99bd 6b19 bf3d a309 b73d
000000e0: 1db7 6f3d 8883 aebd 8aa2 cdbc 3e2d c0bd
000000f0: 020c 623d 8bdc 8f3d 18d3 553d 69ef 3bbc
00000100: cfb1 933d cb0f b3bd 9b45 a63d b0ea 783d
00000110: 0cc8 9a3d 9797 8cbd 4ac9 5f3d fe2f 80bd
00000120: 7683 b23c 1710 3e3d 08da 97bb b3d8 323d
00000130: 1fe0 a3bd 7ccf 3fbd 5fbe 763d 96d8 133b
00000140: 2a71 23bc 2b8c 41bd 07a8 adbd 3a68 153d
00000150: 47d1 cbbd c134 0a3d 8ed1 9b3d 41b5 e53b
00000160: 7826 21bd c4ae 0bbc 7e5f 86bd 2140 b33d
00000170: a44c 5eba 7d57 523d 931f c83b 00e8 0d3d
00000180: 129c 7dbc 43cf 613c 2cc6 10bb 7a50 9b3d
00000190: 620e 01bd 7125 a5bd 5092 b8bd b0db bdbd
000001a0: cce1 10bd 87dc b23c 4135 0ebd 2019 04bd
000001b0: 67eb 3cbd ffbc 3b3c eb0b 583d 82ef dcb9
000001c0: 6b93 6ebd 784c a43d fbcc e9bc 7ffb 5abd
000001d0: 851c 83bd e96a 223d 36c1 7fbd 0f49 1d3c
000001e0: 9673 bb3c a17a 6e3d cbe6 a7bc f080 8abd
000001f0: ffec c53c 82ab d2bc f8b6 fd3c 41df 32bc
